{"format": "graph-model", "generatedBy": "2.8.1", "convertedBy": "TensorFlow.js Converter v3.15.0", "signature": {"inputs": {"attention_mask:0": {"name": "attention_mask:0", "dtype": "DT_INT32", "tensorShape": {"dim": [{"size": "-1"}, {"size": "-1"}]}}, "input_ids:0": {"name": "input_ids:0", "dtype": "DT_INT32", "tensorShape": {"dim": [{"size": "-1"}, {"size": "-1"}]}}, "token_type_ids:0": {"name": "token_type_ids:0", "dtype": "DT_INT32", "tensorShape": {"dim": [{"size": "-1"}, {"size": "-1"}]}}}, "outputs": {"logits": {"name": "Identity:0", "dtype": "DT_FLOAT", "tensorShape": {"dim": [{"size": "-1"}, {"size": "-1"}, {"size": "7"}]}}}}, "modelTopology": {"node": [{"name": "StatefulPartitionedCall/tf_bert_for_token_classification/classifier/Tensordot/Const", "op": "Const", "attr": {"value": {"tensor": {"dtype": "DT_INT32", "tensorShape": {"dim": [{"size": "1"}]}}}, "dtype": {"type": "DT_INT32"}}}, {"name": "StatefulPartitionedCall/tf_bert_for_token_classification/classifier/Tensordot/axes", "op": "Const", "attr": {"value": {"tensor": {"dtype": "DT_INT32", "tensorShape": {"dim": [{"size": "1"}]}}}, "dtype": {"type": "DT_INT32"}}}, {"name": "StatefulPartitionedCall/tf_bert_for_token_classification/classifier/Tensordot/GatherV2_1/axis", "op": "Const", "attr": {"dtype": {"type": "DT_INT32"}, "value": {"tensor": {"dtype": "DT_INT32", "tensorShape": {}}}}}, {"name": "StatefulPartitionedCall/tf_bert_for_token_classification/classifier/Tensordot/Const_1", "op": "Const", "attr": {"value": {"tensor": {"dtype": "DT_INT32", "tensorShape": {"dim": [{"size": "1"}]}}}, "dtype": {"type": "DT_INT32"}}}, {"name": "StatefulPartitionedCall/tf_bert_for_token_classification/classifier/Tensordot/ReadVariableOp", "op": "Const", "attr": {"dtype": {"type": "DT_FLOAT"}, "value": {"tensor": {"dtype": "DT_FLOAT", "tensorShape": {"dim": [{"size": "512"}, {"size": "7"}]}}}}}, {"name": "StatefulPartitionedCall/tf_bert_for_token_classification/bert/encoder/layer_._7/output/LayerNorm/batchnorm/ReadVariableOp", "op": "Const", "attr": {"value": {"tensor": {"dtype": "DT_FLOAT", "tensorShape": {"dim": [{"size": "512"}]}}}, "dtype": {"type": "DT_FLOAT"}}}, {"name": "StatefulPartitionedCall/tf_bert_for_token_classification/bert/encoder/layer_._7/output/dense/Tensordot/Const", "op": "Const", "attr": {"value": {"tensor": {"dtype": "DT_INT32", "tensorShape": {"dim": [{"size": "1"}]}}}, "dtype": {"type": "DT_INT32"}}}, {"name": "StatefulPartitionedCall/tf_bert_for_token_classification/bert/encoder/layer_._7/output/dense/Tensordot/axes", "op": "Const", "attr": {"dtype": {"type": "DT_INT32"}, "value": {"tensor": {"dtype": "DT_INT32", "tensorShape": {"dim": [{"size": "1"}]}}}}}, {"name": "StatefulPartitionedCall/tf_bert_for_token_classification/bert/encoder/layer_._7/output/dense/Tensordot/GatherV2_1/axis", "op": "Const", "attr": {"value": {"tensor": {"dtype": "DT_INT32", "tensorShape": {}}}, "dtype": {"type": "DT_INT32"}}}, {"name": "StatefulPartitionedCall/tf_bert_for_token_classification/bert/encoder/layer_._7/output/dense/Tensordot/Const_1", "op": "Const", "attr": {"value": {"tensor": {"dtype": "DT_INT32", "tensorShape": {"dim": [{"size": "1"}]}}}, "dtype": {"type": "DT_INT32"}}}, {"name": "StatefulPartitionedCall/tf_bert_for_token_classification/bert/encoder/layer_._7/output/dense/Tensordot/ReadVariableOp", "op": "Const", "attr": {"value": {"tensor": {"dtype": "DT_FLOAT", "tensorShape": {"dim": [{"size": "2048"}, {"size": "512"}]}}}, "dtype": {"type": "DT_FLOAT"}}}, {"name": "StatefulPartitionedCall/tf_bert_for_token_classification/bert/encoder/layer_._7/intermediate/Gelu/mul/x", "op": "Const", "attr": {"dtype": {"type": "DT_FLOAT"}, "value": {"tensor": {"dtype": "DT_FLOAT", "tensorShape": {}}}}}, {"name": "StatefulPartitionedCall/tf_bert_for_token_classification/bert/encoder/layer_._7/intermediate/Gelu/add/x", "op": "Const", "attr": {"dtype": {"type": "DT_FLOAT"}, "value": {"tensor": {"dtype": "DT_FLOAT", "tensorShape": {}}}}}, {"name": "StatefulPartitionedCall/tf_bert_for_token_classification/bert/encoder/layer_._7/intermediate/dense/Tensordot/Const", "op": "Const", "attr": {"value": {"tensor": {"dtype": "DT_INT32", "tensorShape": {"dim": [{"size": "1"}]}}}, "dtype": {"type": "DT_INT32"}}}, {"name": "StatefulPartitionedCall/tf_bert_for_token_classification/bert/encoder/layer_._7/intermediate/dense/Tensordot/axes", "op": "Const", "attr": {"dtype": {"type": "DT_INT32"}, "value": {"tensor": {"dtype": "DT_INT32", "tensorShape": {"dim": [{"size": "1"}]}}}}}, {"name": "StatefulPartitionedCall/tf_bert_for_token_classification/bert/encoder/layer_._7/intermediate/dense/Tensordot/GatherV2_1/axis", "op": "Const", "attr": {"dtype": {"type": "DT_INT32"}, "value": {"tensor": {"dtype": "DT_INT32", "tensorShape": {}}}}}, {"name": "StatefulPartitionedCall/tf_bert_for_token_classification/bert/encoder/layer_._7/intermediate/dense/Tensordot/Const_1", "op": "Const", "attr": {"value": {"tensor": {"dtype": "DT_INT32", "tensorShape": {"dim": [{"size": "1"}]}}}, "dtype": {"type": "DT_INT32"}}}, {"name": "StatefulPartitionedCall/tf_bert_for_token_classification/bert/encoder/layer_._7/intermediate/dense/Tensordot/ReadVariableOp", "op": "Const", "attr": {"value": {"tensor": {"dtype": "DT_FLOAT", "tensorShape": {"dim": [{"size": "512"}, {"size": "2048"}]}}}, "dtype": {"type": "DT_FLOAT"}}}, {"name": "StatefulPartitionedCall/tf_bert_for_token_classification/bert/encoder/layer_._7/intermediate/dense/Tensordot/free", "op": "Const", "attr": {"dtype": {"type": "DT_INT32"}, "value": {"tensor": {"dtype": "DT_INT32", "tensorShape": {"dim": [{"size": "2"}]}}}}}, {"name": "StatefulPartitionedCall/tf_bert_for_token_classification/bert/encoder/layer_._7/intermediate/dense/Tensordot/GatherV2/axis", "op": "Const", "attr": {"value": {"tensor": {"dtype": "DT_INT32", "tensorShape": {}}}, "dtype": {"type": "DT_INT32"}}}, {"name": "StatefulPartitionedCall/tf_bert_for_token_classification/bert/encoder/layer_._7/intermediate/dense/Tensordot/Const_2", "op": "Const", "attr": {"dtype": {"type": "DT_INT32"}, "value": {"tensor": {"dtype": "DT_INT32", "tensorShape": {"dim": [{"size": "1"}]}}}}}, {"name": "StatefulPartitionedCall/tf_bert_for_token_classification/bert/encoder/layer_._7/intermediate/dense/Tensordot/concat_1/axis", "op": "Const", "attr": {"dtype": {"type": "DT_INT32"}, "value": {"tensor": {"dtype": "DT_INT32", "tensorShape": {}}}}}, {"name": "StatefulPartitionedCall/tf_bert_for_token_classification/bert/encoder/layer_._7/intermediate/dense/BiasAdd/ReadVariableOp", "op": "Const", "attr": {"value": {"tensor": {"dtype": "DT_FLOAT", "tensorShape": {"dim": [{"size": "2048"}]}}}, "dtype": {"type": "DT_FLOAT"}}}, {"name": "ConstantFolding/StatefulPartitionedCall/tf_bert_for_token_classification/bert/encoder/layer_._7/intermediate/Gelu/truediv_recip", "op": "Const", "attr": {"dtype": {"type": "DT_FLOAT"}, "value": {"tensor": {"dtype": "DT_FLOAT", "tensorShape": {}}}}}, {"name": "StatefulPartitionedCall/tf_bert_for_token_classification/bert/encoder/layer_._7/output/dense/Tensordot/free", "op": "Const", "attr": {"value": {"tensor": {"dtype": "DT_INT32", "tensorShape": {"dim": [{"size": "2"}]}}}, "dtype": {"type": "DT_INT32"}}}, {"name": "StatefulPartitionedCall/tf_bert_for_token_classification/bert/encoder/layer_._7/output/dense/Tensordot/GatherV2/axis", "op": "Const", "attr": {"value": {"tensor": {"dtype": "DT_INT32", "tensorShape": {}}}, "dtype": {"type": "DT_INT32"}}}, {"name": "StatefulPartitionedCall/tf_bert_for_token_classification/bert/encoder/layer_._7/output/dense/Tensordot/Const_2", "op": "Const", "attr": {"value": {"tensor": {"dtype": "DT_INT32", "tensorShape": {"dim": [{"size": "1"}]}}}, "dtype": {"type": "DT_INT32"}}}, {"name": "StatefulPartitionedCall/tf_bert_for_token_classification/bert/encoder/layer_._7/output/dense/Tensordot/concat_1/axis", "op": "Const", "attr": {"value": {"tensor": {"dtype": "DT_INT32", "tensorShape": {}}}, "dtype": {"type": "DT_INT32"}}}, {"name": "StatefulPartitionedCall/tf_bert_for_token_classification/bert/encoder/layer_._7/output/dense/BiasAdd/ReadVariableOp", "op": "Const", "attr": {"dtype": {"type": "DT_FLOAT"}, "value": {"tensor": {"dtype": "DT_FLOAT", "tensorShape": {"dim": [{"size": "512"}]}}}}}, {"name": "StatefulPartitionedCall/tf_bert_for_token_classification/bert/encoder/layer_._7/attention/output/LayerNorm/batchnorm/ReadVariableOp", "op": "Const", "attr": {"dtype": {"type": "DT_FLOAT"}, "value": {"tensor": {"dtype": "DT_FLOAT", "tensorShape": {"dim": [{"size": "512"}]}}}}}, {"name": "StatefulPartitionedCall/tf_bert_for_token_classification/bert/encoder/layer_._7/attention/output/dense/Tensordot/Const", "op": "Const", "attr": {"dtype": {"type": "DT_INT32"}, "value": {"tensor": {"dtype": "DT_INT32", "tensorShape": {"dim": [{"size": "1"}]}}}}}, {"name": "StatefulPartitionedCall/tf_bert_for_token_classification/bert/encoder/layer_._7/attention/output/dense/Tensordot/axes", "op": "Const", "attr": {"dtype": {"type": "DT_INT32"}, "value": {"tensor": {"dtype": "DT_INT32", "tensorShape": {"dim": [{"size": "1"}]}}}}}, {"name": "StatefulPartitionedCall/tf_bert_for_token_classification/bert/encoder/layer_._7/attention/output/dense/Tensordot/GatherV2_1/axis", "op": "Const", "attr": {"dtype": {"type": "DT_INT32"}, "value": {"tensor": {"dtype": "DT_INT32", "tensorShape": {}}}}}, {"name": "StatefulPartitionedCall/tf_bert_for_token_classification/bert/encoder/layer_._7/attention/output/dense/Tensordot/Const_1", "op": "Const", "attr": {"dtype": {"type": "DT_INT32"}, "value": {"tensor": {"dtype": "DT_INT32", "tensorShape": {"dim": [{"size": "1"}]}}}}}, {"name": "StatefulPartitionedCall/tf_bert_for_token_classification/bert/encoder/layer_._7/attention/output/dense/Tensordot/ReadVariableOp", "op": "Const", "attr": {"value": {"tensor": {"dtype": "DT_FLOAT", "tensorShape": {"dim": [{"size": "512"}, {"size": "512"}]}}}, "dtype": {"type": "DT_FLOAT"}}}, {"name": "StatefulPartitionedCall/tf_bert_for_token_classification/bert/encoder/layer_._7/attention/self/query/Tensordot/Const", "op": "Const", "attr": {"dtype": {"type": "DT_INT32"}, "value": {"tensor": {"dtype": "DT_INT32", "tensorShape": {"dim": [{"size": "1"}]}}}}}, {"name": "StatefulPartitionedCall/tf_bert_for_token_classification/bert/encoder/layer_._7/attention/self/query/Tensordot/axes", "op": "Const", "attr": {"value": {"tensor": {"dtype": "DT_INT32", "tensorShape": {"dim": [{"size": "1"}]}}}, "dtype": {"type": "DT_INT32"}}}, {"name": "StatefulPartitionedCall/tf_bert_for_token_classification/bert/encoder/layer_._7/attention/self/query/Tensordot/GatherV2_1/axis", "op": "Const", "attr": {"value": {"tensor": {"dtype": "DT_INT32", "tensorShape": {}}}, "dtype": {"type": "DT_INT32"}}}, {"name": "StatefulPartitionedCall/tf_bert_for_token_classification/bert/encoder/layer_._7/attention/self/query/Tensordot/Const_1", "op": "Const", "attr": {"value": {"tensor": {"dtype": "DT_INT32", "tensorShape": {"dim": [{"size": "1"}]}}}, "dtype": {"type": "DT_INT32"}}}, {"name": "StatefulPartitionedCall/tf_bert_for_token_classification/bert/encoder/layer_._7/attention/self/query/Tensordot/ReadVariableOp", "op": "Const", "attr": {"value": {"tensor": {"dtype": "DT_FLOAT", "tensorShape": {"dim": [{"size": "512"}, {"size": "512"}]}}}, "dtype": {"type": "DT_FLOAT"}}}, {"name": "StatefulPartitionedCall/tf_bert_for_token_classification/bert/encoder/layer_._7/attention/self/query/Tensordot/free", "op": "Const", "attr": {"value": {"tensor": {"dtype": "DT_INT32", "tensorShape": {"dim": [{"size": "2"}]}}}, "dtype": {"type": "DT_INT32"}}}, {"name": "StatefulPartitionedCall/tf_bert_for_token_classification/bert/encoder/layer_._7/attention/self/query/Tensordot/GatherV2/axis", "op": "Const", "attr": {"value": {"tensor": {"dtype": "DT_INT32", "tensorShape": {}}}, "dtype": {"type": "DT_INT32"}}}, {"name": "StatefulPartitionedCall/tf_bert_for_token_classification/bert/encoder/layer_._7/attention/self/query/Tensordot/Const_2", "op": "Const", "attr": {"value": {"tensor": {"dtype": "DT_INT32", "tensorShape": {"dim": [{"size": "1"}]}}}, "dtype": {"type": "DT_INT32"}}}, {"name": "StatefulPartitionedCall/tf_bert_for_token_classification/bert/encoder/layer_._7/attention/self/query/Tensordot/concat_1/axis", "op": "Const", "attr": {"value": {"tensor": {"dtype": "DT_INT32", "tensorShape": {}}}, "dtype": {"type": "DT_INT32"}}}, {"name": "StatefulPartitionedCall/tf_bert_for_token_classification/bert/encoder/layer_._7/attention/self/query/BiasAdd/ReadVariableOp", "op": "Const", "attr": {"dtype": {"type": "DT_FLOAT"}, "value": {"tensor": {"dtype": "DT_FLOAT", "tensorShape": {"dim": [{"size": "512"}]}}}}}, {"name": "StatefulPartitionedCall/tf_bert_for_token_classification/bert/encoder/layer_._7/attention/self/Reshape_2/shape/1", "op": "Const", "attr": {"dtype": {"type": "DT_INT32"}, "value": {"tensor": {"dtype": "DT_INT32", "tensorShape": {}}}}}, {"name": "StatefulPartitionedCall/tf_bert_for_token_classification/bert/encoder/layer_._7/attention/self/Reshape_2/shape/2", "op": "Const", "attr": {"dtype": {"type": "DT_INT32"}, "value": {"tensor": {"dtype": "DT_INT32", "tensorShape": {}}}}}, {"name": "StatefulPartitionedCall/tf_bert_for_token_classification/bert/encoder/layer_._7/attention/self/Reshape_2/shape/3", "op": "Const", "attr": {"value": {"tensor": {"dtype": "DT_INT32", "tensorShape": {}}}, "dtype": {"type": "DT_INT32"}}}, {"name": "StatefulPartitionedCall/tf_bert_for_token_classification/bert/encoder/layer_._7/attention/self/transpose_2/perm", "op": "Const", "attr": {"value": {"tensor": {"dtype": "DT_INT32", "tensorShape": {"dim": [{"size": "4"}]}}}, "dtype": {"type": "DT_INT32"}}}, {"name": "StatefulPartitionedCall/tf_bert_for_token_classification/bert/encoder/layer_._7/attention/self/key/Tensordot/Const", "op": "Const", "attr": {"value": {"tensor": {"dtype": "DT_INT32", "tensorShape": {"dim": [{"size": "1"}]}}}, "dtype": {"type": "DT_INT32"}}}, {"name": "StatefulPartitionedCall/tf_bert_for_token_classification/bert/encoder/layer_._7/attention/self/key/Tensordot/axes", "op": "Const", "attr": {"dtype": {"type": "DT_INT32"}, "value": {"tensor": {"dtype": "DT_INT32", "tensorShape": {"dim": [{"size": "1"}]}}}}}, {"name": "StatefulPartitionedCall/tf_bert_for_token_classification/bert/encoder/layer_._7/attention/self/key/Tensordot/GatherV2_1/axis", "op": "Const", "attr": {"dtype": {"type": "DT_INT32"}, "value": {"tensor": {"dtype": "DT_INT32", "tensorShape": {}}}}}, {"name": "StatefulPartitionedCall/tf_bert_for_token_classification/bert/encoder/layer_._7/attention/self/key/Tensordot/Const_1", "op": "Const", "attr": {"dtype": {"type": "DT_INT32"}, "value": {"tensor": {"dtype": "DT_INT32", "tensorShape": {"dim": [{"size": "1"}]}}}}}, {"name": "StatefulPartitionedCall/tf_bert_for_token_classification/bert/encoder/layer_._7/attention/self/key/Tensordot/ReadVariableOp", "op": "Const", "attr": {"dtype": {"type": "DT_FLOAT"}, "value": {"tensor": {"dtype": "DT_FLOAT", "tensorShape": {"dim": [{"size": "512"}, {"size": "512"}]}}}}}, {"name": "StatefulPartitionedCall/tf_bert_for_token_classification/bert/encoder/layer_._7/attention/self/key/Tensordot/free", "op": "Const", "attr": {"dtype": {"type": "DT_INT32"}, "value": {"tensor": {"dtype": "DT_INT32", "tensorShape": {"dim": [{"size": "2"}]}}}}}, {"name": "StatefulPartitionedCall/tf_bert_for_token_classification/bert/encoder/layer_._7/attention/self/key/Tensordot/GatherV2/axis", "op": "Const", "attr": {"value": {"tensor": {"dtype": "DT_INT32", "tensorShape": {}}}, "dtype": {"type": "DT_INT32"}}}, {"name": "StatefulPartitionedCall/tf_bert_for_token_classification/bert/encoder/layer_._7/attention/self/key/Tensordot/Const_2", "op": "Const", "attr": {"dtype": {"type": "DT_INT32"}, "value": {"tensor": {"dtype": "DT_INT32", "tensorShape": {"dim": [{"size": "1"}]}}}}}, {"name": "StatefulPartitionedCall/tf_bert_for_token_classification/bert/encoder/layer_._7/attention/self/key/Tensordot/concat_1/axis", "op": "Const", "attr": {"value": {"tensor": {"dtype": "DT_INT32", "tensorShape": {}}}, "dtype": {"type": "DT_INT32"}}}, {"name": "StatefulPartitionedCall/tf_bert_for_token_classification/bert/encoder/layer_._7/attention/self/key/BiasAdd/ReadVariableOp", "op": "Const", "attr": {"dtype": {"type": "DT_FLOAT"}, "value": {"tensor": {"dtype": "DT_FLOAT", "tensorShape": {"dim": [{"size": "512"}]}}}}}, {"name": "StatefulPartitionedCall/tf_bert_for_token_classification/bert/encoder/layer_._7/attention/self/Reshape/shape/1", "op": "Const", "attr": {"dtype": {"type": "DT_INT32"}, "value": {"tensor": {"dtype": "DT_INT32", "tensorShape": {}}}}}, {"name": "StatefulPartitionedCall/tf_bert_for_token_classification/bert/encoder/layer_._7/attention/self/Reshape/shape/2", "op": "Const", "attr": {"dtype": {"type": "DT_INT32"}, "value": {"tensor": {"dtype": "DT_INT32", "tensorShape": {}}}}}, {"name": "StatefulPartitionedCall/tf_bert_for_token_classification/bert/encoder/layer_._7/attention/self/Reshape/shape/3", "op": "Const", "attr": {"value": {"tensor": {"dtype": "DT_INT32", "tensorShape": {}}}, "dtype": {"type": "DT_INT32"}}}, {"name": "StatefulPartitionedCall/tf_bert_for_token_classification/bert/encoder/layer_._7/attention/self/transpose/perm", "op": "Const", "attr": {"dtype": {"type": "DT_INT32"}, "value": {"tensor": {"dtype": "DT_INT32", "tensorShape": {"dim": [{"size": "4"}]}}}}}, {"name": "ConstantFolding/StatefulPartitionedCall/tf_bert_for_token_classification/bert/encoder/layer_._7/attention/self/truediv_recip", "op": "Const", "attr": {"value": {"tensor": {"dtype": "DT_FLOAT", "tensorShape": {}}}, "dtype": {"type": "DT_FLOAT"}}}, {"name": "StatefulPartitionedCall/tf_bert_for_token_classification/bert/encoder/layer_._7/attention/self/add_1/y", "op": "Const", "attr": {"value": {"tensor": {"dtype": "DT_FLOAT", "tensorShape": {}}}, "dtype": {"type": "DT_FLOAT"}}}, {"name": "StatefulPartitionedCall/tf_bert_for_token_classification/bert/encoder/layer_._7/attention/self/value/Tensordot/Const", "op": "Const", "attr": {"dtype": {"type": "DT_INT32"}, "value": {"tensor": {"dtype": "DT_INT32", "tensorShape": {"dim": [{"size": "1"}]}}}}}, {"name": "StatefulPartitionedCall/tf_bert_for_token_classification/bert/encoder/layer_._7/attention/self/value/Tensordot/axes", "op": "Const", "attr": {"dtype": {"type": "DT_INT32"}, "value": {"tensor": {"dtype": "DT_INT32", "tensorShape": {"dim": [{"size": "1"}]}}}}}, {"name": "StatefulPartitionedCall/tf_bert_for_token_classification/bert/encoder/layer_._7/attention/self/value/Tensordot/GatherV2_1/axis", "op": "Const", "attr": {"value": {"tensor": {"dtype": "DT_INT32", "tensorShape": {}}}, "dtype": {"type": "DT_INT32"}}}, {"name": "StatefulPartitionedCall/tf_bert_for_token_classification/bert/encoder/layer_._7/attention/self/value/Tensordot/Const_1", "op": "Const", "attr": {"dtype": {"type": "DT_INT32"}, "value": {"tensor": {"dtype": "DT_INT32", "tensorShape": {"dim": [{"size": "1"}]}}}}}, {"name": "StatefulPartitionedCall/tf_bert_for_token_classification/bert/encoder/layer_._7/attention/self/value/Tensordot/ReadVariableOp", "op": "Const", "attr": {"value": {"tensor": {"dtype": "DT_FLOAT", "tensorShape": {"dim": [{"size": "512"}, {"size": "512"}]}}}, "dtype": {"type": "DT_FLOAT"}}}, {"name": "StatefulPartitionedCall/tf_bert_for_token_classification/bert/encoder/layer_._7/attention/self/value/Tensordot/free", "op": "Const", "attr": {"value": {"tensor": {"dtype": "DT_INT32", "tensorShape": {"dim": [{"size": "2"}]}}}, "dtype": {"type": "DT_INT32"}}}, {"name": "StatefulPartitionedCall/tf_bert_for_token_classification/bert/encoder/layer_._7/attention/self/value/Tensordot/GatherV2/axis", "op": "Const", "attr": {"value": {"tensor": {"dtype": "DT_INT32", "tensorShape": {}}}, "dtype": {"type": "DT_INT32"}}}, {"name": "StatefulPartitionedCall/tf_bert_for_token_classification/bert/encoder/layer_._7/attention/self/value/Tensordot/Const_2", "op": "Const", "attr": {"value": {"tensor": {"dtype": "DT_INT32", "tensorShape": {"dim": [{"size": "1"}]}}}, "dtype": {"type": "DT_INT32"}}}, {"name": "StatefulPartitionedCall/tf_bert_for_token_classification/bert/encoder/layer_._7/attention/self/value/Tensordot/concat_1/axis", "op": "Const", "attr": {"dtype": {"type": "DT_INT32"}, "value": {"tensor": {"dtype": "DT_INT32", "tensorShape": {}}}}}, {"name": "StatefulPartitionedCall/tf_bert_for_token_classification/bert/encoder/layer_._7/attention/self/value/BiasAdd/ReadVariableOp", "op": "Const", "attr": {"dtype": {"type": "DT_FLOAT"}, "value": {"tensor": {"dtype": "DT_FLOAT", "tensorShape": {"dim": [{"size": "512"}]}}}}}, {"name": "StatefulPartitionedCall/tf_bert_for_token_classification/bert/encoder/layer_._7/attention/self/Reshape_1/shape/1", "op": "Const", "attr": {"dtype": {"type": "DT_INT32"}, "value": {"tensor": {"dtype": "DT_INT32", "tensorShape": {}}}}}, {"name": "StatefulPartitionedCall/tf_bert_for_token_classification/bert/encoder/layer_._7/attention/self/Reshape_1/shape/2", "op": "Const", "attr": {"value": {"tensor": {"dtype": "DT_INT32", "tensorShape": {}}}, "dtype": {"type": "DT_INT32"}}}, {"name": "StatefulPartitionedCall/tf_bert_for_token_classification/bert/encoder/layer_._7/attention/self/Reshape_1/shape/3", "op": "Const", "attr": {"dtype": {"type": "DT_INT32"}, "value": {"tensor": {"dtype": "DT_INT32", "tensorShape": {}}}}}, {"name": "StatefulPartitionedCall/tf_bert_for_token_classification/bert/encoder/layer_._7/attention/self/transpose_1/perm", "op": "Const", "attr": {"value": {"tensor": {"dtype": "DT_INT32", "tensorShape": {"dim": [{"size": "4"}]}}}, "dtype": {"type": "DT_INT32"}}}, {"name": "StatefulPartitionedCall/tf_bert_for_token_classification/bert/encoder/layer_._7/attention/self/transpose_3/perm", "op": "Const", "attr": {"dtype": {"type": "DT_INT32"}, "value": {"tensor": {"dtype": "DT_INT32", "tensorShape": {"dim": [{"size": "4"}]}}}}}, {"name": "StatefulPartitionedCall/tf_bert_for_token_classification/bert/encoder/layer_._7/attention/self/strided_slice/stack", "op": "Const", "attr": {"dtype": {"type": "DT_INT32"}, "value": {"tensor": {"dtype": "DT_INT32", "tensorShape": {"dim": [{"size": "1"}]}}}}}, {"name": "StatefulPartitionedCall/tf_bert_for_token_classification/bert/encoder/layer_._7/attention/self/strided_slice/stack_1", "op": "Const", "attr": {"value": {"tensor": {"dtype": "DT_INT32", "tensorShape": {"dim": [{"size": "1"}]}}}, "dtype": {"type": "DT_INT32"}}}, {"name": "StatefulPartitionedCall/tf_bert_for_token_classification/bert/encoder/layer_._7/attention/self/strided_slice/stack_2", "op": "Const", "attr": {"dtype": {"type": "DT_INT32"}, "value": {"tensor": {"dtype": "DT_INT32", "tensorShape": {"dim": [{"size": "1"}]}}}}}, {"name": "StatefulPartitionedCall/tf_bert_for_token_classification/bert/encoder/layer_._7/attention/self/Reshape_3/shape/1", "op": "Const", "attr": {"dtype": {"type": "DT_INT32"}, "value": {"tensor": {"dtype": "DT_INT32", "tensorShape": {}}}}}, {"name": "StatefulPartitionedCall/tf_bert_for_token_classification/bert/encoder/layer_._7/attention/self/Reshape_3/shape/2", "op": "Const", "attr": {"dtype": {"type": "DT_INT32"}, "value": {"tensor": {"dtype": "DT_INT32", "tensorShape": {}}}}}, {"name": "StatefulPartitionedCall/tf_bert_for_token_classification/bert/encoder/layer_._7/attention/output/dense/Tensordot/free", "op": "Const", "attr": {"dtype": {"type": "DT_INT32"}, "value": {"tensor": {"dtype": "DT_INT32", "tensorShape": {"dim": [{"size": "2"}]}}}}}, {"name": "StatefulPartitionedCall/tf_bert_for_token_classification/bert/encoder/layer_._7/attention/output/dense/Tensordot/GatherV2/axis", "op": "Const", "attr": {"dtype": {"type": "DT_INT32"}, "value": {"tensor": {"dtype": "DT_INT32", "tensorShape": {}}}}}, {"name": "StatefulPartitionedCall/tf_bert_for_token_classification/bert/encoder/layer_._7/attention/output/dense/Tensordot/Const_2", "op": "Const", "attr": {"dtype": {"type": "DT_INT32"}, "value": {"tensor": {"dtype": "DT_INT32", "tensorShape": {"dim": [{"size": "1"}]}}}}}, {"name": "StatefulPartitionedCall/tf_bert_for_token_classification/bert/encoder/layer_._7/attention/output/dense/Tensordot/concat_1/axis", "op": "Const", "attr": {"dtype": {"type": "DT_INT32"}, "value": {"tensor": {"dtype": "DT_INT32", "tensorShape": {}}}}}, {"name": "StatefulPartitionedCall/tf_bert_for_token_classification/bert/encoder/layer_._7/attention/output/dense/BiasAdd/ReadVariableOp", "op": "Const", "attr": {"value": {"tensor": {"dtype": "DT_FLOAT", "tensorShape": {"dim": [{"size": "512"}]}}}, "dtype": {"type": "DT_FLOAT"}}}, {"name": "StatefulPartitionedCall/tf_bert_for_token_classification/bert/encoder/layer_._6/output/LayerNorm/batchnorm/ReadVariableOp", "op": "Const", "attr": {"dtype": {"type": "DT_FLOAT"}, "value": {"tensor": {"dtype": "DT_FLOAT", "tensorShape": {"dim": [{"size": "512"}]}}}}}, {"name": "StatefulPartitionedCall/tf_bert_for_token_classification/bert/encoder/layer_._6/output/dense/Tensordot/Const", "op": "Const", "attr": {"dtype": {"type": "DT_INT32"}, "value": {"tensor": {"dtype": "DT_INT32", "tensorShape": {"dim": [{"size": "1"}]}}}}}, {"name": "StatefulPartitionedCall/tf_bert_for_token_classification/bert/encoder/layer_._6/output/dense/Tensordot/axes", "op": "Const", "attr": {"value": {"tensor": {"dtype": "DT_INT32", "tensorShape": {"dim": [{"size": "1"}]}}}, "dtype": {"type": "DT_INT32"}}}, {"name": "StatefulPartitionedCall/tf_bert_for_token_classification/bert/encoder/layer_._6/output/dense/Tensordot/GatherV2_1/axis", "op": "Const", "attr": {"value": {"tensor": {"dtype": "DT_INT32", "tensorShape": {}}}, "dtype": {"type": "DT_INT32"}}}, {"name": "StatefulPartitionedCall/tf_bert_for_token_classification/bert/encoder/layer_._6/output/dense/Tensordot/Const_1", "op": "Const", "attr": {"dtype": {"type": "DT_INT32"}, "value": {"tensor": {"dtype": "DT_INT32", "tensorShape": {"dim": [{"size": "1"}]}}}}}, {"name": "StatefulPartitionedCall/tf_bert_for_token_classification/bert/encoder/layer_._6/output/dense/Tensordot/ReadVariableOp", "op": "Const", "attr": {"dtype": {"type": "DT_FLOAT"}, "value": {"tensor": {"dtype": "DT_FLOAT", "tensorShape": {"dim": [{"size": "2048"}, {"size": "512"}]}}}}}, {"name": "StatefulPartitionedCall/tf_bert_for_token_classification/bert/encoder/layer_._6/intermediate/Gelu/mul/x", "op": "Const", "attr": {"value": {"tensor": {"dtype": "DT_FLOAT", "tensorShape": {}}}, "dtype": {"type": "DT_FLOAT"}}}, {"name": "StatefulPartitionedCall/tf_bert_for_token_classification/bert/encoder/layer_._6/intermediate/Gelu/add/x", "op": "Const", "attr": {"value": {"tensor": {"dtype": "DT_FLOAT", "tensorShape": {}}}, "dtype": {"type": "DT_FLOAT"}}}, {"name": "StatefulPartitionedCall/tf_bert_for_token_classification/bert/encoder/layer_._6/intermediate/dense/Tensordot/Const", "op": "Const", "attr": {"dtype": {"type": "DT_INT32"}, "value": {"tensor": {"dtype": "DT_INT32", "tensorShape": {"dim": [{"size": "1"}]}}}}}, {"name": "StatefulPartitionedCall/tf_bert_for_token_classification/bert/encoder/layer_._6/intermediate/dense/Tensordot/axes", "op": "Const", "attr": {"dtype": {"type": "DT_INT32"}, "value": {"tensor": {"dtype": "DT_INT32", "tensorShape": {"dim": [{"size": "1"}]}}}}}, {"name": "StatefulPartitionedCall/tf_bert_for_token_classification/bert/encoder/layer_._6/intermediate/dense/Tensordot/GatherV2_1/axis", "op": "Const", "attr": {"dtype": {"type": "DT_INT32"}, "value": {"tensor": {"dtype": "DT_INT32", "tensorShape": {}}}}}, {"name": "StatefulPartitionedCall/tf_bert_for_token_classification/bert/encoder/layer_._6/intermediate/dense/Tensordot/Const_1", "op": "Const", "attr": {"value": {"tensor": {"dtype": "DT_INT32", "tensorShape": {"dim": [{"size": "1"}]}}}, "dtype": {"type": "DT_INT32"}}}, {"name": "StatefulPartitionedCall/tf_bert_for_token_classification/bert/encoder/layer_._6/intermediate/dense/Tensordot/ReadVariableOp", "op": "Const", "attr": {"dtype": {"type": "DT_FLOAT"}, "value": {"tensor": {"dtype": "DT_FLOAT", "tensorShape": {"dim": [{"size": "512"}, {"size": "2048"}]}}}}}, {"name": "StatefulPartitionedCall/tf_bert_for_token_classification/bert/encoder/layer_._6/intermediate/dense/Tensordot/free", "op": "Const", "attr": {"dtype": {"type": "DT_INT32"}, "value": {"tensor": {"dtype": "DT_INT32", "tensorShape": {"dim": [{"size": "2"}]}}}}}, {"name": "StatefulPartitionedCall/tf_bert_for_token_classification/bert/encoder/layer_._6/intermediate/dense/Tensordot/GatherV2/axis", "op": "Const", "attr": {"value": {"tensor": {"dtype": "DT_INT32", "tensorShape": {}}}, "dtype": {"type": "DT_INT32"}}}, {"name": "StatefulPartitionedCall/tf_bert_for_token_classification/bert/encoder/layer_._6/intermediate/dense/Tensordot/Const_2", "op": "Const", "attr": {"dtype": {"type": "DT_INT32"}, "value": {"tensor": {"dtype": "DT_INT32", "tensorShape": {"dim": [{"size": "1"}]}}}}}, {"name": "StatefulPartitionedCall/tf_bert_for_token_classification/bert/encoder/layer_._6/intermediate/dense/Tensordot/concat_1/axis", "op": "Const", "attr": {"dtype": {"type": "DT_INT32"}, "value": {"tensor": {"dtype": "DT_INT32", "tensorShape": {}}}}}, {"name": "StatefulPartitionedCall/tf_bert_for_token_classification/bert/encoder/layer_._6/intermediate/dense/BiasAdd/ReadVariableOp", "op": "Const", "attr": {"dtype": {"type": "DT_FLOAT"}, "value": {"tensor": {"dtype": "DT_FLOAT", "tensorShape": {"dim": [{"size": "2048"}]}}}}}, {"name": "ConstantFolding/StatefulPartitionedCall/tf_bert_for_token_classification/bert/encoder/layer_._6/intermediate/Gelu/truediv_recip", "op": "Const", "attr": {"dtype": {"type": "DT_FLOAT"}, "value": {"tensor": {"dtype": "DT_FLOAT", "tensorShape": {}}}}}, {"name": "StatefulPartitionedCall/tf_bert_for_token_classification/bert/encoder/layer_._6/output/dense/Tensordot/free", "op": "Const", "attr": {"dtype": {"type": "DT_INT32"}, "value": {"tensor": {"dtype": "DT_INT32", "tensorShape": {"dim": [{"size": "2"}]}}}}}, {"name": "StatefulPartitionedCall/tf_bert_for_token_classification/bert/encoder/layer_._6/output/dense/Tensordot/GatherV2/axis", "op": "Const", "attr": {"value": {"tensor": {"dtype": "DT_INT32", "tensorShape": {}}}, "dtype": {"type": "DT_INT32"}}}, {"name": "StatefulPartitionedCall/tf_bert_for_token_classification/bert/encoder/layer_._6/output/dense/Tensordot/Const_2", "op": "Const", "attr": {"value": {"tensor": {"dtype": "DT_INT32", "tensorShape": {"dim": [{"size": "1"}]}}}, "dtype": {"type": "DT_INT32"}}}, {"name": "StatefulPartitionedCall/tf_bert_for_token_classification/bert/encoder/layer_._6/output/dense/Tensordot/concat_1/axis", "op": "Const", "attr": {"value": {"tensor": {"dtype": "DT_INT32", "tensorShape": {}}}, "dtype": {"type": "DT_INT32"}}}, {"name": "StatefulPartitionedCall/tf_bert_for_token_classification/bert/encoder/layer_._6/output/dense/BiasAdd/ReadVariableOp", "op": "Const", "attr": {"value": {"tensor": {"dtype": "DT_FLOAT", "tensorShape": {"dim": [{"size": "512"}]}}}, "dtype": {"type": "DT_FLOAT"}}}, {"name": "StatefulPartitionedCall/tf_bert_for_token_classification/bert/encoder/layer_._6/attention/output/LayerNorm/batchnorm/ReadVariableOp", "op": "Const", "attr": {"value": {"tensor": {"dtype": "DT_FLOAT", "tensorShape": {"dim": [{"size": "512"}]}}}, "dtype": {"type": "DT_FLOAT"}}}, {"name": "StatefulPartitionedCall/tf_bert_for_token_classification/bert/encoder/layer_._6/attention/output/dense/Tensordot/Const", "op": "Const", "attr": {"value": {"tensor": {"dtype": "DT_INT32", "tensorShape": {"dim": [{"size": "1"}]}}}, "dtype": {"type": "DT_INT32"}}}, {"name": "StatefulPartitionedCall/tf_bert_for_token_classification/bert/encoder/layer_._6/attention/output/dense/Tensordot/axes", "op": "Const", "attr": {"value": {"tensor": {"dtype": "DT_INT32", "tensorShape": {"dim": [{"size": "1"}]}}}, "dtype": {"type": "DT_INT32"}}}, {"name": "StatefulPartitionedCall/tf_bert_for_token_classification/bert/encoder/layer_._6/attention/output/dense/Tensordot/GatherV2_1/axis", "op": "Const", "attr": {"value": {"tensor": {"dtype": "DT_INT32", "tensorShape": {}}}, "dtype": {"type": "DT_INT32"}}}, {"name": "StatefulPartitionedCall/tf_bert_for_token_classification/bert/encoder/layer_._6/attention/output/dense/Tensordot/Const_1", "op": "Const", "attr": {"dtype": {"type": "DT_INT32"}, "value": {"tensor": {"dtype": "DT_INT32", "tensorShape": {"dim": [{"size": "1"}]}}}}}, {"name": "StatefulPartitionedCall/tf_bert_for_token_classification/bert/encoder/layer_._6/attention/output/dense/Tensordot/ReadVariableOp", "op": "Const", "attr": {"dtype": {"type": "DT_FLOAT"}, "value": {"tensor": {"dtype": "DT_FLOAT", "tensorShape": {"dim": [{"size": "512"}, {"size": "512"}]}}}}}, {"name": "StatefulPartitionedCall/tf_bert_for_token_classification/bert/encoder/layer_._6/attention/self/query/Tensordot/Const", "op": "Const", "attr": {"value": {"tensor": {"dtype": "DT_INT32", "tensorShape": {"dim": [{"size": "1"}]}}}, "dtype": {"type": "DT_INT32"}}}, {"name": "StatefulPartitionedCall/tf_bert_for_token_classification/bert/encoder/layer_._6/attention/self/query/Tensordot/axes", "op": "Const", "attr": {"value": {"tensor": {"dtype": "DT_INT32", "tensorShape": {"dim": [{"size": "1"}]}}}, "dtype": {"type": "DT_INT32"}}}, {"name": "StatefulPartitionedCall/tf_bert_for_token_classification/bert/encoder/layer_._6/attention/self/query/Tensordot/GatherV2_1/axis", "op": "Const", "attr": {"value": {"tensor": {"dtype": "DT_INT32", "tensorShape": {}}}, "dtype": {"type": "DT_INT32"}}}, {"name": "StatefulPartitionedCall/tf_bert_for_token_classification/bert/encoder/layer_._6/attention/self/query/Tensordot/Const_1", "op": "Const", "attr": {"dtype": {"type": "DT_INT32"}, "value": {"tensor": {"dtype": "DT_INT32", "tensorShape": {"dim": [{"size": "1"}]}}}}}, {"name": "StatefulPartitionedCall/tf_bert_for_token_classification/bert/encoder/layer_._6/attention/self/query/Tensordot/ReadVariableOp", "op": "Const", "attr": {"dtype": {"type": "DT_FLOAT"}, "value": {"tensor": {"dtype": "DT_FLOAT", "tensorShape": {"dim": [{"size": "512"}, {"size": "512"}]}}}}}, {"name": "StatefulPartitionedCall/tf_bert_for_token_classification/bert/encoder/layer_._6/attention/self/query/Tensordot/free", "op": "Const", "attr": {"dtype": {"type": "DT_INT32"}, "value": {"tensor": {"dtype": "DT_INT32", "tensorShape": {"dim": [{"size": "2"}]}}}}}, {"name": "StatefulPartitionedCall/tf_bert_for_token_classification/bert/encoder/layer_._6/attention/self/query/Tensordot/GatherV2/axis", "op": "Const", "attr": {"value": {"tensor": {"dtype": "DT_INT32", "tensorShape": {}}}, "dtype": {"type": "DT_INT32"}}}, {"name": "StatefulPartitionedCall/tf_bert_for_token_classification/bert/encoder/layer_._6/attention/self/query/Tensordot/Const_2", "op": "Const", "attr": {"dtype": {"type": "DT_INT32"}, "value": {"tensor": {"dtype": "DT_INT32", "tensorShape": {"dim": [{"size": "1"}]}}}}}, {"name": "StatefulPartitionedCall/tf_bert_for_token_classification/bert/encoder/layer_._6/attention/self/query/Tensordot/concat_1/axis", "op": "Const", "attr": {"dtype": {"type": "DT_INT32"}, "value": {"tensor": {"dtype": "DT_INT32", "tensorShape": {}}}}}, {"name": "StatefulPartitionedCall/tf_bert_for_token_classification/bert/encoder/layer_._6/attention/self/query/BiasAdd/ReadVariableOp", "op": "Const", "attr": {"value": {"tensor": {"dtype": "DT_FLOAT", "tensorShape": {"dim": [{"size": "512"}]}}}, "dtype": {"type": "DT_FLOAT"}}}, {"name": "StatefulPartitionedCall/tf_bert_for_token_classification/bert/encoder/layer_._6/attention/self/Reshape_2/shape/1", "op": "Const", "attr": {"dtype": {"type": "DT_INT32"}, "value": {"tensor": {"dtype": "DT_INT32", "tensorShape": {}}}}}, {"name": "StatefulPartitionedCall/tf_bert_for_token_classification/bert/encoder/layer_._6/attention/self/Reshape_2/shape/2", "op": "Const", "attr": {"dtype": {"type": "DT_INT32"}, "value": {"tensor": {"dtype": "DT_INT32", "tensorShape": {}}}}}, {"name": "StatefulPartitionedCall/tf_bert_for_token_classification/bert/encoder/layer_._6/attention/self/Reshape_2/shape/3", "op": "Const", "attr": {"dtype": {"type": "DT_INT32"}, "value": {"tensor": {"dtype": "DT_INT32", "tensorShape": {}}}}}, {"name": "StatefulPartitionedCall/tf_bert_for_token_classification/bert/encoder/layer_._6/attention/self/transpose_2/perm", "op": "Const", "attr": {"value": {"tensor": {"dtype": "DT_INT32", "tensorShape": {"dim": [{"size": "4"}]}}}, "dtype": {"type": "DT_INT32"}}}, {"name": "StatefulPartitionedCall/tf_bert_for_token_classification/bert/encoder/layer_._6/attention/self/key/Tensordot/Const", "op": "Const", "attr": {"dtype": {"type": "DT_INT32"}, "value": {"tensor": {"dtype": "DT_INT32", "tensorShape": {"dim": [{"size": "1"}]}}}}}, {"name": "StatefulPartitionedCall/tf_bert_for_token_classification/bert/encoder/layer_._6/attention/self/key/Tensordot/axes", "op": "Const", "attr": {"dtype": {"type": "DT_INT32"}, "value": {"tensor": {"dtype": "DT_INT32", "tensorShape": {"dim": [{"size": "1"}]}}}}}, {"name": "StatefulPartitionedCall/tf_bert_for_token_classification/bert/encoder/layer_._6/attention/self/key/Tensordot/GatherV2_1/axis", "op": "Const", "attr": {"value": {"tensor": {"dtype": "DT_INT32", "tensorShape": {}}}, "dtype": {"type": "DT_INT32"}}}, {"name": "StatefulPartitionedCall/tf_bert_for_token_classification/bert/encoder/layer_._6/attention/self/key/Tensordot/Const_1", "op": "Const", "attr": {"dtype": {"type": "DT_INT32"}, "value": {"tensor": {"dtype": "DT_INT32", "tensorShape": {"dim": [{"size": "1"}]}}}}}, {"name": "StatefulPartitionedCall/tf_bert_for_token_classification/bert/encoder/layer_._6/attention/self/key/Tensordot/ReadVariableOp", "op": "Const", "attr": {"value": {"tensor": {"dtype": "DT_FLOAT", "tensorShape": {"dim": [{"size": "512"}, {"size": "512"}]}}}, "dtype": {"type": "DT_FLOAT"}}}, {"name": "StatefulPartitionedCall/tf_bert_for_token_classification/bert/encoder/layer_._6/attention/self/key/Tensordot/free", "op": "Const", "attr": {"dtype": {"type": "DT_INT32"}, "value": {"tensor": {"dtype": "DT_INT32", "tensorShape": {"dim": [{"size": "2"}]}}}}}, {"name": "StatefulPartitionedCall/tf_bert_for_token_classification/bert/encoder/layer_._6/attention/self/key/Tensordot/GatherV2/axis", "op": "Const", "attr": {"value": {"tensor": {"dtype": "DT_INT32", "tensorShape": {}}}, "dtype": {"type": "DT_INT32"}}}, {"name": "StatefulPartitionedCall/tf_bert_for_token_classification/bert/encoder/layer_._6/attention/self/key/Tensordot/Const_2", "op": "Const", "attr": {"value": {"tensor": {"dtype": "DT_INT32", "tensorShape": {"dim": [{"size": "1"}]}}}, "dtype": {"type": "DT_INT32"}}}, {"name": "StatefulPartitionedCall/tf_bert_for_token_classification/bert/encoder/layer_._6/attention/self/key/Tensordot/concat_1/axis", "op": "Const", "attr": {"dtype": {"type": "DT_INT32"}, "value": {"tensor": {"dtype": "DT_INT32", "tensorShape": {}}}}}, {"name": "StatefulPartitionedCall/tf_bert_for_token_classification/bert/encoder/layer_._6/attention/self/key/BiasAdd/ReadVariableOp", "op": "Const", "attr": {"value": {"tensor": {"dtype": "DT_FLOAT", "tensorShape": {"dim": [{"size": "512"}]}}}, "dtype": {"type": "DT_FLOAT"}}}, {"name": "StatefulPartitionedCall/tf_bert_for_token_classification/bert/encoder/layer_._6/attention/self/Reshape/shape/1", "op": "Const", "attr": {"value": {"tensor": {"dtype": "DT_INT32", "tensorShape": {}}}, "dtype": {"type": "DT_INT32"}}}, {"name": "StatefulPartitionedCall/tf_bert_for_token_classification/bert/encoder/layer_._6/attention/self/Reshape/shape/2", "op": "Const", "attr": {"dtype": {"type": "DT_INT32"}, "value": {"tensor": {"dtype": "DT_INT32", "tensorShape": {}}}}}, {"name": "StatefulPartitionedCall/tf_bert_for_token_classification/bert/encoder/layer_._6/attention/self/Reshape/shape/3", "op": "Const", "attr": {"value": {"tensor": {"dtype": "DT_INT32", "tensorShape": {}}}, "dtype": {"type": "DT_INT32"}}}, {"name": "StatefulPartitionedCall/tf_bert_for_token_classification/bert/encoder/layer_._6/attention/self/transpose/perm", "op": "Const", "attr": {"dtype": {"type": "DT_INT32"}, "value": {"tensor": {"dtype": "DT_INT32", "tensorShape": {"dim": [{"size": "4"}]}}}}}, {"name": "ConstantFolding/StatefulPartitionedCall/tf_bert_for_token_classification/bert/encoder/layer_._6/attention/self/truediv_recip", "op": "Const", "attr": {"value": {"tensor": {"dtype": "DT_FLOAT", "tensorShape": {}}}, "dtype": {"type": "DT_FLOAT"}}}, {"name": "StatefulPartitionedCall/tf_bert_for_token_classification/bert/encoder/layer_._6/attention/self/add_1/y", "op": "Const", "attr": {"dtype": {"type": "DT_FLOAT"}, "value": {"tensor": {"dtype": "DT_FLOAT", "tensorShape": {}}}}}, {"name": "StatefulPartitionedCall/tf_bert_for_token_classification/bert/encoder/layer_._6/attention/self/value/Tensordot/Const", "op": "Const", "attr": {"value": {"tensor": {"dtype": "DT_INT32", "tensorShape": {"dim": [{"size": "1"}]}}}, "dtype": {"type": "DT_INT32"}}}, {"name": "StatefulPartitionedCall/tf_bert_for_token_classification/bert/encoder/layer_._6/attention/self/value/Tensordot/axes", "op": "Const", "attr": {"dtype": {"type": "DT_INT32"}, "value": {"tensor": {"dtype": "DT_INT32", "tensorShape": {"dim": [{"size": "1"}]}}}}}, {"name": "StatefulPartitionedCall/tf_bert_for_token_classification/bert/encoder/layer_._6/attention/self/value/Tensordot/GatherV2_1/axis", "op": "Const", "attr": {"dtype": {"type": "DT_INT32"}, "value": {"tensor": {"dtype": "DT_INT32", "tensorShape": {}}}}}, {"name": "StatefulPartitionedCall/tf_bert_for_token_classification/bert/encoder/layer_._6/attention/self/value/Tensordot/Const_1", "op": "Const", "attr": {"value": {"tensor": {"dtype": "DT_INT32", "tensorShape": {"dim": [{"size": "1"}]}}}, "dtype": {"type": "DT_INT32"}}}, {"name": "StatefulPartitionedCall/tf_bert_for_token_classification/bert/encoder/layer_._6/attention/self/value/Tensordot/ReadVariableOp", "op": "Const", "attr": {"value": {"tensor": {"dtype": "DT_FLOAT", "tensorShape": {"dim": [{"size": "512"}, {"size": "512"}]}}}, "dtype": {"type": "DT_FLOAT"}}}, {"name": "StatefulPartitionedCall/tf_bert_for_token_classification/bert/encoder/layer_._6/attention/self/value/Tensordot/free", "op": "Const", "attr": {"value": {"tensor": {"dtype": "DT_INT32", "tensorShape": {"dim": [{"size": "2"}]}}}, "dtype": {"type": "DT_INT32"}}}, {"name": "StatefulPartitionedCall/tf_bert_for_token_classification/bert/encoder/layer_._6/attention/self/value/Tensordot/GatherV2/axis", "op": "Const", "attr": {"dtype": {"type": "DT_INT32"}, "value": {"tensor": {"dtype": "DT_INT32", "tensorShape": {}}}}}, {"name": "StatefulPartitionedCall/tf_bert_for_token_classification/bert/encoder/layer_._6/attention/self/value/Tensordot/Const_2", "op": "Const", "attr": {"value": {"tensor": {"dtype": "DT_INT32", "tensorShape": {"dim": [{"size": "1"}]}}}, "dtype": {"type": "DT_INT32"}}}, {"name": "StatefulPartitionedCall/tf_bert_for_token_classification/bert/encoder/layer_._6/attention/self/value/Tensordot/concat_1/axis", "op": "Const", "attr": {"value": {"tensor": {"dtype": "DT_INT32", "tensorShape": {}}}, "dtype": {"type": "DT_INT32"}}}, {"name": "StatefulPartitionedCall/tf_bert_for_token_classification/bert/encoder/layer_._6/attention/self/value/BiasAdd/ReadVariableOp", "op": "Const", "attr": {"value": {"tensor": {"dtype": "DT_FLOAT", "tensorShape": {"dim": [{"size": "512"}]}}}, "dtype": {"type": "DT_FLOAT"}}}, {"name": "StatefulPartitionedCall/tf_bert_for_token_classification/bert/encoder/layer_._6/attention/self/Reshape_1/shape/1", "op": "Const", "attr": {"dtype": {"type": "DT_INT32"}, "value": {"tensor": {"dtype": "DT_INT32", "tensorShape": {}}}}}, {"name": "StatefulPartitionedCall/tf_bert_for_token_classification/bert/encoder/layer_._6/attention/self/Reshape_1/shape/2", "op": "Const", "attr": {"value": {"tensor": {"dtype": "DT_INT32", "tensorShape": {}}}, "dtype": {"type": "DT_INT32"}}}, {"name": "StatefulPartitionedCall/tf_bert_for_token_classification/bert/encoder/layer_._6/attention/self/Reshape_1/shape/3", "op": "Const", "attr": {"dtype": {"type": "DT_INT32"}, "value": {"tensor": {"dtype": "DT_INT32", "tensorShape": {}}}}}, {"name": "StatefulPartitionedCall/tf_bert_for_token_classification/bert/encoder/layer_._6/attention/self/transpose_1/perm", "op": "Const", "attr": {"value": {"tensor": {"dtype": "DT_INT32", "tensorShape": {"dim": [{"size": "4"}]}}}, "dtype": {"type": "DT_INT32"}}}, {"name": "StatefulPartitionedCall/tf_bert_for_token_classification/bert/encoder/layer_._6/attention/self/transpose_3/perm", "op": "Const", "attr": {"dtype": {"type": "DT_INT32"}, "value": {"tensor": {"dtype": "DT_INT32", "tensorShape": {"dim": [{"size": "4"}]}}}}}, {"name": "StatefulPartitionedCall/tf_bert_for_token_classification/bert/encoder/layer_._6/attention/self/strided_slice/stack", "op": "Const", "attr": {"dtype": {"type": "DT_INT32"}, "value": {"tensor": {"dtype": "DT_INT32", "tensorShape": {"dim": [{"size": "1"}]}}}}}, {"name": "StatefulPartitionedCall/tf_bert_for_token_classification/bert/encoder/layer_._6/attention/self/strided_slice/stack_1", "op": "Const", "attr": {"value": {"tensor": {"dtype": "DT_INT32", "tensorShape": {"dim": [{"size": "1"}]}}}, "dtype": {"type": "DT_INT32"}}}, {"name": "StatefulPartitionedCall/tf_bert_for_token_classification/bert/encoder/layer_._6/attention/self/strided_slice/stack_2", "op": "Const", "attr": {"value": {"tensor": {"dtype": "DT_INT32", "tensorShape": {"dim": [{"size": "1"}]}}}, "dtype": {"type": "DT_INT32"}}}, {"name": "StatefulPartitionedCall/tf_bert_for_token_classification/bert/encoder/layer_._6/attention/self/Reshape_3/shape/1", "op": "Const", "attr": {"dtype": {"type": "DT_INT32"}, "value": {"tensor": {"dtype": "DT_INT32", "tensorShape": {}}}}}, {"name": "StatefulPartitionedCall/tf_bert_for_token_classification/bert/encoder/layer_._6/attention/self/Reshape_3/shape/2", "op": "Const", "attr": {"dtype": {"type": "DT_INT32"}, "value": {"tensor": {"dtype": "DT_INT32", "tensorShape": {}}}}}, {"name": "StatefulPartitionedCall/tf_bert_for_token_classification/bert/encoder/layer_._6/attention/output/dense/Tensordot/free", "op": "Const", "attr": {"dtype": {"type": "DT_INT32"}, "value": {"tensor": {"dtype": "DT_INT32", "tensorShape": {"dim": [{"size": "2"}]}}}}}, {"name": "StatefulPartitionedCall/tf_bert_for_token_classification/bert/encoder/layer_._6/attention/output/dense/Tensordot/GatherV2/axis", "op": "Const", "attr": {"dtype": {"type": "DT_INT32"}, "value": {"tensor": {"dtype": "DT_INT32", "tensorShape": {}}}}}, {"name": "StatefulPartitionedCall/tf_bert_for_token_classification/bert/encoder/layer_._6/attention/output/dense/Tensordot/Const_2", "op": "Const", "attr": {"dtype": {"type": "DT_INT32"}, "value": {"tensor": {"dtype": "DT_INT32", "tensorShape": {"dim": [{"size": "1"}]}}}}}, {"name": "StatefulPartitionedCall/tf_bert_for_token_classification/bert/encoder/layer_._6/attention/output/dense/Tensordot/concat_1/axis", "op": "Const", "attr": {"value": {"tensor": {"dtype": "DT_INT32", "tensorShape": {}}}, "dtype": {"type": "DT_INT32"}}}, {"name": "StatefulPartitionedCall/tf_bert_for_token_classification/bert/encoder/layer_._6/attention/output/dense/BiasAdd/ReadVariableOp", "op": "Const", "attr": {"dtype": {"type": "DT_FLOAT"}, "value": {"tensor": {"dtype": "DT_FLOAT", "tensorShape": {"dim": [{"size": "512"}]}}}}}, {"name": "StatefulPartitionedCall/tf_bert_for_token_classification/bert/encoder/layer_._5/output/LayerNorm/batchnorm/ReadVariableOp", "op": "Const", "attr": {"value": {"tensor": {"dtype": "DT_FLOAT", "tensorShape": {"dim": [{"size": "512"}]}}}, "dtype": {"type": "DT_FLOAT"}}}, {"name": "StatefulPartitionedCall/tf_bert_for_token_classification/bert/encoder/layer_._5/output/dense/Tensordot/Const", "op": "Const", "attr": {"dtype": {"type": "DT_INT32"}, "value": {"tensor": {"dtype": "DT_INT32", "tensorShape": {"dim": [{"size": "1"}]}}}}}, {"name": "StatefulPartitionedCall/tf_bert_for_token_classification/bert/encoder/layer_._5/output/dense/Tensordot/axes", "op": "Const", "attr": {"value": {"tensor": {"dtype": "DT_INT32", "tensorShape": {"dim": [{"size": "1"}]}}}, "dtype": {"type": "DT_INT32"}}}, {"name": "StatefulPartitionedCall/tf_bert_for_token_classification/bert/encoder/layer_._5/output/dense/Tensordot/GatherV2_1/axis", "op": "Const", "attr": {"value": {"tensor": {"dtype": "DT_INT32", "tensorShape": {}}}, "dtype": {"type": "DT_INT32"}}}, {"name": "StatefulPartitionedCall/tf_bert_for_token_classification/bert/encoder/layer_._5/output/dense/Tensordot/Const_1", "op": "Const", "attr": {"dtype": {"type": "DT_INT32"}, "value": {"tensor": {"dtype": "DT_INT32", "tensorShape": {"dim": [{"size": "1"}]}}}}}, {"name": "StatefulPartitionedCall/tf_bert_for_token_classification/bert/encoder/layer_._5/output/dense/Tensordot/ReadVariableOp", "op": "Const", "attr": {"value": {"tensor": {"dtype": "DT_FLOAT", "tensorShape": {"dim": [{"size": "2048"}, {"size": "512"}]}}}, "dtype": {"type": "DT_FLOAT"}}}, {"name": "StatefulPartitionedCall/tf_bert_for_token_classification/bert/encoder/layer_._5/intermediate/Gelu/mul/x", "op": "Const", "attr": {"value": {"tensor": {"dtype": "DT_FLOAT", "tensorShape": {}}}, "dtype": {"type": "DT_FLOAT"}}}, {"name": "StatefulPartitionedCall/tf_bert_for_token_classification/bert/encoder/layer_._5/intermediate/Gelu/add/x", "op": "Const", "attr": {"value": {"tensor": {"dtype": "DT_FLOAT", "tensorShape": {}}}, "dtype": {"type": "DT_FLOAT"}}}, {"name": "StatefulPartitionedCall/tf_bert_for_token_classification/bert/encoder/layer_._5/intermediate/dense/Tensordot/Const", "op": "Const", "attr": {"value": {"tensor": {"dtype": "DT_INT32", "tensorShape": {"dim": [{"size": "1"}]}}}, "dtype": {"type": "DT_INT32"}}}, {"name": "StatefulPartitionedCall/tf_bert_for_token_classification/bert/encoder/layer_._5/intermediate/dense/Tensordot/axes", "op": "Const", "attr": {"dtype": {"type": "DT_INT32"}, "value": {"tensor": {"dtype": "DT_INT32", "tensorShape": {"dim": [{"size": "1"}]}}}}}, {"name": "StatefulPartitionedCall/tf_bert_for_token_classification/bert/encoder/layer_._5/intermediate/dense/Tensordot/GatherV2_1/axis", "op": "Const", "attr": {"dtype": {"type": "DT_INT32"}, "value": {"tensor": {"dtype": "DT_INT32", "tensorShape": {}}}}}, {"name": "StatefulPartitionedCall/tf_bert_for_token_classification/bert/encoder/layer_._5/intermediate/dense/Tensordot/Const_1", "op": "Const", "attr": {"dtype": {"type": "DT_INT32"}, "value": {"tensor": {"dtype": "DT_INT32", "tensorShape": {"dim": [{"size": "1"}]}}}}}, {"name": "StatefulPartitionedCall/tf_bert_for_token_classification/bert/encoder/layer_._5/intermediate/dense/Tensordot/ReadVariableOp", "op": "Const", "attr": {"dtype": {"type": "DT_FLOAT"}, "value": {"tensor": {"dtype": "DT_FLOAT", "tensorShape": {"dim": [{"size": "512"}, {"size": "2048"}]}}}}}, {"name": "StatefulPartitionedCall/tf_bert_for_token_classification/bert/encoder/layer_._5/intermediate/dense/Tensordot/free", "op": "Const", "attr": {"dtype": {"type": "DT_INT32"}, "value": {"tensor": {"dtype": "DT_INT32", "tensorShape": {"dim": [{"size": "2"}]}}}}}, {"name": "StatefulPartitionedCall/tf_bert_for_token_classification/bert/encoder/layer_._5/intermediate/dense/Tensordot/GatherV2/axis", "op": "Const", "attr": {"value": {"tensor": {"dtype": "DT_INT32", "tensorShape": {}}}, "dtype": {"type": "DT_INT32"}}}, {"name": "StatefulPartitionedCall/tf_bert_for_token_classification/bert/encoder/layer_._5/intermediate/dense/Tensordot/Const_2", "op": "Const", "attr": {"value": {"tensor": {"dtype": "DT_INT32", "tensorShape": {"dim": [{"size": "1"}]}}}, "dtype": {"type": "DT_INT32"}}}, {"name": "StatefulPartitionedCall/tf_bert_for_token_classification/bert/encoder/layer_._5/intermediate/dense/Tensordot/concat_1/axis", "op": "Const", "attr": {"value": {"tensor": {"dtype": "DT_INT32", "tensorShape": {}}}, "dtype": {"type": "DT_INT32"}}}, {"name": "StatefulPartitionedCall/tf_bert_for_token_classification/bert/encoder/layer_._5/intermediate/dense/BiasAdd/ReadVariableOp", "op": "Const", "attr": {"value": {"tensor": {"dtype": "DT_FLOAT", "tensorShape": {"dim": [{"size": "2048"}]}}}, "dtype": {"type": "DT_FLOAT"}}}, {"name": "ConstantFolding/StatefulPartitionedCall/tf_bert_for_token_classification/bert/encoder/layer_._5/intermediate/Gelu/truediv_recip", "op": "Const", "attr": {"dtype": {"type": "DT_FLOAT"}, "value": {"tensor": {"dtype": "DT_FLOAT", "tensorShape": {}}}}}, {"name": "StatefulPartitionedCall/tf_bert_for_token_classification/bert/encoder/layer_._5/output/dense/Tensordot/free", "op": "Const", "attr": {"dtype": {"type": "DT_INT32"}, "value": {"tensor": {"dtype": "DT_INT32", "tensorShape": {"dim": [{"size": "2"}]}}}}}, {"name": "StatefulPartitionedCall/tf_bert_for_token_classification/bert/encoder/layer_._5/output/dense/Tensordot/GatherV2/axis", "op": "Const", "attr": {"value": {"tensor": {"dtype": "DT_INT32", "tensorShape": {}}}, "dtype": {"type": "DT_INT32"}}}, {"name": "StatefulPartitionedCall/tf_bert_for_token_classification/bert/encoder/layer_._5/output/dense/Tensordot/Const_2", "op": "Const", "attr": {"dtype": {"type": "DT_INT32"}, "value": {"tensor": {"dtype": "DT_INT32", "tensorShape": {"dim": [{"size": "1"}]}}}}}, {"name": "StatefulPartitionedCall/tf_bert_for_token_classification/bert/encoder/layer_._5/output/dense/Tensordot/concat_1/axis", "op": "Const", "attr": {"value": {"tensor": {"dtype": "DT_INT32", "tensorShape": {}}}, "dtype": {"type": "DT_INT32"}}}, {"name": "StatefulPartitionedCall/tf_bert_for_token_classification/bert/encoder/layer_._5/output/dense/BiasAdd/ReadVariableOp", "op": "Const", "attr": {"value": {"tensor": {"dtype": "DT_FLOAT", "tensorShape": {"dim": [{"size": "512"}]}}}, "dtype": {"type": "DT_FLOAT"}}}, {"name": "StatefulPartitionedCall/tf_bert_for_token_classification/bert/encoder/layer_._5/attention/output/LayerNorm/batchnorm/ReadVariableOp", "op": "Const", "attr": {"value": {"tensor": {"dtype": "DT_FLOAT", "tensorShape": {"dim": [{"size": "512"}]}}}, "dtype": {"type": "DT_FLOAT"}}}, {"name": "StatefulPartitionedCall/tf_bert_for_token_classification/bert/encoder/layer_._5/attention/output/dense/Tensordot/Const", "op": "Const", "attr": {"value": {"tensor": {"dtype": "DT_INT32", "tensorShape": {"dim": [{"size": "1"}]}}}, "dtype": {"type": "DT_INT32"}}}, {"name": "StatefulPartitionedCall/tf_bert_for_token_classification/bert/encoder/layer_._5/attention/output/dense/Tensordot/axes", "op": "Const", "attr": {"dtype": {"type": "DT_INT32"}, "value": {"tensor": {"dtype": "DT_INT32", "tensorShape": {"dim": [{"size": "1"}]}}}}}, {"name": "StatefulPartitionedCall/tf_bert_for_token_classification/bert/encoder/layer_._5/attention/output/dense/Tensordot/GatherV2_1/axis", "op": "Const", "attr": {"dtype": {"type": "DT_INT32"}, "value": {"tensor": {"dtype": "DT_INT32", "tensorShape": {}}}}}, {"name": "StatefulPartitionedCall/tf_bert_for_token_classification/bert/encoder/layer_._5/attention/output/dense/Tensordot/Const_1", "op": "Const", "attr": {"dtype": {"type": "DT_INT32"}, "value": {"tensor": {"dtype": "DT_INT32", "tensorShape": {"dim": [{"size": "1"}]}}}}}, {"name": "StatefulPartitionedCall/tf_bert_for_token_classification/bert/encoder/layer_._5/attention/output/dense/Tensordot/ReadVariableOp", "op": "Const", "attr": {"dtype": {"type": "DT_FLOAT"}, "value": {"tensor": {"dtype": "DT_FLOAT", "tensorShape": {"dim": [{"size": "512"}, {"size": "512"}]}}}}}, {"name": "StatefulPartitionedCall/tf_bert_for_token_classification/bert/encoder/layer_._5/attention/self/query/Tensordot/Const", "op": "Const", "attr": {"dtype": {"type": "DT_INT32"}, "value": {"tensor": {"dtype": "DT_INT32", "tensorShape": {"dim": [{"size": "1"}]}}}}}, {"name": "StatefulPartitionedCall/tf_bert_for_token_classification/bert/encoder/layer_._5/attention/self/query/Tensordot/axes", "op": "Const", "attr": {"dtype": {"type": "DT_INT32"}, "value": {"tensor": {"dtype": "DT_INT32", "tensorShape": {"dim": [{"size": "1"}]}}}}}, {"name": "StatefulPartitionedCall/tf_bert_for_token_classification/bert/encoder/layer_._5/attention/self/query/Tensordot/GatherV2_1/axis", "op": "Const", "attr": {"value": {"tensor": {"dtype": "DT_INT32", "tensorShape": {}}}, "dtype": {"type": "DT_INT32"}}}, {"name": "StatefulPartitionedCall/tf_bert_for_token_classification/bert/encoder/layer_._5/attention/self/query/Tensordot/Const_1", "op": "Const", "attr": {"value": {"tensor": {"dtype": "DT_INT32", "tensorShape": {"dim": [{"size": "1"}]}}}, "dtype": {"type": "DT_INT32"}}}, {"name": "StatefulPartitionedCall/tf_bert_for_token_classification/bert/encoder/layer_._5/attention/self/query/Tensordot/ReadVariableOp", "op": "Const", "attr": {"value": {"tensor": {"dtype": "DT_FLOAT", "tensorShape": {"dim": [{"size": "512"}, {"size": "512"}]}}}, "dtype": {"type": "DT_FLOAT"}}}, {"name": "StatefulPartitionedCall/tf_bert_for_token_classification/bert/encoder/layer_._5/attention/self/query/Tensordot/free", "op": "Const", "attr": {"dtype": {"type": "DT_INT32"}, "value": {"tensor": {"dtype": "DT_INT32", "tensorShape": {"dim": [{"size": "2"}]}}}}}, {"name": "StatefulPartitionedCall/tf_bert_for_token_classification/bert/encoder/layer_._5/attention/self/query/Tensordot/GatherV2/axis", "op": "Const", "attr": {"value": {"tensor": {"dtype": "DT_INT32", "tensorShape": {}}}, "dtype": {"type": "DT_INT32"}}}, {"name": "StatefulPartitionedCall/tf_bert_for_token_classification/bert/encoder/layer_._5/attention/self/query/Tensordot/Const_2", "op": "Const", "attr": {"value": {"tensor": {"dtype": "DT_INT32", "tensorShape": {"dim": [{"size": "1"}]}}}, "dtype": {"type": "DT_INT32"}}}, {"name": "StatefulPartitionedCall/tf_bert_for_token_classification/bert/encoder/layer_._5/attention/self/query/Tensordot/concat_1/axis", "op": "Const", "attr": {"dtype": {"type": "DT_INT32"}, "value": {"tensor": {"dtype": "DT_INT32", "tensorShape": {}}}}}, {"name": "StatefulPartitionedCall/tf_bert_for_token_classification/bert/encoder/layer_._5/attention/self/query/BiasAdd/ReadVariableOp", "op": "Const", "attr": {"dtype": {"type": "DT_FLOAT"}, "value": {"tensor": {"dtype": "DT_FLOAT", "tensorShape": {"dim": [{"size": "512"}]}}}}}, {"name": "StatefulPartitionedCall/tf_bert_for_token_classification/bert/encoder/layer_._5/attention/self/Reshape_2/shape/1", "op": "Const", "attr": {"dtype": {"type": "DT_INT32"}, "value": {"tensor": {"dtype": "DT_INT32", "tensorShape": {}}}}}, {"name": "StatefulPartitionedCall/tf_bert_for_token_classification/bert/encoder/layer_._5/attention/self/Reshape_2/shape/2", "op": "Const", "attr": {"dtype": {"type": "DT_INT32"}, "value": {"tensor": {"dtype": "DT_INT32", "tensorShape": {}}}}}, {"name": "StatefulPartitionedCall/tf_bert_for_token_classification/bert/encoder/layer_._5/attention/self/Reshape_2/shape/3", "op": "Const", "attr": {"value": {"tensor": {"dtype": "DT_INT32", "tensorShape": {}}}, "dtype": {"type": "DT_INT32"}}}, {"name": "StatefulPartitionedCall/tf_bert_for_token_classification/bert/encoder/layer_._5/attention/self/transpose_2/perm", "op": "Const", "attr": {"value": {"tensor": {"dtype": "DT_INT32", "tensorShape": {"dim": [{"size": "4"}]}}}, "dtype": {"type": "DT_INT32"}}}, {"name": "StatefulPartitionedCall/tf_bert_for_token_classification/bert/encoder/layer_._5/attention/self/key/Tensordot/Const", "op": "Const", "attr": {"value": {"tensor": {"dtype": "DT_INT32", "tensorShape": {"dim": [{"size": "1"}]}}}, "dtype": {"type": "DT_INT32"}}}, {"name": "StatefulPartitionedCall/tf_bert_for_token_classification/bert/encoder/layer_._5/attention/self/key/Tensordot/axes", "op": "Const", "attr": {"dtype": {"type": "DT_INT32"}, "value": {"tensor": {"dtype": "DT_INT32", "tensorShape": {"dim": [{"size": "1"}]}}}}}, {"name": "StatefulPartitionedCall/tf_bert_for_token_classification/bert/encoder/layer_._5/attention/self/key/Tensordot/GatherV2_1/axis", "op": "Const", "attr": {"dtype": {"type": "DT_INT32"}, "value": {"tensor": {"dtype": "DT_INT32", "tensorShape": {}}}}}, {"name": "StatefulPartitionedCall/tf_bert_for_token_classification/bert/encoder/layer_._5/attention/self/key/Tensordot/Const_1", "op": "Const", "attr": {"value": {"tensor": {"dtype": "DT_INT32", "tensorShape": {"dim": [{"size": "1"}]}}}, "dtype": {"type": "DT_INT32"}}}, {"name": "StatefulPartitionedCall/tf_bert_for_token_classification/bert/encoder/layer_._5/attention/self/key/Tensordot/ReadVariableOp", "op": "Const", "attr": {"value": {"tensor": {"dtype": "DT_FLOAT", "tensorShape": {"dim": [{"size": "512"}, {"size": "512"}]}}}, "dtype": {"type": "DT_FLOAT"}}}, {"name": "StatefulPartitionedCall/tf_bert_for_token_classification/bert/encoder/layer_._5/attention/self/key/Tensordot/free", "op": "Const", "attr": {"dtype": {"type": "DT_INT32"}, "value": {"tensor": {"dtype": "DT_INT32", "tensorShape": {"dim": [{"size": "2"}]}}}}}, {"name": "StatefulPartitionedCall/tf_bert_for_token_classification/bert/encoder/layer_._5/attention/self/key/Tensordot/GatherV2/axis", "op": "Const", "attr": {"value": {"tensor": {"dtype": "DT_INT32", "tensorShape": {}}}, "dtype": {"type": "DT_INT32"}}}, {"name": "StatefulPartitionedCall/tf_bert_for_token_classification/bert/encoder/layer_._5/attention/self/key/Tensordot/Const_2", "op": "Const", "attr": {"dtype": {"type": "DT_INT32"}, "value": {"tensor": {"dtype": "DT_INT32", "tensorShape": {"dim": [{"size": "1"}]}}}}}, {"name": "StatefulPartitionedCall/tf_bert_for_token_classification/bert/encoder/layer_._5/attention/self/key/Tensordot/concat_1/axis", "op": "Const", "attr": {"dtype": {"type": "DT_INT32"}, "value": {"tensor": {"dtype": "DT_INT32", "tensorShape": {}}}}}, {"name": "StatefulPartitionedCall/tf_bert_for_token_classification/bert/encoder/layer_._5/attention/self/key/BiasAdd/ReadVariableOp", "op": "Const", "attr": {"value": {"tensor": {"dtype": "DT_FLOAT", "tensorShape": {"dim": [{"size": "512"}]}}}, "dtype": {"type": "DT_FLOAT"}}}, {"name": "StatefulPartitionedCall/tf_bert_for_token_classification/bert/encoder/layer_._5/attention/self/Reshape/shape/1", "op": "Const", "attr": {"value": {"tensor": {"dtype": "DT_INT32", "tensorShape": {}}}, "dtype": {"type": "DT_INT32"}}}, {"name": "StatefulPartitionedCall/tf_bert_for_token_classification/bert/encoder/layer_._5/attention/self/Reshape/shape/2", "op": "Const", "attr": {"value": {"tensor": {"dtype": "DT_INT32", "tensorShape": {}}}, "dtype": {"type": "DT_INT32"}}}, {"name": "StatefulPartitionedCall/tf_bert_for_token_classification/bert/encoder/layer_._5/attention/self/Reshape/shape/3", "op": "Const", "attr": {"dtype": {"type": "DT_INT32"}, "value": {"tensor": {"dtype": "DT_INT32", "tensorShape": {}}}}}, {"name": "StatefulPartitionedCall/tf_bert_for_token_classification/bert/encoder/layer_._5/attention/self/transpose/perm", "op": "Const", "attr": {"value": {"tensor": {"dtype": "DT_INT32", "tensorShape": {"dim": [{"size": "4"}]}}}, "dtype": {"type": "DT_INT32"}}}, {"name": "ConstantFolding/StatefulPartitionedCall/tf_bert_for_token_classification/bert/encoder/layer_._5/attention/self/truediv_recip", "op": "Const", "attr": {"value": {"tensor": {"dtype": "DT_FLOAT", "tensorShape": {}}}, "dtype": {"type": "DT_FLOAT"}}}, {"name": "StatefulPartitionedCall/tf_bert_for_token_classification/bert/encoder/layer_._5/attention/self/add_1/y", "op": "Const", "attr": {"dtype": {"type": "DT_FLOAT"}, "value": {"tensor": {"dtype": "DT_FLOAT", "tensorShape": {}}}}}, {"name": "StatefulPartitionedCall/tf_bert_for_token_classification/bert/encoder/layer_._5/attention/self/value/Tensordot/Const", "op": "Const", "attr": {"dtype": {"type": "DT_INT32"}, "value": {"tensor": {"dtype": "DT_INT32", "tensorShape": {"dim": [{"size": "1"}]}}}}}, {"name": "StatefulPartitionedCall/tf_bert_for_token_classification/bert/encoder/layer_._5/attention/self/value/Tensordot/axes", "op": "Const", "attr": {"dtype": {"type": "DT_INT32"}, "value": {"tensor": {"dtype": "DT_INT32", "tensorShape": {"dim": [{"size": "1"}]}}}}}, {"name": "StatefulPartitionedCall/tf_bert_for_token_classification/bert/encoder/layer_._5/attention/self/value/Tensordot/GatherV2_1/axis", "op": "Const", "attr": {"dtype": {"type": "DT_INT32"}, "value": {"tensor": {"dtype": "DT_INT32", "tensorShape": {}}}}}, {"name": "StatefulPartitionedCall/tf_bert_for_token_classification/bert/encoder/layer_._5/attention/self/value/Tensordot/Const_1", "op": "Const", "attr": {"value": {"tensor": {"dtype": "DT_INT32", "tensorShape": {"dim": [{"size": "1"}]}}}, "dtype": {"type": "DT_INT32"}}}, {"name": "StatefulPartitionedCall/tf_bert_for_token_classification/bert/encoder/layer_._5/attention/self/value/Tensordot/ReadVariableOp", "op": "Const", "attr": {"value": {"tensor": {"dtype": "DT_FLOAT", "tensorShape": {"dim": [{"size": "512"}, {"size": "512"}]}}}, "dtype": {"type": "DT_FLOAT"}}}, {"name": "StatefulPartitionedCall/tf_bert_for_token_classification/bert/encoder/layer_._5/attention/self/value/Tensordot/free", "op": "Const", "attr": {"value": {"tensor": {"dtype": "DT_INT32", "tensorShape": {"dim": [{"size": "2"}]}}}, "dtype": {"type": "DT_INT32"}}}, {"name": "StatefulPartitionedCall/tf_bert_for_token_classification/bert/encoder/layer_._5/attention/self/value/Tensordot/GatherV2/axis", "op": "Const", "attr": {"value": {"tensor": {"dtype": "DT_INT32", "tensorShape": {}}}, "dtype": {"type": "DT_INT32"}}}, {"name": "StatefulPartitionedCall/tf_bert_for_token_classification/bert/encoder/layer_._5/attention/self/value/Tensordot/Const_2", "op": "Const", "attr": {"value": {"tensor": {"dtype": "DT_INT32", "tensorShape": {"dim": [{"size": "1"}]}}}, "dtype": {"type": "DT_INT32"}}}, {"name": "StatefulPartitionedCall/tf_bert_for_token_classification/bert/encoder/layer_._5/attention/self/value/Tensordot/concat_1/axis", "op": "Const", "attr": {"dtype": {"type": "DT_INT32"}, "value": {"tensor": {"dtype": "DT_INT32", "tensorShape": {}}}}}, {"name": "StatefulPartitionedCall/tf_bert_for_token_classification/bert/encoder/layer_._5/attention/self/value/BiasAdd/ReadVariableOp", "op": "Const", "attr": {"value": {"tensor": {"dtype": "DT_FLOAT", "tensorShape": {"dim": [{"size": "512"}]}}}, "dtype": {"type": "DT_FLOAT"}}}, {"name": "StatefulPartitionedCall/tf_bert_for_token_classification/bert/encoder/layer_._5/attention/self/Reshape_1/shape/1", "op": "Const", "attr": {"value": {"tensor": {"dtype": "DT_INT32", "tensorShape": {}}}, "dtype": {"type": "DT_INT32"}}}, {"name": "StatefulPartitionedCall/tf_bert_for_token_classification/bert/encoder/layer_._5/attention/self/Reshape_1/shape/2", "op": "Const", "attr": {"value": {"tensor": {"dtype": "DT_INT32", "tensorShape": {}}}, "dtype": {"type": "DT_INT32"}}}, {"name": "StatefulPartitionedCall/tf_bert_for_token_classification/bert/encoder/layer_._5/attention/self/Reshape_1/shape/3", "op": "Const", "attr": {"dtype": {"type": "DT_INT32"}, "value": {"tensor": {"dtype": "DT_INT32", "tensorShape": {}}}}}, {"name": "StatefulPartitionedCall/tf_bert_for_token_classification/bert/encoder/layer_._5/attention/self/transpose_1/perm", "op": "Const", "attr": {"dtype": {"type": "DT_INT32"}, "value": {"tensor": {"dtype": "DT_INT32", "tensorShape": {"dim": [{"size": "4"}]}}}}}, {"name": "StatefulPartitionedCall/tf_bert_for_token_classification/bert/encoder/layer_._5/attention/self/transpose_3/perm", "op": "Const", "attr": {"dtype": {"type": "DT_INT32"}, "value": {"tensor": {"dtype": "DT_INT32", "tensorShape": {"dim": [{"size": "4"}]}}}}}, {"name": "StatefulPartitionedCall/tf_bert_for_token_classification/bert/encoder/layer_._5/attention/self/strided_slice/stack", "op": "Const", "attr": {"dtype": {"type": "DT_INT32"}, "value": {"tensor": {"dtype": "DT_INT32", "tensorShape": {"dim": [{"size": "1"}]}}}}}, {"name": "StatefulPartitionedCall/tf_bert_for_token_classification/bert/encoder/layer_._5/attention/self/strided_slice/stack_1", "op": "Const", "attr": {"dtype": {"type": "DT_INT32"}, "value": {"tensor": {"dtype": "DT_INT32", "tensorShape": {"dim": [{"size": "1"}]}}}}}, {"name": "StatefulPartitionedCall/tf_bert_for_token_classification/bert/encoder/layer_._5/attention/self/strided_slice/stack_2", "op": "Const", "attr": {"dtype": {"type": "DT_INT32"}, "value": {"tensor": {"dtype": "DT_INT32", "tensorShape": {"dim": [{"size": "1"}]}}}}}, {"name": "StatefulPartitionedCall/tf_bert_for_token_classification/bert/encoder/layer_._5/attention/self/Reshape_3/shape/1", "op": "Const", "attr": {"value": {"tensor": {"dtype": "DT_INT32", "tensorShape": {}}}, "dtype": {"type": "DT_INT32"}}}, {"name": "StatefulPartitionedCall/tf_bert_for_token_classification/bert/encoder/layer_._5/attention/self/Reshape_3/shape/2", "op": "Const", "attr": {"dtype": {"type": "DT_INT32"}, "value": {"tensor": {"dtype": "DT_INT32", "tensorShape": {}}}}}, {"name": "StatefulPartitionedCall/tf_bert_for_token_classification/bert/encoder/layer_._5/attention/output/dense/Tensordot/free", "op": "Const", "attr": {"value": {"tensor": {"dtype": "DT_INT32", "tensorShape": {"dim": [{"size": "2"}]}}}, "dtype": {"type": "DT_INT32"}}}, {"name": "StatefulPartitionedCall/tf_bert_for_token_classification/bert/encoder/layer_._5/attention/output/dense/Tensordot/GatherV2/axis", "op": "Const", "attr": {"value": {"tensor": {"dtype": "DT_INT32", "tensorShape": {}}}, "dtype": {"type": "DT_INT32"}}}, {"name": "StatefulPartitionedCall/tf_bert_for_token_classification/bert/encoder/layer_._5/attention/output/dense/Tensordot/Const_2", "op": "Const", "attr": {"dtype": {"type": "DT_INT32"}, "value": {"tensor": {"dtype": "DT_INT32", "tensorShape": {"dim": [{"size": "1"}]}}}}}, {"name": "StatefulPartitionedCall/tf_bert_for_token_classification/bert/encoder/layer_._5/attention/output/dense/Tensordot/concat_1/axis", "op": "Const", "attr": {"value": {"tensor": {"dtype": "DT_INT32", "tensorShape": {}}}, "dtype": {"type": "DT_INT32"}}}, {"name": "StatefulPartitionedCall/tf_bert_for_token_classification/bert/encoder/layer_._5/attention/output/dense/BiasAdd/ReadVariableOp", "op": "Const", "attr": {"dtype": {"type": "DT_FLOAT"}, "value": {"tensor": {"dtype": "DT_FLOAT", "tensorShape": {"dim": [{"size": "512"}]}}}}}, {"name": "StatefulPartitionedCall/tf_bert_for_token_classification/bert/encoder/layer_._4/output/LayerNorm/batchnorm/ReadVariableOp", "op": "Const", "attr": {"value": {"tensor": {"dtype": "DT_FLOAT", "tensorShape": {"dim": [{"size": "512"}]}}}, "dtype": {"type": "DT_FLOAT"}}}, {"name": "StatefulPartitionedCall/tf_bert_for_token_classification/bert/encoder/layer_._4/output/dense/Tensordot/Const", "op": "Const", "attr": {"dtype": {"type": "DT_INT32"}, "value": {"tensor": {"dtype": "DT_INT32", "tensorShape": {"dim": [{"size": "1"}]}}}}}, {"name": "StatefulPartitionedCall/tf_bert_for_token_classification/bert/encoder/layer_._4/output/dense/Tensordot/axes", "op": "Const", "attr": {"value": {"tensor": {"dtype": "DT_INT32", "tensorShape": {"dim": [{"size": "1"}]}}}, "dtype": {"type": "DT_INT32"}}}, {"name": "StatefulPartitionedCall/tf_bert_for_token_classification/bert/encoder/layer_._4/output/dense/Tensordot/GatherV2_1/axis", "op": "Const", "attr": {"value": {"tensor": {"dtype": "DT_INT32", "tensorShape": {}}}, "dtype": {"type": "DT_INT32"}}}, {"name": "StatefulPartitionedCall/tf_bert_for_token_classification/bert/encoder/layer_._4/output/dense/Tensordot/Const_1", "op": "Const", "attr": {"dtype": {"type": "DT_INT32"}, "value": {"tensor": {"dtype": "DT_INT32", "tensorShape": {"dim": [{"size": "1"}]}}}}}, {"name": "StatefulPartitionedCall/tf_bert_for_token_classification/bert/encoder/layer_._4/output/dense/Tensordot/ReadVariableOp", "op": "Const", "attr": {"value": {"tensor": {"dtype": "DT_FLOAT", "tensorShape": {"dim": [{"size": "2048"}, {"size": "512"}]}}}, "dtype": {"type": "DT_FLOAT"}}}, {"name": "StatefulPartitionedCall/tf_bert_for_token_classification/bert/encoder/layer_._4/intermediate/Gelu/mul/x", "op": "Const", "attr": {"value": {"tensor": {"dtype": "DT_FLOAT", "tensorShape": {}}}, "dtype": {"type": "DT_FLOAT"}}}, {"name": "StatefulPartitionedCall/tf_bert_for_token_classification/bert/encoder/layer_._4/intermediate/Gelu/add/x", "op": "Const", "attr": {"value": {"tensor": {"dtype": "DT_FLOAT", "tensorShape": {}}}, "dtype": {"type": "DT_FLOAT"}}}, {"name": "StatefulPartitionedCall/tf_bert_for_token_classification/bert/encoder/layer_._4/intermediate/dense/Tensordot/Const", "op": "Const", "attr": {"dtype": {"type": "DT_INT32"}, "value": {"tensor": {"dtype": "DT_INT32", "tensorShape": {"dim": [{"size": "1"}]}}}}}, {"name": "StatefulPartitionedCall/tf_bert_for_token_classification/bert/encoder/layer_._4/intermediate/dense/Tensordot/axes", "op": "Const", "attr": {"value": {"tensor": {"dtype": "DT_INT32", "tensorShape": {"dim": [{"size": "1"}]}}}, "dtype": {"type": "DT_INT32"}}}, {"name": "StatefulPartitionedCall/tf_bert_for_token_classification/bert/encoder/layer_._4/intermediate/dense/Tensordot/GatherV2_1/axis", "op": "Const", "attr": {"dtype": {"type": "DT_INT32"}, "value": {"tensor": {"dtype": "DT_INT32", "tensorShape": {}}}}}, {"name": "StatefulPartitionedCall/tf_bert_for_token_classification/bert/encoder/layer_._4/intermediate/dense/Tensordot/Const_1", "op": "Const", "attr": {"dtype": {"type": "DT_INT32"}, "value": {"tensor": {"dtype": "DT_INT32", "tensorShape": {"dim": [{"size": "1"}]}}}}}, {"name": "StatefulPartitionedCall/tf_bert_for_token_classification/bert/encoder/layer_._4/intermediate/dense/Tensordot/ReadVariableOp", "op": "Const", "attr": {"dtype": {"type": "DT_FLOAT"}, "value": {"tensor": {"dtype": "DT_FLOAT", "tensorShape": {"dim": [{"size": "512"}, {"size": "2048"}]}}}}}, {"name": "StatefulPartitionedCall/tf_bert_for_token_classification/bert/encoder/layer_._4/intermediate/dense/Tensordot/free", "op": "Const", "attr": {"value": {"tensor": {"dtype": "DT_INT32", "tensorShape": {"dim": [{"size": "2"}]}}}, "dtype": {"type": "DT_INT32"}}}, {"name": "StatefulPartitionedCall/tf_bert_for_token_classification/bert/encoder/layer_._4/intermediate/dense/Tensordot/GatherV2/axis", "op": "Const", "attr": {"value": {"tensor": {"dtype": "DT_INT32", "tensorShape": {}}}, "dtype": {"type": "DT_INT32"}}}, {"name": "StatefulPartitionedCall/tf_bert_for_token_classification/bert/encoder/layer_._4/intermediate/dense/Tensordot/Const_2", "op": "Const", "attr": {"value": {"tensor": {"dtype": "DT_INT32", "tensorShape": {"dim": [{"size": "1"}]}}}, "dtype": {"type": "DT_INT32"}}}, {"name": "StatefulPartitionedCall/tf_bert_for_token_classification/bert/encoder/layer_._4/intermediate/dense/Tensordot/concat_1/axis", "op": "Const", "attr": {"value": {"tensor": {"dtype": "DT_INT32", "tensorShape": {}}}, "dtype": {"type": "DT_INT32"}}}, {"name": "StatefulPartitionedCall/tf_bert_for_token_classification/bert/encoder/layer_._4/intermediate/dense/BiasAdd/ReadVariableOp", "op": "Const", "attr": {"dtype": {"type": "DT_FLOAT"}, "value": {"tensor": {"dtype": "DT_FLOAT", "tensorShape": {"dim": [{"size": "2048"}]}}}}}, {"name": "ConstantFolding/StatefulPartitionedCall/tf_bert_for_token_classification/bert/encoder/layer_._4/intermediate/Gelu/truediv_recip", "op": "Const", "attr": {"value": {"tensor": {"dtype": "DT_FLOAT", "tensorShape": {}}}, "dtype": {"type": "DT_FLOAT"}}}, {"name": "StatefulPartitionedCall/tf_bert_for_token_classification/bert/encoder/layer_._4/output/dense/Tensordot/free", "op": "Const", "attr": {"value": {"tensor": {"dtype": "DT_INT32", "tensorShape": {"dim": [{"size": "2"}]}}}, "dtype": {"type": "DT_INT32"}}}, {"name": "StatefulPartitionedCall/tf_bert_for_token_classification/bert/encoder/layer_._4/output/dense/Tensordot/GatherV2/axis", "op": "Const", "attr": {"value": {"tensor": {"dtype": "DT_INT32", "tensorShape": {}}}, "dtype": {"type": "DT_INT32"}}}, {"name": "StatefulPartitionedCall/tf_bert_for_token_classification/bert/encoder/layer_._4/output/dense/Tensordot/Const_2", "op": "Const", "attr": {"dtype": {"type": "DT_INT32"}, "value": {"tensor": {"dtype": "DT_INT32", "tensorShape": {"dim": [{"size": "1"}]}}}}}, {"name": "StatefulPartitionedCall/tf_bert_for_token_classification/bert/encoder/layer_._4/output/dense/Tensordot/concat_1/axis", "op": "Const", "attr": {"dtype": {"type": "DT_INT32"}, "value": {"tensor": {"dtype": "DT_INT32", "tensorShape": {}}}}}, {"name": "StatefulPartitionedCall/tf_bert_for_token_classification/bert/encoder/layer_._4/output/dense/BiasAdd/ReadVariableOp", "op": "Const", "attr": {"value": {"tensor": {"dtype": "DT_FLOAT", "tensorShape": {"dim": [{"size": "512"}]}}}, "dtype": {"type": "DT_FLOAT"}}}, {"name": "StatefulPartitionedCall/tf_bert_for_token_classification/bert/encoder/layer_._4/attention/output/LayerNorm/batchnorm/ReadVariableOp", "op": "Const", "attr": {"value": {"tensor": {"dtype": "DT_FLOAT", "tensorShape": {"dim": [{"size": "512"}]}}}, "dtype": {"type": "DT_FLOAT"}}}, {"name": "StatefulPartitionedCall/tf_bert_for_token_classification/bert/encoder/layer_._4/attention/output/dense/Tensordot/Const", "op": "Const", "attr": {"value": {"tensor": {"dtype": "DT_INT32", "tensorShape": {"dim": [{"size": "1"}]}}}, "dtype": {"type": "DT_INT32"}}}, {"name": "StatefulPartitionedCall/tf_bert_for_token_classification/bert/encoder/layer_._4/attention/output/dense/Tensordot/axes", "op": "Const", "attr": {"dtype": {"type": "DT_INT32"}, "value": {"tensor": {"dtype": "DT_INT32", "tensorShape": {"dim": [{"size": "1"}]}}}}}, {"name": "StatefulPartitionedCall/tf_bert_for_token_classification/bert/encoder/layer_._4/attention/output/dense/Tensordot/GatherV2_1/axis", "op": "Const", "attr": {"value": {"tensor": {"dtype": "DT_INT32", "tensorShape": {}}}, "dtype": {"type": "DT_INT32"}}}, {"name": "StatefulPartitionedCall/tf_bert_for_token_classification/bert/encoder/layer_._4/attention/output/dense/Tensordot/Const_1", "op": "Const", "attr": {"value": {"tensor": {"dtype": "DT_INT32", "tensorShape": {"dim": [{"size": "1"}]}}}, "dtype": {"type": "DT_INT32"}}}, {"name": "StatefulPartitionedCall/tf_bert_for_token_classification/bert/encoder/layer_._4/attention/output/dense/Tensordot/ReadVariableOp", "op": "Const", "attr": {"dtype": {"type": "DT_FLOAT"}, "value": {"tensor": {"dtype": "DT_FLOAT", "tensorShape": {"dim": [{"size": "512"}, {"size": "512"}]}}}}}, {"name": "StatefulPartitionedCall/tf_bert_for_token_classification/bert/encoder/layer_._4/attention/self/query/Tensordot/Const", "op": "Const", "attr": {"dtype": {"type": "DT_INT32"}, "value": {"tensor": {"dtype": "DT_INT32", "tensorShape": {"dim": [{"size": "1"}]}}}}}, {"name": "StatefulPartitionedCall/tf_bert_for_token_classification/bert/encoder/layer_._4/attention/self/query/Tensordot/axes", "op": "Const", "attr": {"value": {"tensor": {"dtype": "DT_INT32", "tensorShape": {"dim": [{"size": "1"}]}}}, "dtype": {"type": "DT_INT32"}}}, {"name": "StatefulPartitionedCall/tf_bert_for_token_classification/bert/encoder/layer_._4/attention/self/query/Tensordot/GatherV2_1/axis", "op": "Const", "attr": {"value": {"tensor": {"dtype": "DT_INT32", "tensorShape": {}}}, "dtype": {"type": "DT_INT32"}}}, {"name": "StatefulPartitionedCall/tf_bert_for_token_classification/bert/encoder/layer_._4/attention/self/query/Tensordot/Const_1", "op": "Const", "attr": {"dtype": {"type": "DT_INT32"}, "value": {"tensor": {"dtype": "DT_INT32", "tensorShape": {"dim": [{"size": "1"}]}}}}}, {"name": "StatefulPartitionedCall/tf_bert_for_token_classification/bert/encoder/layer_._4/attention/self/query/Tensordot/ReadVariableOp", "op": "Const", "attr": {"dtype": {"type": "DT_FLOAT"}, "value": {"tensor": {"dtype": "DT_FLOAT", "tensorShape": {"dim": [{"size": "512"}, {"size": "512"}]}}}}}, {"name": "StatefulPartitionedCall/tf_bert_for_token_classification/bert/encoder/layer_._4/attention/self/query/Tensordot/free", "op": "Const", "attr": {"value": {"tensor": {"dtype": "DT_INT32", "tensorShape": {"dim": [{"size": "2"}]}}}, "dtype": {"type": "DT_INT32"}}}, {"name": "StatefulPartitionedCall/tf_bert_for_token_classification/bert/encoder/layer_._4/attention/self/query/Tensordot/GatherV2/axis", "op": "Const", "attr": {"dtype": {"type": "DT_INT32"}, "value": {"tensor": {"dtype": "DT_INT32", "tensorShape": {}}}}}, {"name": "StatefulPartitionedCall/tf_bert_for_token_classification/bert/encoder/layer_._4/attention/self/query/Tensordot/Const_2", "op": "Const", "attr": {"dtype": {"type": "DT_INT32"}, "value": {"tensor": {"dtype": "DT_INT32", "tensorShape": {"dim": [{"size": "1"}]}}}}}, {"name": "StatefulPartitionedCall/tf_bert_for_token_classification/bert/encoder/layer_._4/attention/self/query/Tensordot/concat_1/axis", "op": "Const", "attr": {"value": {"tensor": {"dtype": "DT_INT32", "tensorShape": {}}}, "dtype": {"type": "DT_INT32"}}}, {"name": "StatefulPartitionedCall/tf_bert_for_token_classification/bert/encoder/layer_._4/attention/self/query/BiasAdd/ReadVariableOp", "op": "Const", "attr": {"value": {"tensor": {"dtype": "DT_FLOAT", "tensorShape": {"dim": [{"size": "512"}]}}}, "dtype": {"type": "DT_FLOAT"}}}, {"name": "StatefulPartitionedCall/tf_bert_for_token_classification/bert/encoder/layer_._4/attention/self/Reshape_2/shape/1", "op": "Const", "attr": {"value": {"tensor": {"dtype": "DT_INT32", "tensorShape": {}}}, "dtype": {"type": "DT_INT32"}}}, {"name": "StatefulPartitionedCall/tf_bert_for_token_classification/bert/encoder/layer_._4/attention/self/Reshape_2/shape/2", "op": "Const", "attr": {"dtype": {"type": "DT_INT32"}, "value": {"tensor": {"dtype": "DT_INT32", "tensorShape": {}}}}}, {"name": "StatefulPartitionedCall/tf_bert_for_token_classification/bert/encoder/layer_._4/attention/self/Reshape_2/shape/3", "op": "Const", "attr": {"dtype": {"type": "DT_INT32"}, "value": {"tensor": {"dtype": "DT_INT32", "tensorShape": {}}}}}, {"name": "StatefulPartitionedCall/tf_bert_for_token_classification/bert/encoder/layer_._4/attention/self/transpose_2/perm", "op": "Const", "attr": {"dtype": {"type": "DT_INT32"}, "value": {"tensor": {"dtype": "DT_INT32", "tensorShape": {"dim": [{"size": "4"}]}}}}}, {"name": "StatefulPartitionedCall/tf_bert_for_token_classification/bert/encoder/layer_._4/attention/self/key/Tensordot/Const", "op": "Const", "attr": {"dtype": {"type": "DT_INT32"}, "value": {"tensor": {"dtype": "DT_INT32", "tensorShape": {"dim": [{"size": "1"}]}}}}}, {"name": "StatefulPartitionedCall/tf_bert_for_token_classification/bert/encoder/layer_._4/attention/self/key/Tensordot/axes", "op": "Const", "attr": {"value": {"tensor": {"dtype": "DT_INT32", "tensorShape": {"dim": [{"size": "1"}]}}}, "dtype": {"type": "DT_INT32"}}}, {"name": "StatefulPartitionedCall/tf_bert_for_token_classification/bert/encoder/layer_._4/attention/self/key/Tensordot/GatherV2_1/axis", "op": "Const", "attr": {"dtype": {"type": "DT_INT32"}, "value": {"tensor": {"dtype": "DT_INT32", "tensorShape": {}}}}}, {"name": "StatefulPartitionedCall/tf_bert_for_token_classification/bert/encoder/layer_._4/attention/self/key/Tensordot/Const_1", "op": "Const", "attr": {"value": {"tensor": {"dtype": "DT_INT32", "tensorShape": {"dim": [{"size": "1"}]}}}, "dtype": {"type": "DT_INT32"}}}, {"name": "StatefulPartitionedCall/tf_bert_for_token_classification/bert/encoder/layer_._4/attention/self/key/Tensordot/ReadVariableOp", "op": "Const", "attr": {"value": {"tensor": {"dtype": "DT_FLOAT", "tensorShape": {"dim": [{"size": "512"}, {"size": "512"}]}}}, "dtype": {"type": "DT_FLOAT"}}}, {"name": "StatefulPartitionedCall/tf_bert_for_token_classification/bert/encoder/layer_._4/attention/self/key/Tensordot/free", "op": "Const", "attr": {"value": {"tensor": {"dtype": "DT_INT32", "tensorShape": {"dim": [{"size": "2"}]}}}, "dtype": {"type": "DT_INT32"}}}, {"name": "StatefulPartitionedCall/tf_bert_for_token_classification/bert/encoder/layer_._4/attention/self/key/Tensordot/GatherV2/axis", "op": "Const", "attr": {"dtype": {"type": "DT_INT32"}, "value": {"tensor": {"dtype": "DT_INT32", "tensorShape": {}}}}}, {"name": "StatefulPartitionedCall/tf_bert_for_token_classification/bert/encoder/layer_._4/attention/self/key/Tensordot/Const_2", "op": "Const", "attr": {"dtype": {"type": "DT_INT32"}, "value": {"tensor": {"dtype": "DT_INT32", "tensorShape": {"dim": [{"size": "1"}]}}}}}, {"name": "StatefulPartitionedCall/tf_bert_for_token_classification/bert/encoder/layer_._4/attention/self/key/Tensordot/concat_1/axis", "op": "Const", "attr": {"value": {"tensor": {"dtype": "DT_INT32", "tensorShape": {}}}, "dtype": {"type": "DT_INT32"}}}, {"name": "StatefulPartitionedCall/tf_bert_for_token_classification/bert/encoder/layer_._4/attention/self/key/BiasAdd/ReadVariableOp", "op": "Const", "attr": {"dtype": {"type": "DT_FLOAT"}, "value": {"tensor": {"dtype": "DT_FLOAT", "tensorShape": {"dim": [{"size": "512"}]}}}}}, {"name": "StatefulPartitionedCall/tf_bert_for_token_classification/bert/encoder/layer_._4/attention/self/Reshape/shape/1", "op": "Const", "attr": {"dtype": {"type": "DT_INT32"}, "value": {"tensor": {"dtype": "DT_INT32", "tensorShape": {}}}}}, {"name": "StatefulPartitionedCall/tf_bert_for_token_classification/bert/encoder/layer_._4/attention/self/Reshape/shape/2", "op": "Const", "attr": {"value": {"tensor": {"dtype": "DT_INT32", "tensorShape": {}}}, "dtype": {"type": "DT_INT32"}}}, {"name": "StatefulPartitionedCall/tf_bert_for_token_classification/bert/encoder/layer_._4/attention/self/Reshape/shape/3", "op": "Const", "attr": {"value": {"tensor": {"dtype": "DT_INT32", "tensorShape": {}}}, "dtype": {"type": "DT_INT32"}}}, {"name": "StatefulPartitionedCall/tf_bert_for_token_classification/bert/encoder/layer_._4/attention/self/transpose/perm", "op": "Const", "attr": {"dtype": {"type": "DT_INT32"}, "value": {"tensor": {"dtype": "DT_INT32", "tensorShape": {"dim": [{"size": "4"}]}}}}}, {"name": "ConstantFolding/StatefulPartitionedCall/tf_bert_for_token_classification/bert/encoder/layer_._4/attention/self/truediv_recip", "op": "Const", "attr": {"value": {"tensor": {"dtype": "DT_FLOAT", "tensorShape": {}}}, "dtype": {"type": "DT_FLOAT"}}}, {"name": "StatefulPartitionedCall/tf_bert_for_token_classification/bert/encoder/layer_._4/attention/self/add_1/y", "op": "Const", "attr": {"value": {"tensor": {"dtype": "DT_FLOAT", "tensorShape": {}}}, "dtype": {"type": "DT_FLOAT"}}}, {"name": "StatefulPartitionedCall/tf_bert_for_token_classification/bert/encoder/layer_._4/attention/self/value/Tensordot/Const", "op": "Const", "attr": {"dtype": {"type": "DT_INT32"}, "value": {"tensor": {"dtype": "DT_INT32", "tensorShape": {"dim": [{"size": "1"}]}}}}}, {"name": "StatefulPartitionedCall/tf_bert_for_token_classification/bert/encoder/layer_._4/attention/self/value/Tensordot/axes", "op": "Const", "attr": {"value": {"tensor": {"dtype": "DT_INT32", "tensorShape": {"dim": [{"size": "1"}]}}}, "dtype": {"type": "DT_INT32"}}}, {"name": "StatefulPartitionedCall/tf_bert_for_token_classification/bert/encoder/layer_._4/attention/self/value/Tensordot/GatherV2_1/axis", "op": "Const", "attr": {"value": {"tensor": {"dtype": "DT_INT32", "tensorShape": {}}}, "dtype": {"type": "DT_INT32"}}}, {"name": "StatefulPartitionedCall/tf_bert_for_token_classification/bert/encoder/layer_._4/attention/self/value/Tensordot/Const_1", "op": "Const", "attr": {"value": {"tensor": {"dtype": "DT_INT32", "tensorShape": {"dim": [{"size": "1"}]}}}, "dtype": {"type": "DT_INT32"}}}, {"name": "StatefulPartitionedCall/tf_bert_for_token_classification/bert/encoder/layer_._4/attention/self/value/Tensordot/ReadVariableOp", "op": "Const", "attr": {"value": {"tensor": {"dtype": "DT_FLOAT", "tensorShape": {"dim": [{"size": "512"}, {"size": "512"}]}}}, "dtype": {"type": "DT_FLOAT"}}}, {"name": "StatefulPartitionedCall/tf_bert_for_token_classification/bert/encoder/layer_._4/attention/self/value/Tensordot/free", "op": "Const", "attr": {"dtype": {"type": "DT_INT32"}, "value": {"tensor": {"dtype": "DT_INT32", "tensorShape": {"dim": [{"size": "2"}]}}}}}, {"name": "StatefulPartitionedCall/tf_bert_for_token_classification/bert/encoder/layer_._4/attention/self/value/Tensordot/GatherV2/axis", "op": "Const", "attr": {"dtype": {"type": "DT_INT32"}, "value": {"tensor": {"dtype": "DT_INT32", "tensorShape": {}}}}}, {"name": "StatefulPartitionedCall/tf_bert_for_token_classification/bert/encoder/layer_._4/attention/self/value/Tensordot/Const_2", "op": "Const", "attr": {"value": {"tensor": {"dtype": "DT_INT32", "tensorShape": {"dim": [{"size": "1"}]}}}, "dtype": {"type": "DT_INT32"}}}, {"name": "StatefulPartitionedCall/tf_bert_for_token_classification/bert/encoder/layer_._4/attention/self/value/Tensordot/concat_1/axis", "op": "Const", "attr": {"value": {"tensor": {"dtype": "DT_INT32", "tensorShape": {}}}, "dtype": {"type": "DT_INT32"}}}, {"name": "StatefulPartitionedCall/tf_bert_for_token_classification/bert/encoder/layer_._4/attention/self/value/BiasAdd/ReadVariableOp", "op": "Const", "attr": {"dtype": {"type": "DT_FLOAT"}, "value": {"tensor": {"dtype": "DT_FLOAT", "tensorShape": {"dim": [{"size": "512"}]}}}}}, {"name": "StatefulPartitionedCall/tf_bert_for_token_classification/bert/encoder/layer_._4/attention/self/Reshape_1/shape/1", "op": "Const", "attr": {"dtype": {"type": "DT_INT32"}, "value": {"tensor": {"dtype": "DT_INT32", "tensorShape": {}}}}}, {"name": "StatefulPartitionedCall/tf_bert_for_token_classification/bert/encoder/layer_._4/attention/self/Reshape_1/shape/2", "op": "Const", "attr": {"dtype": {"type": "DT_INT32"}, "value": {"tensor": {"dtype": "DT_INT32", "tensorShape": {}}}}}, {"name": "StatefulPartitionedCall/tf_bert_for_token_classification/bert/encoder/layer_._4/attention/self/Reshape_1/shape/3", "op": "Const", "attr": {"dtype": {"type": "DT_INT32"}, "value": {"tensor": {"dtype": "DT_INT32", "tensorShape": {}}}}}, {"name": "StatefulPartitionedCall/tf_bert_for_token_classification/bert/encoder/layer_._4/attention/self/transpose_1/perm", "op": "Const", "attr": {"value": {"tensor": {"dtype": "DT_INT32", "tensorShape": {"dim": [{"size": "4"}]}}}, "dtype": {"type": "DT_INT32"}}}, {"name": "StatefulPartitionedCall/tf_bert_for_token_classification/bert/encoder/layer_._4/attention/self/transpose_3/perm", "op": "Const", "attr": {"dtype": {"type": "DT_INT32"}, "value": {"tensor": {"dtype": "DT_INT32", "tensorShape": {"dim": [{"size": "4"}]}}}}}, {"name": "StatefulPartitionedCall/tf_bert_for_token_classification/bert/encoder/layer_._4/attention/self/strided_slice/stack", "op": "Const", "attr": {"dtype": {"type": "DT_INT32"}, "value": {"tensor": {"dtype": "DT_INT32", "tensorShape": {"dim": [{"size": "1"}]}}}}}, {"name": "StatefulPartitionedCall/tf_bert_for_token_classification/bert/encoder/layer_._4/attention/self/strided_slice/stack_1", "op": "Const", "attr": {"dtype": {"type": "DT_INT32"}, "value": {"tensor": {"dtype": "DT_INT32", "tensorShape": {"dim": [{"size": "1"}]}}}}}, {"name": "StatefulPartitionedCall/tf_bert_for_token_classification/bert/encoder/layer_._4/attention/self/strided_slice/stack_2", "op": "Const", "attr": {"value": {"tensor": {"dtype": "DT_INT32", "tensorShape": {"dim": [{"size": "1"}]}}}, "dtype": {"type": "DT_INT32"}}}, {"name": "StatefulPartitionedCall/tf_bert_for_token_classification/bert/encoder/layer_._4/attention/self/Reshape_3/shape/1", "op": "Const", "attr": {"dtype": {"type": "DT_INT32"}, "value": {"tensor": {"dtype": "DT_INT32", "tensorShape": {}}}}}, {"name": "StatefulPartitionedCall/tf_bert_for_token_classification/bert/encoder/layer_._4/attention/self/Reshape_3/shape/2", "op": "Const", "attr": {"value": {"tensor": {"dtype": "DT_INT32", "tensorShape": {}}}, "dtype": {"type": "DT_INT32"}}}, {"name": "StatefulPartitionedCall/tf_bert_for_token_classification/bert/encoder/layer_._4/attention/output/dense/Tensordot/free", "op": "Const", "attr": {"value": {"tensor": {"dtype": "DT_INT32", "tensorShape": {"dim": [{"size": "2"}]}}}, "dtype": {"type": "DT_INT32"}}}, {"name": "StatefulPartitionedCall/tf_bert_for_token_classification/bert/encoder/layer_._4/attention/output/dense/Tensordot/GatherV2/axis", "op": "Const", "attr": {"dtype": {"type": "DT_INT32"}, "value": {"tensor": {"dtype": "DT_INT32", "tensorShape": {}}}}}, {"name": "StatefulPartitionedCall/tf_bert_for_token_classification/bert/encoder/layer_._4/attention/output/dense/Tensordot/Const_2", "op": "Const", "attr": {"dtype": {"type": "DT_INT32"}, "value": {"tensor": {"dtype": "DT_INT32", "tensorShape": {"dim": [{"size": "1"}]}}}}}, {"name": "StatefulPartitionedCall/tf_bert_for_token_classification/bert/encoder/layer_._4/attention/output/dense/Tensordot/concat_1/axis", "op": "Const", "attr": {"value": {"tensor": {"dtype": "DT_INT32", "tensorShape": {}}}, "dtype": {"type": "DT_INT32"}}}, {"name": "StatefulPartitionedCall/tf_bert_for_token_classification/bert/encoder/layer_._4/attention/output/dense/BiasAdd/ReadVariableOp", "op": "Const", "attr": {"value": {"tensor": {"dtype": "DT_FLOAT", "tensorShape": {"dim": [{"size": "512"}]}}}, "dtype": {"type": "DT_FLOAT"}}}, {"name": "StatefulPartitionedCall/tf_bert_for_token_classification/bert/encoder/layer_._3/output/LayerNorm/batchnorm/ReadVariableOp", "op": "Const", "attr": {"dtype": {"type": "DT_FLOAT"}, "value": {"tensor": {"dtype": "DT_FLOAT", "tensorShape": {"dim": [{"size": "512"}]}}}}}, {"name": "StatefulPartitionedCall/tf_bert_for_token_classification/bert/encoder/layer_._3/output/dense/Tensordot/Const", "op": "Const", "attr": {"value": {"tensor": {"dtype": "DT_INT32", "tensorShape": {"dim": [{"size": "1"}]}}}, "dtype": {"type": "DT_INT32"}}}, {"name": "StatefulPartitionedCall/tf_bert_for_token_classification/bert/encoder/layer_._3/output/dense/Tensordot/axes", "op": "Const", "attr": {"value": {"tensor": {"dtype": "DT_INT32", "tensorShape": {"dim": [{"size": "1"}]}}}, "dtype": {"type": "DT_INT32"}}}, {"name": "StatefulPartitionedCall/tf_bert_for_token_classification/bert/encoder/layer_._3/output/dense/Tensordot/GatherV2_1/axis", "op": "Const", "attr": {"value": {"tensor": {"dtype": "DT_INT32", "tensorShape": {}}}, "dtype": {"type": "DT_INT32"}}}, {"name": "StatefulPartitionedCall/tf_bert_for_token_classification/bert/encoder/layer_._3/output/dense/Tensordot/Const_1", "op": "Const", "attr": {"dtype": {"type": "DT_INT32"}, "value": {"tensor": {"dtype": "DT_INT32", "tensorShape": {"dim": [{"size": "1"}]}}}}}, {"name": "StatefulPartitionedCall/tf_bert_for_token_classification/bert/encoder/layer_._3/output/dense/Tensordot/ReadVariableOp", "op": "Const", "attr": {"value": {"tensor": {"dtype": "DT_FLOAT", "tensorShape": {"dim": [{"size": "2048"}, {"size": "512"}]}}}, "dtype": {"type": "DT_FLOAT"}}}, {"name": "StatefulPartitionedCall/tf_bert_for_token_classification/bert/encoder/layer_._3/intermediate/Gelu/mul/x", "op": "Const", "attr": {"value": {"tensor": {"dtype": "DT_FLOAT", "tensorShape": {}}}, "dtype": {"type": "DT_FLOAT"}}}, {"name": "StatefulPartitionedCall/tf_bert_for_token_classification/bert/encoder/layer_._3/intermediate/Gelu/add/x", "op": "Const", "attr": {"value": {"tensor": {"dtype": "DT_FLOAT", "tensorShape": {}}}, "dtype": {"type": "DT_FLOAT"}}}, {"name": "StatefulPartitionedCall/tf_bert_for_token_classification/bert/encoder/layer_._3/intermediate/dense/Tensordot/Const", "op": "Const", "attr": {"value": {"tensor": {"dtype": "DT_INT32", "tensorShape": {"dim": [{"size": "1"}]}}}, "dtype": {"type": "DT_INT32"}}}, {"name": "StatefulPartitionedCall/tf_bert_for_token_classification/bert/encoder/layer_._3/intermediate/dense/Tensordot/axes", "op": "Const", "attr": {"dtype": {"type": "DT_INT32"}, "value": {"tensor": {"dtype": "DT_INT32", "tensorShape": {"dim": [{"size": "1"}]}}}}}, {"name": "StatefulPartitionedCall/tf_bert_for_token_classification/bert/encoder/layer_._3/intermediate/dense/Tensordot/GatherV2_1/axis", "op": "Const", "attr": {"dtype": {"type": "DT_INT32"}, "value": {"tensor": {"dtype": "DT_INT32", "tensorShape": {}}}}}, {"name": "StatefulPartitionedCall/tf_bert_for_token_classification/bert/encoder/layer_._3/intermediate/dense/Tensordot/Const_1", "op": "Const", "attr": {"value": {"tensor": {"dtype": "DT_INT32", "tensorShape": {"dim": [{"size": "1"}]}}}, "dtype": {"type": "DT_INT32"}}}, {"name": "StatefulPartitionedCall/tf_bert_for_token_classification/bert/encoder/layer_._3/intermediate/dense/Tensordot/ReadVariableOp", "op": "Const", "attr": {"dtype": {"type": "DT_FLOAT"}, "value": {"tensor": {"dtype": "DT_FLOAT", "tensorShape": {"dim": [{"size": "512"}, {"size": "2048"}]}}}}}, {"name": "StatefulPartitionedCall/tf_bert_for_token_classification/bert/encoder/layer_._3/intermediate/dense/Tensordot/free", "op": "Const", "attr": {"dtype": {"type": "DT_INT32"}, "value": {"tensor": {"dtype": "DT_INT32", "tensorShape": {"dim": [{"size": "2"}]}}}}}, {"name": "StatefulPartitionedCall/tf_bert_for_token_classification/bert/encoder/layer_._3/intermediate/dense/Tensordot/GatherV2/axis", "op": "Const", "attr": {"value": {"tensor": {"dtype": "DT_INT32", "tensorShape": {}}}, "dtype": {"type": "DT_INT32"}}}, {"name": "StatefulPartitionedCall/tf_bert_for_token_classification/bert/encoder/layer_._3/intermediate/dense/Tensordot/Const_2", "op": "Const", "attr": {"value": {"tensor": {"dtype": "DT_INT32", "tensorShape": {"dim": [{"size": "1"}]}}}, "dtype": {"type": "DT_INT32"}}}, {"name": "StatefulPartitionedCall/tf_bert_for_token_classification/bert/encoder/layer_._3/intermediate/dense/Tensordot/concat_1/axis", "op": "Const", "attr": {"value": {"tensor": {"dtype": "DT_INT32", "tensorShape": {}}}, "dtype": {"type": "DT_INT32"}}}, {"name": "StatefulPartitionedCall/tf_bert_for_token_classification/bert/encoder/layer_._3/intermediate/dense/BiasAdd/ReadVariableOp", "op": "Const", "attr": {"value": {"tensor": {"dtype": "DT_FLOAT", "tensorShape": {"dim": [{"size": "2048"}]}}}, "dtype": {"type": "DT_FLOAT"}}}, {"name": "ConstantFolding/StatefulPartitionedCall/tf_bert_for_token_classification/bert/encoder/layer_._3/intermediate/Gelu/truediv_recip", "op": "Const", "attr": {"dtype": {"type": "DT_FLOAT"}, "value": {"tensor": {"dtype": "DT_FLOAT", "tensorShape": {}}}}}, {"name": "StatefulPartitionedCall/tf_bert_for_token_classification/bert/encoder/layer_._3/output/dense/Tensordot/free", "op": "Const", "attr": {"value": {"tensor": {"dtype": "DT_INT32", "tensorShape": {"dim": [{"size": "2"}]}}}, "dtype": {"type": "DT_INT32"}}}, {"name": "StatefulPartitionedCall/tf_bert_for_token_classification/bert/encoder/layer_._3/output/dense/Tensordot/GatherV2/axis", "op": "Const", "attr": {"dtype": {"type": "DT_INT32"}, "value": {"tensor": {"dtype": "DT_INT32", "tensorShape": {}}}}}, {"name": "StatefulPartitionedCall/tf_bert_for_token_classification/bert/encoder/layer_._3/output/dense/Tensordot/Const_2", "op": "Const", "attr": {"dtype": {"type": "DT_INT32"}, "value": {"tensor": {"dtype": "DT_INT32", "tensorShape": {"dim": [{"size": "1"}]}}}}}, {"name": "StatefulPartitionedCall/tf_bert_for_token_classification/bert/encoder/layer_._3/output/dense/Tensordot/concat_1/axis", "op": "Const", "attr": {"dtype": {"type": "DT_INT32"}, "value": {"tensor": {"dtype": "DT_INT32", "tensorShape": {}}}}}, {"name": "StatefulPartitionedCall/tf_bert_for_token_classification/bert/encoder/layer_._3/output/dense/BiasAdd/ReadVariableOp", "op": "Const", "attr": {"value": {"tensor": {"dtype": "DT_FLOAT", "tensorShape": {"dim": [{"size": "512"}]}}}, "dtype": {"type": "DT_FLOAT"}}}, {"name": "StatefulPartitionedCall/tf_bert_for_token_classification/bert/encoder/layer_._3/attention/output/LayerNorm/batchnorm/ReadVariableOp", "op": "Const", "attr": {"value": {"tensor": {"dtype": "DT_FLOAT", "tensorShape": {"dim": [{"size": "512"}]}}}, "dtype": {"type": "DT_FLOAT"}}}, {"name": "StatefulPartitionedCall/tf_bert_for_token_classification/bert/encoder/layer_._3/attention/output/dense/Tensordot/Const", "op": "Const", "attr": {"value": {"tensor": {"dtype": "DT_INT32", "tensorShape": {"dim": [{"size": "1"}]}}}, "dtype": {"type": "DT_INT32"}}}, {"name": "StatefulPartitionedCall/tf_bert_for_token_classification/bert/encoder/layer_._3/attention/output/dense/Tensordot/axes", "op": "Const", "attr": {"dtype": {"type": "DT_INT32"}, "value": {"tensor": {"dtype": "DT_INT32", "tensorShape": {"dim": [{"size": "1"}]}}}}}, {"name": "StatefulPartitionedCall/tf_bert_for_token_classification/bert/encoder/layer_._3/attention/output/dense/Tensordot/GatherV2_1/axis", "op": "Const", "attr": {"dtype": {"type": "DT_INT32"}, "value": {"tensor": {"dtype": "DT_INT32", "tensorShape": {}}}}}, {"name": "StatefulPartitionedCall/tf_bert_for_token_classification/bert/encoder/layer_._3/attention/output/dense/Tensordot/Const_1", "op": "Const", "attr": {"value": {"tensor": {"dtype": "DT_INT32", "tensorShape": {"dim": [{"size": "1"}]}}}, "dtype": {"type": "DT_INT32"}}}, {"name": "StatefulPartitionedCall/tf_bert_for_token_classification/bert/encoder/layer_._3/attention/output/dense/Tensordot/ReadVariableOp", "op": "Const", "attr": {"dtype": {"type": "DT_FLOAT"}, "value": {"tensor": {"dtype": "DT_FLOAT", "tensorShape": {"dim": [{"size": "512"}, {"size": "512"}]}}}}}, {"name": "StatefulPartitionedCall/tf_bert_for_token_classification/bert/encoder/layer_._3/attention/self/query/Tensordot/Const", "op": "Const", "attr": {"value": {"tensor": {"dtype": "DT_INT32", "tensorShape": {"dim": [{"size": "1"}]}}}, "dtype": {"type": "DT_INT32"}}}, {"name": "StatefulPartitionedCall/tf_bert_for_token_classification/bert/encoder/layer_._3/attention/self/query/Tensordot/axes", "op": "Const", "attr": {"dtype": {"type": "DT_INT32"}, "value": {"tensor": {"dtype": "DT_INT32", "tensorShape": {"dim": [{"size": "1"}]}}}}}, {"name": "StatefulPartitionedCall/tf_bert_for_token_classification/bert/encoder/layer_._3/attention/self/query/Tensordot/GatherV2_1/axis", "op": "Const", "attr": {"value": {"tensor": {"dtype": "DT_INT32", "tensorShape": {}}}, "dtype": {"type": "DT_INT32"}}}, {"name": "StatefulPartitionedCall/tf_bert_for_token_classification/bert/encoder/layer_._3/attention/self/query/Tensordot/Const_1", "op": "Const", "attr": {"dtype": {"type": "DT_INT32"}, "value": {"tensor": {"dtype": "DT_INT32", "tensorShape": {"dim": [{"size": "1"}]}}}}}, {"name": "StatefulPartitionedCall/tf_bert_for_token_classification/bert/encoder/layer_._3/attention/self/query/Tensordot/ReadVariableOp", "op": "Const", "attr": {"value": {"tensor": {"dtype": "DT_FLOAT", "tensorShape": {"dim": [{"size": "512"}, {"size": "512"}]}}}, "dtype": {"type": "DT_FLOAT"}}}, {"name": "StatefulPartitionedCall/tf_bert_for_token_classification/bert/encoder/layer_._3/attention/self/query/Tensordot/free", "op": "Const", "attr": {"dtype": {"type": "DT_INT32"}, "value": {"tensor": {"dtype": "DT_INT32", "tensorShape": {"dim": [{"size": "2"}]}}}}}, {"name": "StatefulPartitionedCall/tf_bert_for_token_classification/bert/encoder/layer_._3/attention/self/query/Tensordot/GatherV2/axis", "op": "Const", "attr": {"value": {"tensor": {"dtype": "DT_INT32", "tensorShape": {}}}, "dtype": {"type": "DT_INT32"}}}, {"name": "StatefulPartitionedCall/tf_bert_for_token_classification/bert/encoder/layer_._3/attention/self/query/Tensordot/Const_2", "op": "Const", "attr": {"dtype": {"type": "DT_INT32"}, "value": {"tensor": {"dtype": "DT_INT32", "tensorShape": {"dim": [{"size": "1"}]}}}}}, {"name": "StatefulPartitionedCall/tf_bert_for_token_classification/bert/encoder/layer_._3/attention/self/query/Tensordot/concat_1/axis", "op": "Const", "attr": {"dtype": {"type": "DT_INT32"}, "value": {"tensor": {"dtype": "DT_INT32", "tensorShape": {}}}}}, {"name": "StatefulPartitionedCall/tf_bert_for_token_classification/bert/encoder/layer_._3/attention/self/query/BiasAdd/ReadVariableOp", "op": "Const", "attr": {"value": {"tensor": {"dtype": "DT_FLOAT", "tensorShape": {"dim": [{"size": "512"}]}}}, "dtype": {"type": "DT_FLOAT"}}}, {"name": "StatefulPartitionedCall/tf_bert_for_token_classification/bert/encoder/layer_._3/attention/self/Reshape_2/shape/1", "op": "Const", "attr": {"value": {"tensor": {"dtype": "DT_INT32", "tensorShape": {}}}, "dtype": {"type": "DT_INT32"}}}, {"name": "StatefulPartitionedCall/tf_bert_for_token_classification/bert/encoder/layer_._3/attention/self/Reshape_2/shape/2", "op": "Const", "attr": {"value": {"tensor": {"dtype": "DT_INT32", "tensorShape": {}}}, "dtype": {"type": "DT_INT32"}}}, {"name": "StatefulPartitionedCall/tf_bert_for_token_classification/bert/encoder/layer_._3/attention/self/Reshape_2/shape/3", "op": "Const", "attr": {"dtype": {"type": "DT_INT32"}, "value": {"tensor": {"dtype": "DT_INT32", "tensorShape": {}}}}}, {"name": "StatefulPartitionedCall/tf_bert_for_token_classification/bert/encoder/layer_._3/attention/self/transpose_2/perm", "op": "Const", "attr": {"value": {"tensor": {"dtype": "DT_INT32", "tensorShape": {"dim": [{"size": "4"}]}}}, "dtype": {"type": "DT_INT32"}}}, {"name": "StatefulPartitionedCall/tf_bert_for_token_classification/bert/encoder/layer_._3/attention/self/key/Tensordot/Const", "op": "Const", "attr": {"dtype": {"type": "DT_INT32"}, "value": {"tensor": {"dtype": "DT_INT32", "tensorShape": {"dim": [{"size": "1"}]}}}}}, {"name": "StatefulPartitionedCall/tf_bert_for_token_classification/bert/encoder/layer_._3/attention/self/key/Tensordot/axes", "op": "Const", "attr": {"value": {"tensor": {"dtype": "DT_INT32", "tensorShape": {"dim": [{"size": "1"}]}}}, "dtype": {"type": "DT_INT32"}}}, {"name": "StatefulPartitionedCall/tf_bert_for_token_classification/bert/encoder/layer_._3/attention/self/key/Tensordot/GatherV2_1/axis", "op": "Const", "attr": {"value": {"tensor": {"dtype": "DT_INT32", "tensorShape": {}}}, "dtype": {"type": "DT_INT32"}}}, {"name": "StatefulPartitionedCall/tf_bert_for_token_classification/bert/encoder/layer_._3/attention/self/key/Tensordot/Const_1", "op": "Const", "attr": {"dtype": {"type": "DT_INT32"}, "value": {"tensor": {"dtype": "DT_INT32", "tensorShape": {"dim": [{"size": "1"}]}}}}}, {"name": "StatefulPartitionedCall/tf_bert_for_token_classification/bert/encoder/layer_._3/attention/self/key/Tensordot/ReadVariableOp", "op": "Const", "attr": {"dtype": {"type": "DT_FLOAT"}, "value": {"tensor": {"dtype": "DT_FLOAT", "tensorShape": {"dim": [{"size": "512"}, {"size": "512"}]}}}}}, {"name": "StatefulPartitionedCall/tf_bert_for_token_classification/bert/encoder/layer_._3/attention/self/key/Tensordot/free", "op": "Const", "attr": {"dtype": {"type": "DT_INT32"}, "value": {"tensor": {"dtype": "DT_INT32", "tensorShape": {"dim": [{"size": "2"}]}}}}}, {"name": "StatefulPartitionedCall/tf_bert_for_token_classification/bert/encoder/layer_._3/attention/self/key/Tensordot/GatherV2/axis", "op": "Const", "attr": {"dtype": {"type": "DT_INT32"}, "value": {"tensor": {"dtype": "DT_INT32", "tensorShape": {}}}}}, {"name": "StatefulPartitionedCall/tf_bert_for_token_classification/bert/encoder/layer_._3/attention/self/key/Tensordot/Const_2", "op": "Const", "attr": {"dtype": {"type": "DT_INT32"}, "value": {"tensor": {"dtype": "DT_INT32", "tensorShape": {"dim": [{"size": "1"}]}}}}}, {"name": "StatefulPartitionedCall/tf_bert_for_token_classification/bert/encoder/layer_._3/attention/self/key/Tensordot/concat_1/axis", "op": "Const", "attr": {"dtype": {"type": "DT_INT32"}, "value": {"tensor": {"dtype": "DT_INT32", "tensorShape": {}}}}}, {"name": "StatefulPartitionedCall/tf_bert_for_token_classification/bert/encoder/layer_._3/attention/self/key/BiasAdd/ReadVariableOp", "op": "Const", "attr": {"dtype": {"type": "DT_FLOAT"}, "value": {"tensor": {"dtype": "DT_FLOAT", "tensorShape": {"dim": [{"size": "512"}]}}}}}, {"name": "StatefulPartitionedCall/tf_bert_for_token_classification/bert/encoder/layer_._3/attention/self/Reshape/shape/1", "op": "Const", "attr": {"dtype": {"type": "DT_INT32"}, "value": {"tensor": {"dtype": "DT_INT32", "tensorShape": {}}}}}, {"name": "StatefulPartitionedCall/tf_bert_for_token_classification/bert/encoder/layer_._3/attention/self/Reshape/shape/2", "op": "Const", "attr": {"value": {"tensor": {"dtype": "DT_INT32", "tensorShape": {}}}, "dtype": {"type": "DT_INT32"}}}, {"name": "StatefulPartitionedCall/tf_bert_for_token_classification/bert/encoder/layer_._3/attention/self/Reshape/shape/3", "op": "Const", "attr": {"dtype": {"type": "DT_INT32"}, "value": {"tensor": {"dtype": "DT_INT32", "tensorShape": {}}}}}, {"name": "StatefulPartitionedCall/tf_bert_for_token_classification/bert/encoder/layer_._3/attention/self/transpose/perm", "op": "Const", "attr": {"value": {"tensor": {"dtype": "DT_INT32", "tensorShape": {"dim": [{"size": "4"}]}}}, "dtype": {"type": "DT_INT32"}}}, {"name": "ConstantFolding/StatefulPartitionedCall/tf_bert_for_token_classification/bert/encoder/layer_._3/attention/self/truediv_recip", "op": "Const", "attr": {"dtype": {"type": "DT_FLOAT"}, "value": {"tensor": {"dtype": "DT_FLOAT", "tensorShape": {}}}}}, {"name": "StatefulPartitionedCall/tf_bert_for_token_classification/bert/encoder/layer_._3/attention/self/add_1/y", "op": "Const", "attr": {"value": {"tensor": {"dtype": "DT_FLOAT", "tensorShape": {}}}, "dtype": {"type": "DT_FLOAT"}}}, {"name": "StatefulPartitionedCall/tf_bert_for_token_classification/bert/encoder/layer_._3/attention/self/value/Tensordot/Const", "op": "Const", "attr": {"dtype": {"type": "DT_INT32"}, "value": {"tensor": {"dtype": "DT_INT32", "tensorShape": {"dim": [{"size": "1"}]}}}}}, {"name": "StatefulPartitionedCall/tf_bert_for_token_classification/bert/encoder/layer_._3/attention/self/value/Tensordot/axes", "op": "Const", "attr": {"dtype": {"type": "DT_INT32"}, "value": {"tensor": {"dtype": "DT_INT32", "tensorShape": {"dim": [{"size": "1"}]}}}}}, {"name": "StatefulPartitionedCall/tf_bert_for_token_classification/bert/encoder/layer_._3/attention/self/value/Tensordot/GatherV2_1/axis", "op": "Const", "attr": {"dtype": {"type": "DT_INT32"}, "value": {"tensor": {"dtype": "DT_INT32", "tensorShape": {}}}}}, {"name": "StatefulPartitionedCall/tf_bert_for_token_classification/bert/encoder/layer_._3/attention/self/value/Tensordot/Const_1", "op": "Const", "attr": {"dtype": {"type": "DT_INT32"}, "value": {"tensor": {"dtype": "DT_INT32", "tensorShape": {"dim": [{"size": "1"}]}}}}}, {"name": "StatefulPartitionedCall/tf_bert_for_token_classification/bert/encoder/layer_._3/attention/self/value/Tensordot/ReadVariableOp", "op": "Const", "attr": {"value": {"tensor": {"dtype": "DT_FLOAT", "tensorShape": {"dim": [{"size": "512"}, {"size": "512"}]}}}, "dtype": {"type": "DT_FLOAT"}}}, {"name": "StatefulPartitionedCall/tf_bert_for_token_classification/bert/encoder/layer_._3/attention/self/value/Tensordot/free", "op": "Const", "attr": {"dtype": {"type": "DT_INT32"}, "value": {"tensor": {"dtype": "DT_INT32", "tensorShape": {"dim": [{"size": "2"}]}}}}}, {"name": "StatefulPartitionedCall/tf_bert_for_token_classification/bert/encoder/layer_._3/attention/self/value/Tensordot/GatherV2/axis", "op": "Const", "attr": {"value": {"tensor": {"dtype": "DT_INT32", "tensorShape": {}}}, "dtype": {"type": "DT_INT32"}}}, {"name": "StatefulPartitionedCall/tf_bert_for_token_classification/bert/encoder/layer_._3/attention/self/value/Tensordot/Const_2", "op": "Const", "attr": {"value": {"tensor": {"dtype": "DT_INT32", "tensorShape": {"dim": [{"size": "1"}]}}}, "dtype": {"type": "DT_INT32"}}}, {"name": "StatefulPartitionedCall/tf_bert_for_token_classification/bert/encoder/layer_._3/attention/self/value/Tensordot/concat_1/axis", "op": "Const", "attr": {"value": {"tensor": {"dtype": "DT_INT32", "tensorShape": {}}}, "dtype": {"type": "DT_INT32"}}}, {"name": "StatefulPartitionedCall/tf_bert_for_token_classification/bert/encoder/layer_._3/attention/self/value/BiasAdd/ReadVariableOp", "op": "Const", "attr": {"dtype": {"type": "DT_FLOAT"}, "value": {"tensor": {"dtype": "DT_FLOAT", "tensorShape": {"dim": [{"size": "512"}]}}}}}, {"name": "StatefulPartitionedCall/tf_bert_for_token_classification/bert/encoder/layer_._3/attention/self/Reshape_1/shape/1", "op": "Const", "attr": {"value": {"tensor": {"dtype": "DT_INT32", "tensorShape": {}}}, "dtype": {"type": "DT_INT32"}}}, {"name": "StatefulPartitionedCall/tf_bert_for_token_classification/bert/encoder/layer_._3/attention/self/Reshape_1/shape/2", "op": "Const", "attr": {"value": {"tensor": {"dtype": "DT_INT32", "tensorShape": {}}}, "dtype": {"type": "DT_INT32"}}}, {"name": "StatefulPartitionedCall/tf_bert_for_token_classification/bert/encoder/layer_._3/attention/self/Reshape_1/shape/3", "op": "Const", "attr": {"value": {"tensor": {"dtype": "DT_INT32", "tensorShape": {}}}, "dtype": {"type": "DT_INT32"}}}, {"name": "StatefulPartitionedCall/tf_bert_for_token_classification/bert/encoder/layer_._3/attention/self/transpose_1/perm", "op": "Const", "attr": {"value": {"tensor": {"dtype": "DT_INT32", "tensorShape": {"dim": [{"size": "4"}]}}}, "dtype": {"type": "DT_INT32"}}}, {"name": "StatefulPartitionedCall/tf_bert_for_token_classification/bert/encoder/layer_._3/attention/self/transpose_3/perm", "op": "Const", "attr": {"value": {"tensor": {"dtype": "DT_INT32", "tensorShape": {"dim": [{"size": "4"}]}}}, "dtype": {"type": "DT_INT32"}}}, {"name": "StatefulPartitionedCall/tf_bert_for_token_classification/bert/encoder/layer_._3/attention/self/strided_slice/stack", "op": "Const", "attr": {"dtype": {"type": "DT_INT32"}, "value": {"tensor": {"dtype": "DT_INT32", "tensorShape": {"dim": [{"size": "1"}]}}}}}, {"name": "StatefulPartitionedCall/tf_bert_for_token_classification/bert/encoder/layer_._3/attention/self/strided_slice/stack_1", "op": "Const", "attr": {"dtype": {"type": "DT_INT32"}, "value": {"tensor": {"dtype": "DT_INT32", "tensorShape": {"dim": [{"size": "1"}]}}}}}, {"name": "StatefulPartitionedCall/tf_bert_for_token_classification/bert/encoder/layer_._3/attention/self/strided_slice/stack_2", "op": "Const", "attr": {"dtype": {"type": "DT_INT32"}, "value": {"tensor": {"dtype": "DT_INT32", "tensorShape": {"dim": [{"size": "1"}]}}}}}, {"name": "StatefulPartitionedCall/tf_bert_for_token_classification/bert/encoder/layer_._3/attention/self/Reshape_3/shape/1", "op": "Const", "attr": {"dtype": {"type": "DT_INT32"}, "value": {"tensor": {"dtype": "DT_INT32", "tensorShape": {}}}}}, {"name": "StatefulPartitionedCall/tf_bert_for_token_classification/bert/encoder/layer_._3/attention/self/Reshape_3/shape/2", "op": "Const", "attr": {"dtype": {"type": "DT_INT32"}, "value": {"tensor": {"dtype": "DT_INT32", "tensorShape": {}}}}}, {"name": "StatefulPartitionedCall/tf_bert_for_token_classification/bert/encoder/layer_._3/attention/output/dense/Tensordot/free", "op": "Const", "attr": {"value": {"tensor": {"dtype": "DT_INT32", "tensorShape": {"dim": [{"size": "2"}]}}}, "dtype": {"type": "DT_INT32"}}}, {"name": "StatefulPartitionedCall/tf_bert_for_token_classification/bert/encoder/layer_._3/attention/output/dense/Tensordot/GatherV2/axis", "op": "Const", "attr": {"dtype": {"type": "DT_INT32"}, "value": {"tensor": {"dtype": "DT_INT32", "tensorShape": {}}}}}, {"name": "StatefulPartitionedCall/tf_bert_for_token_classification/bert/encoder/layer_._3/attention/output/dense/Tensordot/Const_2", "op": "Const", "attr": {"value": {"tensor": {"dtype": "DT_INT32", "tensorShape": {"dim": [{"size": "1"}]}}}, "dtype": {"type": "DT_INT32"}}}, {"name": "StatefulPartitionedCall/tf_bert_for_token_classification/bert/encoder/layer_._3/attention/output/dense/Tensordot/concat_1/axis", "op": "Const", "attr": {"dtype": {"type": "DT_INT32"}, "value": {"tensor": {"dtype": "DT_INT32", "tensorShape": {}}}}}, {"name": "StatefulPartitionedCall/tf_bert_for_token_classification/bert/encoder/layer_._3/attention/output/dense/BiasAdd/ReadVariableOp", "op": "Const", "attr": {"dtype": {"type": "DT_FLOAT"}, "value": {"tensor": {"dtype": "DT_FLOAT", "tensorShape": {"dim": [{"size": "512"}]}}}}}, {"name": "StatefulPartitionedCall/tf_bert_for_token_classification/bert/encoder/layer_._2/output/LayerNorm/batchnorm/ReadVariableOp", "op": "Const", "attr": {"dtype": {"type": "DT_FLOAT"}, "value": {"tensor": {"dtype": "DT_FLOAT", "tensorShape": {"dim": [{"size": "512"}]}}}}}, {"name": "StatefulPartitionedCall/tf_bert_for_token_classification/bert/encoder/layer_._2/output/dense/Tensordot/Const", "op": "Const", "attr": {"dtype": {"type": "DT_INT32"}, "value": {"tensor": {"dtype": "DT_INT32", "tensorShape": {"dim": [{"size": "1"}]}}}}}, {"name": "StatefulPartitionedCall/tf_bert_for_token_classification/bert/encoder/layer_._2/output/dense/Tensordot/axes", "op": "Const", "attr": {"value": {"tensor": {"dtype": "DT_INT32", "tensorShape": {"dim": [{"size": "1"}]}}}, "dtype": {"type": "DT_INT32"}}}, {"name": "StatefulPartitionedCall/tf_bert_for_token_classification/bert/encoder/layer_._2/output/dense/Tensordot/GatherV2_1/axis", "op": "Const", "attr": {"dtype": {"type": "DT_INT32"}, "value": {"tensor": {"dtype": "DT_INT32", "tensorShape": {}}}}}, {"name": "StatefulPartitionedCall/tf_bert_for_token_classification/bert/encoder/layer_._2/output/dense/Tensordot/Const_1", "op": "Const", "attr": {"value": {"tensor": {"dtype": "DT_INT32", "tensorShape": {"dim": [{"size": "1"}]}}}, "dtype": {"type": "DT_INT32"}}}, {"name": "StatefulPartitionedCall/tf_bert_for_token_classification/bert/encoder/layer_._2/output/dense/Tensordot/ReadVariableOp", "op": "Const", "attr": {"dtype": {"type": "DT_FLOAT"}, "value": {"tensor": {"dtype": "DT_FLOAT", "tensorShape": {"dim": [{"size": "2048"}, {"size": "512"}]}}}}}, {"name": "StatefulPartitionedCall/tf_bert_for_token_classification/bert/encoder/layer_._2/intermediate/Gelu/mul/x", "op": "Const", "attr": {"dtype": {"type": "DT_FLOAT"}, "value": {"tensor": {"dtype": "DT_FLOAT", "tensorShape": {}}}}}, {"name": "StatefulPartitionedCall/tf_bert_for_token_classification/bert/encoder/layer_._2/intermediate/Gelu/add/x", "op": "Const", "attr": {"dtype": {"type": "DT_FLOAT"}, "value": {"tensor": {"dtype": "DT_FLOAT", "tensorShape": {}}}}}, {"name": "StatefulPartitionedCall/tf_bert_for_token_classification/bert/encoder/layer_._2/intermediate/dense/Tensordot/Const", "op": "Const", "attr": {"dtype": {"type": "DT_INT32"}, "value": {"tensor": {"dtype": "DT_INT32", "tensorShape": {"dim": [{"size": "1"}]}}}}}, {"name": "StatefulPartitionedCall/tf_bert_for_token_classification/bert/encoder/layer_._2/intermediate/dense/Tensordot/axes", "op": "Const", "attr": {"dtype": {"type": "DT_INT32"}, "value": {"tensor": {"dtype": "DT_INT32", "tensorShape": {"dim": [{"size": "1"}]}}}}}, {"name": "StatefulPartitionedCall/tf_bert_for_token_classification/bert/encoder/layer_._2/intermediate/dense/Tensordot/GatherV2_1/axis", "op": "Const", "attr": {"dtype": {"type": "DT_INT32"}, "value": {"tensor": {"dtype": "DT_INT32", "tensorShape": {}}}}}, {"name": "StatefulPartitionedCall/tf_bert_for_token_classification/bert/encoder/layer_._2/intermediate/dense/Tensordot/Const_1", "op": "Const", "attr": {"dtype": {"type": "DT_INT32"}, "value": {"tensor": {"dtype": "DT_INT32", "tensorShape": {"dim": [{"size": "1"}]}}}}}, {"name": "StatefulPartitionedCall/tf_bert_for_token_classification/bert/encoder/layer_._2/intermediate/dense/Tensordot/ReadVariableOp", "op": "Const", "attr": {"dtype": {"type": "DT_FLOAT"}, "value": {"tensor": {"dtype": "DT_FLOAT", "tensorShape": {"dim": [{"size": "512"}, {"size": "2048"}]}}}}}, {"name": "StatefulPartitionedCall/tf_bert_for_token_classification/bert/encoder/layer_._2/intermediate/dense/Tensordot/free", "op": "Const", "attr": {"dtype": {"type": "DT_INT32"}, "value": {"tensor": {"dtype": "DT_INT32", "tensorShape": {"dim": [{"size": "2"}]}}}}}, {"name": "StatefulPartitionedCall/tf_bert_for_token_classification/bert/encoder/layer_._2/intermediate/dense/Tensordot/GatherV2/axis", "op": "Const", "attr": {"value": {"tensor": {"dtype": "DT_INT32", "tensorShape": {}}}, "dtype": {"type": "DT_INT32"}}}, {"name": "StatefulPartitionedCall/tf_bert_for_token_classification/bert/encoder/layer_._2/intermediate/dense/Tensordot/Const_2", "op": "Const", "attr": {"value": {"tensor": {"dtype": "DT_INT32", "tensorShape": {"dim": [{"size": "1"}]}}}, "dtype": {"type": "DT_INT32"}}}, {"name": "StatefulPartitionedCall/tf_bert_for_token_classification/bert/encoder/layer_._2/intermediate/dense/Tensordot/concat_1/axis", "op": "Const", "attr": {"dtype": {"type": "DT_INT32"}, "value": {"tensor": {"dtype": "DT_INT32", "tensorShape": {}}}}}, {"name": "StatefulPartitionedCall/tf_bert_for_token_classification/bert/encoder/layer_._2/intermediate/dense/BiasAdd/ReadVariableOp", "op": "Const", "attr": {"value": {"tensor": {"dtype": "DT_FLOAT", "tensorShape": {"dim": [{"size": "2048"}]}}}, "dtype": {"type": "DT_FLOAT"}}}, {"name": "ConstantFolding/StatefulPartitionedCall/tf_bert_for_token_classification/bert/encoder/layer_._2/intermediate/Gelu/truediv_recip", "op": "Const", "attr": {"value": {"tensor": {"dtype": "DT_FLOAT", "tensorShape": {}}}, "dtype": {"type": "DT_FLOAT"}}}, {"name": "StatefulPartitionedCall/tf_bert_for_token_classification/bert/encoder/layer_._2/output/dense/Tensordot/free", "op": "Const", "attr": {"dtype": {"type": "DT_INT32"}, "value": {"tensor": {"dtype": "DT_INT32", "tensorShape": {"dim": [{"size": "2"}]}}}}}, {"name": "StatefulPartitionedCall/tf_bert_for_token_classification/bert/encoder/layer_._2/output/dense/Tensordot/GatherV2/axis", "op": "Const", "attr": {"dtype": {"type": "DT_INT32"}, "value": {"tensor": {"dtype": "DT_INT32", "tensorShape": {}}}}}, {"name": "StatefulPartitionedCall/tf_bert_for_token_classification/bert/encoder/layer_._2/output/dense/Tensordot/Const_2", "op": "Const", "attr": {"value": {"tensor": {"dtype": "DT_INT32", "tensorShape": {"dim": [{"size": "1"}]}}}, "dtype": {"type": "DT_INT32"}}}, {"name": "StatefulPartitionedCall/tf_bert_for_token_classification/bert/encoder/layer_._2/output/dense/Tensordot/concat_1/axis", "op": "Const", "attr": {"dtype": {"type": "DT_INT32"}, "value": {"tensor": {"dtype": "DT_INT32", "tensorShape": {}}}}}, {"name": "StatefulPartitionedCall/tf_bert_for_token_classification/bert/encoder/layer_._2/output/dense/BiasAdd/ReadVariableOp", "op": "Const", "attr": {"value": {"tensor": {"dtype": "DT_FLOAT", "tensorShape": {"dim": [{"size": "512"}]}}}, "dtype": {"type": "DT_FLOAT"}}}, {"name": "StatefulPartitionedCall/tf_bert_for_token_classification/bert/encoder/layer_._2/attention/output/LayerNorm/batchnorm/ReadVariableOp", "op": "Const", "attr": {"dtype": {"type": "DT_FLOAT"}, "value": {"tensor": {"dtype": "DT_FLOAT", "tensorShape": {"dim": [{"size": "512"}]}}}}}, {"name": "StatefulPartitionedCall/tf_bert_for_token_classification/bert/encoder/layer_._2/attention/output/dense/Tensordot/Const", "op": "Const", "attr": {"dtype": {"type": "DT_INT32"}, "value": {"tensor": {"dtype": "DT_INT32", "tensorShape": {"dim": [{"size": "1"}]}}}}}, {"name": "StatefulPartitionedCall/tf_bert_for_token_classification/bert/encoder/layer_._2/attention/output/dense/Tensordot/axes", "op": "Const", "attr": {"dtype": {"type": "DT_INT32"}, "value": {"tensor": {"dtype": "DT_INT32", "tensorShape": {"dim": [{"size": "1"}]}}}}}, {"name": "StatefulPartitionedCall/tf_bert_for_token_classification/bert/encoder/layer_._2/attention/output/dense/Tensordot/GatherV2_1/axis", "op": "Const", "attr": {"dtype": {"type": "DT_INT32"}, "value": {"tensor": {"dtype": "DT_INT32", "tensorShape": {}}}}}, {"name": "StatefulPartitionedCall/tf_bert_for_token_classification/bert/encoder/layer_._2/attention/output/dense/Tensordot/Const_1", "op": "Const", "attr": {"dtype": {"type": "DT_INT32"}, "value": {"tensor": {"dtype": "DT_INT32", "tensorShape": {"dim": [{"size": "1"}]}}}}}, {"name": "StatefulPartitionedCall/tf_bert_for_token_classification/bert/encoder/layer_._2/attention/output/dense/Tensordot/ReadVariableOp", "op": "Const", "attr": {"value": {"tensor": {"dtype": "DT_FLOAT", "tensorShape": {"dim": [{"size": "512"}, {"size": "512"}]}}}, "dtype": {"type": "DT_FLOAT"}}}, {"name": "StatefulPartitionedCall/tf_bert_for_token_classification/bert/encoder/layer_._2/attention/self/query/Tensordot/Const", "op": "Const", "attr": {"dtype": {"type": "DT_INT32"}, "value": {"tensor": {"dtype": "DT_INT32", "tensorShape": {"dim": [{"size": "1"}]}}}}}, {"name": "StatefulPartitionedCall/tf_bert_for_token_classification/bert/encoder/layer_._2/attention/self/query/Tensordot/axes", "op": "Const", "attr": {"value": {"tensor": {"dtype": "DT_INT32", "tensorShape": {"dim": [{"size": "1"}]}}}, "dtype": {"type": "DT_INT32"}}}, {"name": "StatefulPartitionedCall/tf_bert_for_token_classification/bert/encoder/layer_._2/attention/self/query/Tensordot/GatherV2_1/axis", "op": "Const", "attr": {"dtype": {"type": "DT_INT32"}, "value": {"tensor": {"dtype": "DT_INT32", "tensorShape": {}}}}}, {"name": "StatefulPartitionedCall/tf_bert_for_token_classification/bert/encoder/layer_._2/attention/self/query/Tensordot/Const_1", "op": "Const", "attr": {"dtype": {"type": "DT_INT32"}, "value": {"tensor": {"dtype": "DT_INT32", "tensorShape": {"dim": [{"size": "1"}]}}}}}, {"name": "StatefulPartitionedCall/tf_bert_for_token_classification/bert/encoder/layer_._2/attention/self/query/Tensordot/ReadVariableOp", "op": "Const", "attr": {"value": {"tensor": {"dtype": "DT_FLOAT", "tensorShape": {"dim": [{"size": "512"}, {"size": "512"}]}}}, "dtype": {"type": "DT_FLOAT"}}}, {"name": "StatefulPartitionedCall/tf_bert_for_token_classification/bert/encoder/layer_._2/attention/self/query/Tensordot/free", "op": "Const", "attr": {"value": {"tensor": {"dtype": "DT_INT32", "tensorShape": {"dim": [{"size": "2"}]}}}, "dtype": {"type": "DT_INT32"}}}, {"name": "StatefulPartitionedCall/tf_bert_for_token_classification/bert/encoder/layer_._2/attention/self/query/Tensordot/GatherV2/axis", "op": "Const", "attr": {"dtype": {"type": "DT_INT32"}, "value": {"tensor": {"dtype": "DT_INT32", "tensorShape": {}}}}}, {"name": "StatefulPartitionedCall/tf_bert_for_token_classification/bert/encoder/layer_._2/attention/self/query/Tensordot/Const_2", "op": "Const", "attr": {"dtype": {"type": "DT_INT32"}, "value": {"tensor": {"dtype": "DT_INT32", "tensorShape": {"dim": [{"size": "1"}]}}}}}, {"name": "StatefulPartitionedCall/tf_bert_for_token_classification/bert/encoder/layer_._2/attention/self/query/Tensordot/concat_1/axis", "op": "Const", "attr": {"value": {"tensor": {"dtype": "DT_INT32", "tensorShape": {}}}, "dtype": {"type": "DT_INT32"}}}, {"name": "StatefulPartitionedCall/tf_bert_for_token_classification/bert/encoder/layer_._2/attention/self/query/BiasAdd/ReadVariableOp", "op": "Const", "attr": {"value": {"tensor": {"dtype": "DT_FLOAT", "tensorShape": {"dim": [{"size": "512"}]}}}, "dtype": {"type": "DT_FLOAT"}}}, {"name": "StatefulPartitionedCall/tf_bert_for_token_classification/bert/encoder/layer_._2/attention/self/Reshape_2/shape/1", "op": "Const", "attr": {"value": {"tensor": {"dtype": "DT_INT32", "tensorShape": {}}}, "dtype": {"type": "DT_INT32"}}}, {"name": "StatefulPartitionedCall/tf_bert_for_token_classification/bert/encoder/layer_._2/attention/self/Reshape_2/shape/2", "op": "Const", "attr": {"value": {"tensor": {"dtype": "DT_INT32", "tensorShape": {}}}, "dtype": {"type": "DT_INT32"}}}, {"name": "StatefulPartitionedCall/tf_bert_for_token_classification/bert/encoder/layer_._2/attention/self/Reshape_2/shape/3", "op": "Const", "attr": {"dtype": {"type": "DT_INT32"}, "value": {"tensor": {"dtype": "DT_INT32", "tensorShape": {}}}}}, {"name": "StatefulPartitionedCall/tf_bert_for_token_classification/bert/encoder/layer_._2/attention/self/transpose_2/perm", "op": "Const", "attr": {"dtype": {"type": "DT_INT32"}, "value": {"tensor": {"dtype": "DT_INT32", "tensorShape": {"dim": [{"size": "4"}]}}}}}, {"name": "StatefulPartitionedCall/tf_bert_for_token_classification/bert/encoder/layer_._2/attention/self/key/Tensordot/Const", "op": "Const", "attr": {"value": {"tensor": {"dtype": "DT_INT32", "tensorShape": {"dim": [{"size": "1"}]}}}, "dtype": {"type": "DT_INT32"}}}, {"name": "StatefulPartitionedCall/tf_bert_for_token_classification/bert/encoder/layer_._2/attention/self/key/Tensordot/axes", "op": "Const", "attr": {"dtype": {"type": "DT_INT32"}, "value": {"tensor": {"dtype": "DT_INT32", "tensorShape": {"dim": [{"size": "1"}]}}}}}, {"name": "StatefulPartitionedCall/tf_bert_for_token_classification/bert/encoder/layer_._2/attention/self/key/Tensordot/GatherV2_1/axis", "op": "Const", "attr": {"value": {"tensor": {"dtype": "DT_INT32", "tensorShape": {}}}, "dtype": {"type": "DT_INT32"}}}, {"name": "StatefulPartitionedCall/tf_bert_for_token_classification/bert/encoder/layer_._2/attention/self/key/Tensordot/Const_1", "op": "Const", "attr": {"value": {"tensor": {"dtype": "DT_INT32", "tensorShape": {"dim": [{"size": "1"}]}}}, "dtype": {"type": "DT_INT32"}}}, {"name": "StatefulPartitionedCall/tf_bert_for_token_classification/bert/encoder/layer_._2/attention/self/key/Tensordot/ReadVariableOp", "op": "Const", "attr": {"value": {"tensor": {"dtype": "DT_FLOAT", "tensorShape": {"dim": [{"size": "512"}, {"size": "512"}]}}}, "dtype": {"type": "DT_FLOAT"}}}, {"name": "StatefulPartitionedCall/tf_bert_for_token_classification/bert/encoder/layer_._2/attention/self/key/Tensordot/free", "op": "Const", "attr": {"value": {"tensor": {"dtype": "DT_INT32", "tensorShape": {"dim": [{"size": "2"}]}}}, "dtype": {"type": "DT_INT32"}}}, {"name": "StatefulPartitionedCall/tf_bert_for_token_classification/bert/encoder/layer_._2/attention/self/key/Tensordot/GatherV2/axis", "op": "Const", "attr": {"value": {"tensor": {"dtype": "DT_INT32", "tensorShape": {}}}, "dtype": {"type": "DT_INT32"}}}, {"name": "StatefulPartitionedCall/tf_bert_for_token_classification/bert/encoder/layer_._2/attention/self/key/Tensordot/Const_2", "op": "Const", "attr": {"value": {"tensor": {"dtype": "DT_INT32", "tensorShape": {"dim": [{"size": "1"}]}}}, "dtype": {"type": "DT_INT32"}}}, {"name": "StatefulPartitionedCall/tf_bert_for_token_classification/bert/encoder/layer_._2/attention/self/key/Tensordot/concat_1/axis", "op": "Const", "attr": {"dtype": {"type": "DT_INT32"}, "value": {"tensor": {"dtype": "DT_INT32", "tensorShape": {}}}}}, {"name": "StatefulPartitionedCall/tf_bert_for_token_classification/bert/encoder/layer_._2/attention/self/key/BiasAdd/ReadVariableOp", "op": "Const", "attr": {"dtype": {"type": "DT_FLOAT"}, "value": {"tensor": {"dtype": "DT_FLOAT", "tensorShape": {"dim": [{"size": "512"}]}}}}}, {"name": "StatefulPartitionedCall/tf_bert_for_token_classification/bert/encoder/layer_._2/attention/self/Reshape/shape/1", "op": "Const", "attr": {"value": {"tensor": {"dtype": "DT_INT32", "tensorShape": {}}}, "dtype": {"type": "DT_INT32"}}}, {"name": "StatefulPartitionedCall/tf_bert_for_token_classification/bert/encoder/layer_._2/attention/self/Reshape/shape/2", "op": "Const", "attr": {"value": {"tensor": {"dtype": "DT_INT32", "tensorShape": {}}}, "dtype": {"type": "DT_INT32"}}}, {"name": "StatefulPartitionedCall/tf_bert_for_token_classification/bert/encoder/layer_._2/attention/self/Reshape/shape/3", "op": "Const", "attr": {"value": {"tensor": {"dtype": "DT_INT32", "tensorShape": {}}}, "dtype": {"type": "DT_INT32"}}}, {"name": "StatefulPartitionedCall/tf_bert_for_token_classification/bert/encoder/layer_._2/attention/self/transpose/perm", "op": "Const", "attr": {"value": {"tensor": {"dtype": "DT_INT32", "tensorShape": {"dim": [{"size": "4"}]}}}, "dtype": {"type": "DT_INT32"}}}, {"name": "ConstantFolding/StatefulPartitionedCall/tf_bert_for_token_classification/bert/encoder/layer_._2/attention/self/truediv_recip", "op": "Const", "attr": {"dtype": {"type": "DT_FLOAT"}, "value": {"tensor": {"dtype": "DT_FLOAT", "tensorShape": {}}}}}, {"name": "StatefulPartitionedCall/tf_bert_for_token_classification/bert/encoder/layer_._2/attention/self/add_1/y", "op": "Const", "attr": {"value": {"tensor": {"dtype": "DT_FLOAT", "tensorShape": {}}}, "dtype": {"type": "DT_FLOAT"}}}, {"name": "StatefulPartitionedCall/tf_bert_for_token_classification/bert/encoder/layer_._2/attention/self/value/Tensordot/Const", "op": "Const", "attr": {"dtype": {"type": "DT_INT32"}, "value": {"tensor": {"dtype": "DT_INT32", "tensorShape": {"dim": [{"size": "1"}]}}}}}, {"name": "StatefulPartitionedCall/tf_bert_for_token_classification/bert/encoder/layer_._2/attention/self/value/Tensordot/axes", "op": "Const", "attr": {"dtype": {"type": "DT_INT32"}, "value": {"tensor": {"dtype": "DT_INT32", "tensorShape": {"dim": [{"size": "1"}]}}}}}, {"name": "StatefulPartitionedCall/tf_bert_for_token_classification/bert/encoder/layer_._2/attention/self/value/Tensordot/GatherV2_1/axis", "op": "Const", "attr": {"value": {"tensor": {"dtype": "DT_INT32", "tensorShape": {}}}, "dtype": {"type": "DT_INT32"}}}, {"name": "StatefulPartitionedCall/tf_bert_for_token_classification/bert/encoder/layer_._2/attention/self/value/Tensordot/Const_1", "op": "Const", "attr": {"dtype": {"type": "DT_INT32"}, "value": {"tensor": {"dtype": "DT_INT32", "tensorShape": {"dim": [{"size": "1"}]}}}}}, {"name": "StatefulPartitionedCall/tf_bert_for_token_classification/bert/encoder/layer_._2/attention/self/value/Tensordot/ReadVariableOp", "op": "Const", "attr": {"value": {"tensor": {"dtype": "DT_FLOAT", "tensorShape": {"dim": [{"size": "512"}, {"size": "512"}]}}}, "dtype": {"type": "DT_FLOAT"}}}, {"name": "StatefulPartitionedCall/tf_bert_for_token_classification/bert/encoder/layer_._2/attention/self/value/Tensordot/free", "op": "Const", "attr": {"value": {"tensor": {"dtype": "DT_INT32", "tensorShape": {"dim": [{"size": "2"}]}}}, "dtype": {"type": "DT_INT32"}}}, {"name": "StatefulPartitionedCall/tf_bert_for_token_classification/bert/encoder/layer_._2/attention/self/value/Tensordot/GatherV2/axis", "op": "Const", "attr": {"dtype": {"type": "DT_INT32"}, "value": {"tensor": {"dtype": "DT_INT32", "tensorShape": {}}}}}, {"name": "StatefulPartitionedCall/tf_bert_for_token_classification/bert/encoder/layer_._2/attention/self/value/Tensordot/Const_2", "op": "Const", "attr": {"value": {"tensor": {"dtype": "DT_INT32", "tensorShape": {"dim": [{"size": "1"}]}}}, "dtype": {"type": "DT_INT32"}}}, {"name": "StatefulPartitionedCall/tf_bert_for_token_classification/bert/encoder/layer_._2/attention/self/value/Tensordot/concat_1/axis", "op": "Const", "attr": {"dtype": {"type": "DT_INT32"}, "value": {"tensor": {"dtype": "DT_INT32", "tensorShape": {}}}}}, {"name": "StatefulPartitionedCall/tf_bert_for_token_classification/bert/encoder/layer_._2/attention/self/value/BiasAdd/ReadVariableOp", "op": "Const", "attr": {"dtype": {"type": "DT_FLOAT"}, "value": {"tensor": {"dtype": "DT_FLOAT", "tensorShape": {"dim": [{"size": "512"}]}}}}}, {"name": "StatefulPartitionedCall/tf_bert_for_token_classification/bert/encoder/layer_._2/attention/self/Reshape_1/shape/1", "op": "Const", "attr": {"dtype": {"type": "DT_INT32"}, "value": {"tensor": {"dtype": "DT_INT32", "tensorShape": {}}}}}, {"name": "StatefulPartitionedCall/tf_bert_for_token_classification/bert/encoder/layer_._2/attention/self/Reshape_1/shape/2", "op": "Const", "attr": {"dtype": {"type": "DT_INT32"}, "value": {"tensor": {"dtype": "DT_INT32", "tensorShape": {}}}}}, {"name": "StatefulPartitionedCall/tf_bert_for_token_classification/bert/encoder/layer_._2/attention/self/Reshape_1/shape/3", "op": "Const", "attr": {"value": {"tensor": {"dtype": "DT_INT32", "tensorShape": {}}}, "dtype": {"type": "DT_INT32"}}}, {"name": "StatefulPartitionedCall/tf_bert_for_token_classification/bert/encoder/layer_._2/attention/self/transpose_1/perm", "op": "Const", "attr": {"value": {"tensor": {"dtype": "DT_INT32", "tensorShape": {"dim": [{"size": "4"}]}}}, "dtype": {"type": "DT_INT32"}}}, {"name": "StatefulPartitionedCall/tf_bert_for_token_classification/bert/encoder/layer_._2/attention/self/transpose_3/perm", "op": "Const", "attr": {"dtype": {"type": "DT_INT32"}, "value": {"tensor": {"dtype": "DT_INT32", "tensorShape": {"dim": [{"size": "4"}]}}}}}, {"name": "StatefulPartitionedCall/tf_bert_for_token_classification/bert/encoder/layer_._2/attention/self/strided_slice/stack", "op": "Const", "attr": {"value": {"tensor": {"dtype": "DT_INT32", "tensorShape": {"dim": [{"size": "1"}]}}}, "dtype": {"type": "DT_INT32"}}}, {"name": "StatefulPartitionedCall/tf_bert_for_token_classification/bert/encoder/layer_._2/attention/self/strided_slice/stack_1", "op": "Const", "attr": {"dtype": {"type": "DT_INT32"}, "value": {"tensor": {"dtype": "DT_INT32", "tensorShape": {"dim": [{"size": "1"}]}}}}}, {"name": "StatefulPartitionedCall/tf_bert_for_token_classification/bert/encoder/layer_._2/attention/self/strided_slice/stack_2", "op": "Const", "attr": {"dtype": {"type": "DT_INT32"}, "value": {"tensor": {"dtype": "DT_INT32", "tensorShape": {"dim": [{"size": "1"}]}}}}}, {"name": "StatefulPartitionedCall/tf_bert_for_token_classification/bert/encoder/layer_._2/attention/self/Reshape_3/shape/1", "op": "Const", "attr": {"dtype": {"type": "DT_INT32"}, "value": {"tensor": {"dtype": "DT_INT32", "tensorShape": {}}}}}, {"name": "StatefulPartitionedCall/tf_bert_for_token_classification/bert/encoder/layer_._2/attention/self/Reshape_3/shape/2", "op": "Const", "attr": {"value": {"tensor": {"dtype": "DT_INT32", "tensorShape": {}}}, "dtype": {"type": "DT_INT32"}}}, {"name": "StatefulPartitionedCall/tf_bert_for_token_classification/bert/encoder/layer_._2/attention/output/dense/Tensordot/free", "op": "Const", "attr": {"value": {"tensor": {"dtype": "DT_INT32", "tensorShape": {"dim": [{"size": "2"}]}}}, "dtype": {"type": "DT_INT32"}}}, {"name": "StatefulPartitionedCall/tf_bert_for_token_classification/bert/encoder/layer_._2/attention/output/dense/Tensordot/GatherV2/axis", "op": "Const", "attr": {"dtype": {"type": "DT_INT32"}, "value": {"tensor": {"dtype": "DT_INT32", "tensorShape": {}}}}}, {"name": "StatefulPartitionedCall/tf_bert_for_token_classification/bert/encoder/layer_._2/attention/output/dense/Tensordot/Const_2", "op": "Const", "attr": {"value": {"tensor": {"dtype": "DT_INT32", "tensorShape": {"dim": [{"size": "1"}]}}}, "dtype": {"type": "DT_INT32"}}}, {"name": "StatefulPartitionedCall/tf_bert_for_token_classification/bert/encoder/layer_._2/attention/output/dense/Tensordot/concat_1/axis", "op": "Const", "attr": {"value": {"tensor": {"dtype": "DT_INT32", "tensorShape": {}}}, "dtype": {"type": "DT_INT32"}}}, {"name": "StatefulPartitionedCall/tf_bert_for_token_classification/bert/encoder/layer_._2/attention/output/dense/BiasAdd/ReadVariableOp", "op": "Const", "attr": {"value": {"tensor": {"dtype": "DT_FLOAT", "tensorShape": {"dim": [{"size": "512"}]}}}, "dtype": {"type": "DT_FLOAT"}}}, {"name": "StatefulPartitionedCall/tf_bert_for_token_classification/bert/encoder/layer_._1/output/LayerNorm/batchnorm/ReadVariableOp", "op": "Const", "attr": {"dtype": {"type": "DT_FLOAT"}, "value": {"tensor": {"dtype": "DT_FLOAT", "tensorShape": {"dim": [{"size": "512"}]}}}}}, {"name": "StatefulPartitionedCall/tf_bert_for_token_classification/bert/encoder/layer_._1/output/dense/Tensordot/Const", "op": "Const", "attr": {"dtype": {"type": "DT_INT32"}, "value": {"tensor": {"dtype": "DT_INT32", "tensorShape": {"dim": [{"size": "1"}]}}}}}, {"name": "StatefulPartitionedCall/tf_bert_for_token_classification/bert/encoder/layer_._1/output/dense/Tensordot/axes", "op": "Const", "attr": {"dtype": {"type": "DT_INT32"}, "value": {"tensor": {"dtype": "DT_INT32", "tensorShape": {"dim": [{"size": "1"}]}}}}}, {"name": "StatefulPartitionedCall/tf_bert_for_token_classification/bert/encoder/layer_._1/output/dense/Tensordot/GatherV2_1/axis", "op": "Const", "attr": {"dtype": {"type": "DT_INT32"}, "value": {"tensor": {"dtype": "DT_INT32", "tensorShape": {}}}}}, {"name": "StatefulPartitionedCall/tf_bert_for_token_classification/bert/encoder/layer_._1/output/dense/Tensordot/Const_1", "op": "Const", "attr": {"value": {"tensor": {"dtype": "DT_INT32", "tensorShape": {"dim": [{"size": "1"}]}}}, "dtype": {"type": "DT_INT32"}}}, {"name": "StatefulPartitionedCall/tf_bert_for_token_classification/bert/encoder/layer_._1/output/dense/Tensordot/ReadVariableOp", "op": "Const", "attr": {"value": {"tensor": {"dtype": "DT_FLOAT", "tensorShape": {"dim": [{"size": "2048"}, {"size": "512"}]}}}, "dtype": {"type": "DT_FLOAT"}}}, {"name": "StatefulPartitionedCall/tf_bert_for_token_classification/bert/encoder/layer_._1/intermediate/Gelu/mul/x", "op": "Const", "attr": {"dtype": {"type": "DT_FLOAT"}, "value": {"tensor": {"dtype": "DT_FLOAT", "tensorShape": {}}}}}, {"name": "StatefulPartitionedCall/tf_bert_for_token_classification/bert/encoder/layer_._1/intermediate/Gelu/add/x", "op": "Const", "attr": {"dtype": {"type": "DT_FLOAT"}, "value": {"tensor": {"dtype": "DT_FLOAT", "tensorShape": {}}}}}, {"name": "StatefulPartitionedCall/tf_bert_for_token_classification/bert/encoder/layer_._1/intermediate/dense/Tensordot/Const", "op": "Const", "attr": {"dtype": {"type": "DT_INT32"}, "value": {"tensor": {"dtype": "DT_INT32", "tensorShape": {"dim": [{"size": "1"}]}}}}}, {"name": "StatefulPartitionedCall/tf_bert_for_token_classification/bert/encoder/layer_._1/intermediate/dense/Tensordot/axes", "op": "Const", "attr": {"dtype": {"type": "DT_INT32"}, "value": {"tensor": {"dtype": "DT_INT32", "tensorShape": {"dim": [{"size": "1"}]}}}}}, {"name": "StatefulPartitionedCall/tf_bert_for_token_classification/bert/encoder/layer_._1/intermediate/dense/Tensordot/GatherV2_1/axis", "op": "Const", "attr": {"value": {"tensor": {"dtype": "DT_INT32", "tensorShape": {}}}, "dtype": {"type": "DT_INT32"}}}, {"name": "StatefulPartitionedCall/tf_bert_for_token_classification/bert/encoder/layer_._1/intermediate/dense/Tensordot/Const_1", "op": "Const", "attr": {"value": {"tensor": {"dtype": "DT_INT32", "tensorShape": {"dim": [{"size": "1"}]}}}, "dtype": {"type": "DT_INT32"}}}, {"name": "StatefulPartitionedCall/tf_bert_for_token_classification/bert/encoder/layer_._1/intermediate/dense/Tensordot/ReadVariableOp", "op": "Const", "attr": {"dtype": {"type": "DT_FLOAT"}, "value": {"tensor": {"dtype": "DT_FLOAT", "tensorShape": {"dim": [{"size": "512"}, {"size": "2048"}]}}}}}, {"name": "StatefulPartitionedCall/tf_bert_for_token_classification/bert/encoder/layer_._1/intermediate/dense/Tensordot/free", "op": "Const", "attr": {"dtype": {"type": "DT_INT32"}, "value": {"tensor": {"dtype": "DT_INT32", "tensorShape": {"dim": [{"size": "2"}]}}}}}, {"name": "StatefulPartitionedCall/tf_bert_for_token_classification/bert/encoder/layer_._1/intermediate/dense/Tensordot/GatherV2/axis", "op": "Const", "attr": {"value": {"tensor": {"dtype": "DT_INT32", "tensorShape": {}}}, "dtype": {"type": "DT_INT32"}}}, {"name": "StatefulPartitionedCall/tf_bert_for_token_classification/bert/encoder/layer_._1/intermediate/dense/Tensordot/Const_2", "op": "Const", "attr": {"value": {"tensor": {"dtype": "DT_INT32", "tensorShape": {"dim": [{"size": "1"}]}}}, "dtype": {"type": "DT_INT32"}}}, {"name": "StatefulPartitionedCall/tf_bert_for_token_classification/bert/encoder/layer_._1/intermediate/dense/Tensordot/concat_1/axis", "op": "Const", "attr": {"dtype": {"type": "DT_INT32"}, "value": {"tensor": {"dtype": "DT_INT32", "tensorShape": {}}}}}, {"name": "StatefulPartitionedCall/tf_bert_for_token_classification/bert/encoder/layer_._1/intermediate/dense/BiasAdd/ReadVariableOp", "op": "Const", "attr": {"value": {"tensor": {"dtype": "DT_FLOAT", "tensorShape": {"dim": [{"size": "2048"}]}}}, "dtype": {"type": "DT_FLOAT"}}}, {"name": "ConstantFolding/StatefulPartitionedCall/tf_bert_for_token_classification/bert/encoder/layer_._1/intermediate/Gelu/truediv_recip", "op": "Const", "attr": {"value": {"tensor": {"dtype": "DT_FLOAT", "tensorShape": {}}}, "dtype": {"type": "DT_FLOAT"}}}, {"name": "StatefulPartitionedCall/tf_bert_for_token_classification/bert/encoder/layer_._1/output/dense/Tensordot/free", "op": "Const", "attr": {"value": {"tensor": {"dtype": "DT_INT32", "tensorShape": {"dim": [{"size": "2"}]}}}, "dtype": {"type": "DT_INT32"}}}, {"name": "StatefulPartitionedCall/tf_bert_for_token_classification/bert/encoder/layer_._1/output/dense/Tensordot/GatherV2/axis", "op": "Const", "attr": {"dtype": {"type": "DT_INT32"}, "value": {"tensor": {"dtype": "DT_INT32", "tensorShape": {}}}}}, {"name": "StatefulPartitionedCall/tf_bert_for_token_classification/bert/encoder/layer_._1/output/dense/Tensordot/Const_2", "op": "Const", "attr": {"dtype": {"type": "DT_INT32"}, "value": {"tensor": {"dtype": "DT_INT32", "tensorShape": {"dim": [{"size": "1"}]}}}}}, {"name": "StatefulPartitionedCall/tf_bert_for_token_classification/bert/encoder/layer_._1/output/dense/Tensordot/concat_1/axis", "op": "Const", "attr": {"dtype": {"type": "DT_INT32"}, "value": {"tensor": {"dtype": "DT_INT32", "tensorShape": {}}}}}, {"name": "StatefulPartitionedCall/tf_bert_for_token_classification/bert/encoder/layer_._1/output/dense/BiasAdd/ReadVariableOp", "op": "Const", "attr": {"dtype": {"type": "DT_FLOAT"}, "value": {"tensor": {"dtype": "DT_FLOAT", "tensorShape": {"dim": [{"size": "512"}]}}}}}, {"name": "StatefulPartitionedCall/tf_bert_for_token_classification/bert/encoder/layer_._1/attention/output/LayerNorm/batchnorm/ReadVariableOp", "op": "Const", "attr": {"dtype": {"type": "DT_FLOAT"}, "value": {"tensor": {"dtype": "DT_FLOAT", "tensorShape": {"dim": [{"size": "512"}]}}}}}, {"name": "StatefulPartitionedCall/tf_bert_for_token_classification/bert/encoder/layer_._1/attention/output/dense/Tensordot/Const", "op": "Const", "attr": {"dtype": {"type": "DT_INT32"}, "value": {"tensor": {"dtype": "DT_INT32", "tensorShape": {"dim": [{"size": "1"}]}}}}}, {"name": "StatefulPartitionedCall/tf_bert_for_token_classification/bert/encoder/layer_._1/attention/output/dense/Tensordot/axes", "op": "Const", "attr": {"value": {"tensor": {"dtype": "DT_INT32", "tensorShape": {"dim": [{"size": "1"}]}}}, "dtype": {"type": "DT_INT32"}}}, {"name": "StatefulPartitionedCall/tf_bert_for_token_classification/bert/encoder/layer_._1/attention/output/dense/Tensordot/GatherV2_1/axis", "op": "Const", "attr": {"value": {"tensor": {"dtype": "DT_INT32", "tensorShape": {}}}, "dtype": {"type": "DT_INT32"}}}, {"name": "StatefulPartitionedCall/tf_bert_for_token_classification/bert/encoder/layer_._1/attention/output/dense/Tensordot/Const_1", "op": "Const", "attr": {"value": {"tensor": {"dtype": "DT_INT32", "tensorShape": {"dim": [{"size": "1"}]}}}, "dtype": {"type": "DT_INT32"}}}, {"name": "StatefulPartitionedCall/tf_bert_for_token_classification/bert/encoder/layer_._1/attention/output/dense/Tensordot/ReadVariableOp", "op": "Const", "attr": {"dtype": {"type": "DT_FLOAT"}, "value": {"tensor": {"dtype": "DT_FLOAT", "tensorShape": {"dim": [{"size": "512"}, {"size": "512"}]}}}}}, {"name": "StatefulPartitionedCall/tf_bert_for_token_classification/bert/encoder/layer_._1/attention/self/query/Tensordot/Const", "op": "Const", "attr": {"value": {"tensor": {"dtype": "DT_INT32", "tensorShape": {"dim": [{"size": "1"}]}}}, "dtype": {"type": "DT_INT32"}}}, {"name": "StatefulPartitionedCall/tf_bert_for_token_classification/bert/encoder/layer_._1/attention/self/query/Tensordot/axes", "op": "Const", "attr": {"value": {"tensor": {"dtype": "DT_INT32", "tensorShape": {"dim": [{"size": "1"}]}}}, "dtype": {"type": "DT_INT32"}}}, {"name": "StatefulPartitionedCall/tf_bert_for_token_classification/bert/encoder/layer_._1/attention/self/query/Tensordot/GatherV2_1/axis", "op": "Const", "attr": {"dtype": {"type": "DT_INT32"}, "value": {"tensor": {"dtype": "DT_INT32", "tensorShape": {}}}}}, {"name": "StatefulPartitionedCall/tf_bert_for_token_classification/bert/encoder/layer_._1/attention/self/query/Tensordot/Const_1", "op": "Const", "attr": {"dtype": {"type": "DT_INT32"}, "value": {"tensor": {"dtype": "DT_INT32", "tensorShape": {"dim": [{"size": "1"}]}}}}}, {"name": "StatefulPartitionedCall/tf_bert_for_token_classification/bert/encoder/layer_._1/attention/self/query/Tensordot/ReadVariableOp", "op": "Const", "attr": {"dtype": {"type": "DT_FLOAT"}, "value": {"tensor": {"dtype": "DT_FLOAT", "tensorShape": {"dim": [{"size": "512"}, {"size": "512"}]}}}}}, {"name": "StatefulPartitionedCall/tf_bert_for_token_classification/bert/encoder/layer_._1/attention/self/query/Tensordot/free", "op": "Const", "attr": {"value": {"tensor": {"dtype": "DT_INT32", "tensorShape": {"dim": [{"size": "2"}]}}}, "dtype": {"type": "DT_INT32"}}}, {"name": "StatefulPartitionedCall/tf_bert_for_token_classification/bert/encoder/layer_._1/attention/self/query/Tensordot/GatherV2/axis", "op": "Const", "attr": {"dtype": {"type": "DT_INT32"}, "value": {"tensor": {"dtype": "DT_INT32", "tensorShape": {}}}}}, {"name": "StatefulPartitionedCall/tf_bert_for_token_classification/bert/encoder/layer_._1/attention/self/query/Tensordot/Const_2", "op": "Const", "attr": {"value": {"tensor": {"dtype": "DT_INT32", "tensorShape": {"dim": [{"size": "1"}]}}}, "dtype": {"type": "DT_INT32"}}}, {"name": "StatefulPartitionedCall/tf_bert_for_token_classification/bert/encoder/layer_._1/attention/self/query/Tensordot/concat_1/axis", "op": "Const", "attr": {"value": {"tensor": {"dtype": "DT_INT32", "tensorShape": {}}}, "dtype": {"type": "DT_INT32"}}}, {"name": "StatefulPartitionedCall/tf_bert_for_token_classification/bert/encoder/layer_._1/attention/self/query/BiasAdd/ReadVariableOp", "op": "Const", "attr": {"dtype": {"type": "DT_FLOAT"}, "value": {"tensor": {"dtype": "DT_FLOAT", "tensorShape": {"dim": [{"size": "512"}]}}}}}, {"name": "StatefulPartitionedCall/tf_bert_for_token_classification/bert/encoder/layer_._1/attention/self/Reshape_2/shape/1", "op": "Const", "attr": {"value": {"tensor": {"dtype": "DT_INT32", "tensorShape": {}}}, "dtype": {"type": "DT_INT32"}}}, {"name": "StatefulPartitionedCall/tf_bert_for_token_classification/bert/encoder/layer_._1/attention/self/Reshape_2/shape/2", "op": "Const", "attr": {"dtype": {"type": "DT_INT32"}, "value": {"tensor": {"dtype": "DT_INT32", "tensorShape": {}}}}}, {"name": "StatefulPartitionedCall/tf_bert_for_token_classification/bert/encoder/layer_._1/attention/self/Reshape_2/shape/3", "op": "Const", "attr": {"value": {"tensor": {"dtype": "DT_INT32", "tensorShape": {}}}, "dtype": {"type": "DT_INT32"}}}, {"name": "StatefulPartitionedCall/tf_bert_for_token_classification/bert/encoder/layer_._1/attention/self/transpose_2/perm", "op": "Const", "attr": {"value": {"tensor": {"dtype": "DT_INT32", "tensorShape": {"dim": [{"size": "4"}]}}}, "dtype": {"type": "DT_INT32"}}}, {"name": "StatefulPartitionedCall/tf_bert_for_token_classification/bert/encoder/layer_._1/attention/self/key/Tensordot/Const", "op": "Const", "attr": {"value": {"tensor": {"dtype": "DT_INT32", "tensorShape": {"dim": [{"size": "1"}]}}}, "dtype": {"type": "DT_INT32"}}}, {"name": "StatefulPartitionedCall/tf_bert_for_token_classification/bert/encoder/layer_._1/attention/self/key/Tensordot/axes", "op": "Const", "attr": {"dtype": {"type": "DT_INT32"}, "value": {"tensor": {"dtype": "DT_INT32", "tensorShape": {"dim": [{"size": "1"}]}}}}}, {"name": "StatefulPartitionedCall/tf_bert_for_token_classification/bert/encoder/layer_._1/attention/self/key/Tensordot/GatherV2_1/axis", "op": "Const", "attr": {"value": {"tensor": {"dtype": "DT_INT32", "tensorShape": {}}}, "dtype": {"type": "DT_INT32"}}}, {"name": "StatefulPartitionedCall/tf_bert_for_token_classification/bert/encoder/layer_._1/attention/self/key/Tensordot/Const_1", "op": "Const", "attr": {"value": {"tensor": {"dtype": "DT_INT32", "tensorShape": {"dim": [{"size": "1"}]}}}, "dtype": {"type": "DT_INT32"}}}, {"name": "StatefulPartitionedCall/tf_bert_for_token_classification/bert/encoder/layer_._1/attention/self/key/Tensordot/ReadVariableOp", "op": "Const", "attr": {"value": {"tensor": {"dtype": "DT_FLOAT", "tensorShape": {"dim": [{"size": "512"}, {"size": "512"}]}}}, "dtype": {"type": "DT_FLOAT"}…
 -0.2816619567852176, "scale": 9.336138313673559e-06, "original_dtype": "float32"}}, {"name": "StatefulPartitionedCall/tf_bert_for_token_classification/bert/encoder/layer_._1/intermediate/dense/Tensordot/free", "shape": [2], "dtype": "int32"}, {"name": "StatefulPartitionedCall/tf_bert_for_token_classification/bert/encoder/layer_._1/intermediate/dense/Tensordot/GatherV2/axis", "shape": [], "dtype": "int32"}, {"name": "StatefulPartitionedCall/tf_bert_for_token_classification/bert/encoder/layer_._1/intermediate/dense/Tensordot/Const_2", "shape": [1], "dtype": "int32"}, {"name": "StatefulPartitionedCall/tf_bert_for_token_classification/bert/encoder/layer_._1/intermediate/dense/Tensordot/concat_1/axis", "shape": [], "dtype": "int32"}, {"name": "StatefulPartitionedCall/tf_bert_for_token_classification/bert/encoder/layer_._1/intermediate/dense/BiasAdd/ReadVariableOp", "shape": [2048], "dtype": "float32", "quantization": {"dtype": "uint16", "min": -0.3678176013490624, "scale": 7.518296125525058e-06, "original_dtype": "float32"}}, {"name": "ConstantFolding/StatefulPartitionedCall/tf_bert_for_token_classification/bert/encoder/layer_._1/intermediate/Gelu/truediv_recip", "shape": [], "dtype": "float32", "quantization": {"dtype": "uint16", "min": 0.7071067690849304, "scale": 1.0, "original_dtype": "float32"}}, {"name": "StatefulPartitionedCall/tf_bert_for_token_classification/bert/encoder/layer_._1/output/dense/Tensordot/free", "shape": [2], "dtype": "int32"}, {"name": "StatefulPartitionedCall/tf_bert_for_token_classification/bert/encoder/layer_._1/output/dense/Tensordot/GatherV2/axis", "shape": [], "dtype": "int32"}, {"name": "StatefulPartitionedCall/tf_bert_for_token_classification/bert/encoder/layer_._1/output/dense/Tensordot/Const_2", "shape": [1], "dtype": "int32"}, {"name": "StatefulPartitionedCall/tf_bert_for_token_classification/bert/encoder/layer_._1/output/dense/Tensordot/concat_1/axis", "shape": [], "dtype": "int32"}, {"name": "StatefulPartitionedCall/tf_bert_for_token_classification/bert/encoder/layer_._1/output/dense/BiasAdd/ReadVariableOp", "shape": [512], "dtype": "float32", "quantization": {"dtype": "uint16", "min": -0.1513078581486922, "scale": 4.873195856507205e-06, "original_dtype": "float32"}}, {"name": "StatefulPartitionedCall/tf_bert_for_token_classification/bert/encoder/layer_._1/attention/output/LayerNorm/batchnorm/ReadVariableOp", "shape": [512], "dtype": "float32", "quantization": {"dtype": "uint16", "min": -0.7228165973139599, "scale": 3.540788661281277e-05, "original_dtype": "float32"}}, {"name": "StatefulPartitionedCall/tf_bert_for_token_classification/bert/encoder/layer_._1/attention/output/dense/Tensordot/Const", "shape": [1], "dtype": "int32"}, {"name": "StatefulPartitionedCall/tf_bert_for_token_classification/bert/encoder/layer_._1/attention/output/dense/Tensordot/axes", "shape": [1], "dtype": "int32"}, {"name": "StatefulPartitionedCall/tf_bert_for_token_classification/bert/encoder/layer_._1/attention/output/dense/Tensordot/GatherV2_1/axis", "shape": [], "dtype": "int32"}, {"name": "StatefulPartitionedCall/tf_bert_for_token_classification/bert/encoder/layer_._1/attention/output/dense/Tensordot/Const_1", "shape": [1], "dtype": "int32"}, {"name": "StatefulPartitionedCall/tf_bert_for_token_classification/bert/encoder/layer_._1/attention/output/dense/Tensordot/ReadVariableOp", "shape": [512, 512], "dtype": "float32", "quantization": {"dtype": "uint16", "min": -0.2981390672171335, "scale": 8.38034256850499e-06, "original_dtype": "float32"}}, {"name": "StatefulPartitionedCall/tf_bert_for_token_classification/bert/encoder/layer_._1/attention/self/query/Tensordot/Const", "shape": [1], "dtype": "int32"}, {"name": "StatefulPartitionedCall/tf_bert_for_token_classification/bert/encoder/layer_._1/attention/self/query/Tensordot/axes", "shape": [1], "dtype": "int32"}, {"name": "StatefulPartitionedCall/tf_bert_for_token_classification/bert/encoder/layer_._1/attention/self/query/Tensordot/GatherV2_1/axis", "shape": [], "dtype": "int32"}, {"name": "StatefulPartitionedCall/tf_bert_for_token_classification/bert/encoder/layer_._1/attention/self/query/Tensordot/Const_1", "shape": [1], "dtype": "int32"}, {"name": "StatefulPartitionedCall/tf_bert_for_token_classification/bert/encoder/layer_._1/attention/self/query/Tensordot/ReadVariableOp", "shape": [512, 512], "dtype": "float32", "quantization": {"dtype": "uint16", "min": -0.29736546481820747, "scale": 1.0125837328232624e-05, "original_dtype": "float32"}}, {"name": "StatefulPartitionedCall/tf_bert_for_token_classification/bert/encoder/layer_._1/attention/self/query/Tensordot/free", "shape": [2], "dtype": "int32"}, {"name": "StatefulPartitionedCall/tf_bert_for_token_classification/bert/encoder/layer_._1/attention/self/query/Tensordot/GatherV2/axis", "shape": [], "dtype": "int32"}, {"name": "StatefulPartitionedCall/tf_bert_for_token_classification/bert/encoder/layer_._1/attention/self/query/Tensordot/Const_2", "shape": [1], "dtype": "int32"}, {"name": "StatefulPartitionedCall/tf_bert_for_token_classification/bert/encoder/layer_._1/attention/self/query/Tensordot/concat_1/axis", "shape": [], "dtype": "int32"}, {"name": "StatefulPartitionedCall/tf_bert_for_token_classification/bert/encoder/layer_._1/attention/self/query/BiasAdd/ReadVariableOp", "shape": [512], "dtype": "float32", "quantization": {"dtype": "uint16", "min": -0.7191126458962467, "scale": 1.713519303014861e-05, "original_dtype": "float32"}}, {"name": "StatefulPartitionedCall/tf_bert_for_token_classification/bert/encoder/layer_._1/attention/self/Reshape_2/shape/1", "shape": [], "dtype": "int32"}, {"name": "StatefulPartitionedCall/tf_bert_for_token_classification/bert/encoder/layer_._1/attention/self/Reshape_2/shape/2", "shape": [], "dtype": "int32"}, {"name": "StatefulPartitionedCall/tf_bert_for_token_classification/bert/encoder/layer_._1/attention/self/Reshape_2/shape/3", "shape": [], "dtype": "int32"}, {"name": "StatefulPartitionedCall/tf_bert_for_token_classification/bert/encoder/layer_._1/attention/self/transpose_2/perm", "shape": [4], "dtype": "int32"}, {"name": "StatefulPartitionedCall/tf_bert_for_token_classification/bert/encoder/layer_._1/attention/self/key/Tensordot/Const", "shape": [1], "dtype": "int32"}, {"name": "StatefulPartitionedCall/tf_bert_for_token_classification/bert/encoder/layer_._1/attention/self/key/Tensordot/axes", "shape": [1], "dtype": "int32"}, {"name": "StatefulPartitionedCall/tf_bert_for_token_classification/bert/encoder/layer_._1/attention/self/key/Tensordot/GatherV2_1/axis", "shape": [], "dtype": "int32"}, {"name": "StatefulPartitionedCall/tf_bert_for_token_classification/bert/encoder/layer_._1/attention/self/key/Tensordot/Const_1", "shape": [1], "dtype": "int32"}, {"name": "StatefulPartitionedCall/tf_bert_for_token_classification/bert/encoder/layer_._1/attention/self/key/Tensordot/ReadVariableOp", "shape": [512, 512], "dtype": "float32", "quantization": {"dtype": "uint16", "min": -0.29608818265196113, "scale": 8.826596591204684e-06, "original_dtype": "float32"}}, {"name": "StatefulPartitionedCall/tf_bert_for_token_classification/bert/encoder/layer_._1/attention/self/key/Tensordot/free", "shape": [2], "dtype": "int32"}, {"name": "StatefulPartitionedCall/tf_bert_for_token_classification/bert/encoder/layer_._1/attention/self/key/Tensordot/GatherV2/axis", "shape": [], "dtype": "int32"}, {"name": "StatefulPartitionedCall/tf_bert_for_token_classification/bert/encoder/layer_._1/attention/self/key/Tensordot/Const_2", "shape": [1], "dtype": "int32"}, {"name": "StatefulPartitionedCall/tf_bert_for_token_classification/bert/encoder/layer_._1/attention/self/key/Tensordot/concat_1/axis", "shape": [], "dtype": "int32"}, {"name": "StatefulPartitionedCall/tf_bert_for_token_classification/bert/encoder/layer_._1/attention/self/key/BiasAdd/ReadVariableOp", "shape": [512], "dtype": "float32", "quantization": {"dtype": "uint16", "min": -0.06242239194678216, "scale": 1.939426829888217e-06, "original_dtype": "float32"}}, {"name": "StatefulPartitionedCall/tf_bert_for_token_classification/bert/encoder/layer_._1/attention/self/Reshape/shape/1", "shape": [], "dtype": "int32"}, {"name": "StatefulPartitionedCall/tf_bert_for_token_classification/bert/encoder/layer_._1/attention/self/Reshape/shape/2", "shape": [], "dtype": "int32"}, {"name": "StatefulPartitionedCall/tf_bert_for_token_classification/bert/encoder/layer_._1/attention/self/Reshape/shape/3", "shape": [], "dtype": "int32"}, {"name": "StatefulPartitionedCall/tf_bert_for_token_classification/bert/encoder/layer_._1/attention/self/transpose/perm", "shape": [4], "dtype": "int32"}, {"name": "ConstantFolding/StatefulPartitionedCall/tf_bert_for_token_classification/bert/encoder/layer_._1/attention/self/truediv_recip", "shape": [], "dtype": "float32", "quantization": {"dtype": "uint16", "min": 0.125, "scale": 1.0, "original_dtype": "float32"}}, {"name": "StatefulPartitionedCall/tf_bert_for_token_classification/bert/encoder/layer_._1/attention/self/add_1/y", "shape": [], "dtype": "float32", "quantization": {"dtype": "uint16", "min": 9.999999717180685e-10, "scale": 1.0, "original_dtype": "float32"}}, {"name": "StatefulPartitionedCall/tf_bert_for_token_classification/bert/encoder/layer_._1/attention/self/value/Tensordot/Const", "shape": [1], "dtype": "int32"}, {"name": "StatefulPartitionedCall/tf_bert_for_token_classification/bert/encoder/layer_._1/attention/self/value/Tensordot/axes", "shape": [1], "dtype": "int32"}, {"name": "StatefulPartitionedCall/tf_bert_for_token_classification/bert/encoder/layer_._1/attention/self/value/Tensordot/GatherV2_1/axis", "shape": [], "dtype": "int32"}, {"name": "StatefulPartitionedCall/tf_bert_for_token_classification/bert/encoder/layer_._1/attention/self/value/Tensordot/Const_1", "shape": [1], "dtype": "int32"}, {"name": "StatefulPartitionedCall/tf_bert_for_token_classification/bert/encoder/layer_._1/attention/self/value/Tensordot/ReadVariableOp", "shape": [512, 512], "dtype": "float32", "quantization": {"dtype": "uint16", "min": -0.17340808302662034, "scale": 4.956924306852481e-06, "original_dtype": "float32"}}, {"name": "StatefulPartitionedCall/tf_bert_for_token_classification/bert/encoder/layer_._1/attention/self/value/Tensordot/free", "shape": [2], "dtype": "int32"}, {"name": "StatefulPartitionedCall/tf_bert_for_token_classification/bert/encoder/layer_._1/attention/self/value/Tensordot/GatherV2/axis", "shape": [], "dtype": "int32"}, {"name": "StatefulPartitionedCall/tf_bert_for_token_classification/bert/encoder/layer_._1/attention/self/value/Tensordot/Const_2", "shape": [1], "dtype": "int32"}, {"name": "StatefulPartitionedCall/tf_bert_for_token_classification/bert/encoder/layer_._1/attention/self/value/Tensordot/concat_1/axis", "shape": [], "dtype": "int32"}, {"name": "StatefulPartitionedCall/tf_bert_for_token_classification/bert/encoder/layer_._1/attention/self/value/BiasAdd/ReadVariableOp", "shape": [512], "dtype": "float32", "quantization": {"dtype": "uint16", "min": -0.1845758457864878, "scale": 6.667239047337372e-06, "original_dtype": "float32"}}, {"name": "StatefulPartitionedCall/tf_bert_for_token_classification/bert/encoder/layer_._1/attention/self/Reshape_1/shape/1", "shape": [], "dtype": "int32"}, {"name": "StatefulPartitionedCall/tf_bert_for_token_classification/bert/encoder/layer_._1/attention/self/Reshape_1/shape/2", "shape": [], "dtype": "int32"}, {"name": "StatefulPartitionedCall/tf_bert_for_token_classification/bert/encoder/layer_._1/attention/self/Reshape_1/shape/3", "shape": [], "dtype": "int32"}, {"name": "StatefulPartitionedCall/tf_bert_for_token_classification/bert/encoder/layer_._1/attention/self/transpose_1/perm", "shape": [4], "dtype": "int32"}, {"name": "StatefulPartitionedCall/tf_bert_for_token_classification/bert/encoder/layer_._1/attention/self/transpose_3/perm", "shape": [4], "dtype": "int32"}, {"name": "StatefulPartitionedCall/tf_bert_for_token_classification/bert/encoder/layer_._1/attention/self/strided_slice/stack", "shape": [1], "dtype": "int32"}, {"name": "StatefulPartitionedCall/tf_bert_for_token_classification/bert/encoder/layer_._1/attention/self/strided_slice/stack_1", "shape": [1], "dtype": "int32"}, {"name": "StatefulPartitionedCall/tf_bert_for_token_classification/bert/encoder/layer_._1/attention/self/strided_slice/stack_2", "shape": [1], "dtype": "int32"}, {"name": "StatefulPartitionedCall/tf_bert_for_token_classification/bert/encoder/layer_._1/attention/self/Reshape_3/shape/1", "shape": [], "dtype": "int32"}, {"name": "StatefulPartitionedCall/tf_bert_for_token_classification/bert/encoder/layer_._1/attention/self/Reshape_3/shape/2", "shape": [], "dtype": "int32"}, {"name": "StatefulPartitionedCall/tf_bert_for_token_classification/bert/encoder/layer_._1/attention/output/dense/Tensordot/free", "shape": [2], "dtype": "int32"}, {"name": "StatefulPartitionedCall/tf_bert_for_token_classification/bert/encoder/layer_._1/attention/output/dense/Tensordot/GatherV2/axis", "shape": [], "dtype": "int32"}, {"name": "StatefulPartitionedCall/tf_bert_for_token_classification/bert/encoder/layer_._1/attention/output/dense/Tensordot/Const_2", "shape": [1], "dtype": "int32"}, {"name": "StatefulPartitionedCall/tf_bert_for_token_classification/bert/encoder/layer_._1/attention/output/dense/Tensordot/concat_1/axis", "shape": [], "dtype": "int32"}, {"name": "StatefulPartitionedCall/tf_bert_for_token_classification/bert/encoder/layer_._1/attention/output/dense/BiasAdd/ReadVariableOp", "shape": [512], "dtype": "float32", "quantization": {"dtype": "uint16", "min": -0.25489498393490323, "scale": 7.420955628709189e-06, "original_dtype": "float32"}}, {"name": "StatefulPartitionedCall/tf_bert_for_token_classification/bert/encoder/layer_._0/output/LayerNorm/batchnorm/ReadVariableOp", "shape": [512], "dtype": "float32", "quantization": {"dtype": "uint16", "min": -0.3695265417901367, "scale": 1.975127167620593e-05, "original_dtype": "float32"}}, {"name": "StatefulPartitionedCall/tf_bert_for_token_classification/bert/encoder/layer_._0/output/dense/Tensordot/Const", "shape": [1], "dtype": "int32"}, {"name": "StatefulPartitionedCall/tf_bert_for_token_classification/bert/encoder/layer_._0/output/dense/Tensordot/axes", "shape": [1], "dtype": "int32"}, {"name": "StatefulPartitionedCall/tf_bert_for_token_classification/bert/encoder/layer_._0/output/dense/Tensordot/GatherV2_1/axis", "shape": [], "dtype": "int32"}, {"name": "StatefulPartitionedCall/tf_bert_for_token_classification/bert/encoder/layer_._0/output/dense/Tensordot/Const_1", "shape": [1], "dtype": "int32"}, {"name": "StatefulPartitionedCall/tf_bert_for_token_classification/bert/encoder/layer_._0/output/dense/Tensordot/ReadVariableOp", "shape": [2048, 512], "dtype": "float32", "quantization": {"dtype": "uint16", "min": -0.63468563584684, "scale": 2.3546992500068267e-05, "original_dtype": "float32"}}, {"name": "StatefulPartitionedCall/tf_bert_for_token_classification/bert/encoder/layer_._0/intermediate/Gelu/mul/x", "shape": [], "dtype": "float32", "quantization": {"dtype": "uint16", "min": 0.5, "scale": 1.0, "original_dtype": "float32"}}, {"name": "StatefulPartitionedCall/tf_bert_for_token_classification/bert/encoder/layer_._0/intermediate/Gelu/add/x", "shape": [], "dtype": "float32", "quantization": {"dtype": "uint16", "min": 1.0, "scale": 1.0, "original_dtype": "float32"}}, {"name": "StatefulPartitionedCall/tf_bert_for_token_classification/bert/encoder/layer_._0/intermediate/dense/Tensordot/Const", "shape": [1], "dtype": "int32"}, {"name": "StatefulPartitionedCall/tf_bert_for_token_classification/bert/encoder/layer_._0/intermediate/dense/Tensordot/axes", "shape": [1], "dtype": "int32"}, {"name": "StatefulPartitionedCall/tf_bert_for_token_classification/bert/encoder/layer_._0/intermediate/dense/Tensordot/GatherV2_1/axis", "shape": [], "dtype": "int32"}, {"name": "StatefulPartitionedCall/tf_bert_for_token_classification/bert/encoder/layer_._0/intermediate/dense/Tensordot/Const_1", "shape": [1], "dtype": "int32"}, {"name": "StatefulPartitionedCall/tf_bert_for_token_classification/bert/encoder/layer_._0/intermediate/dense/Tensordot/ReadVariableOp", "shape": [512, 2048], "dtype": "float32", "quantization": {"dtype": "uint16", "min": -0.23994696899910872, "scale": 8.104399939173463e-06, "original_dtype": "float32"}}, {"name": "StatefulPartitionedCall/tf_bert_for_token_classification/bert/encoder/layer_._0/intermediate/dense/Tensordot/free", "shape": [2], "dtype": "int32"}, {"name": "StatefulPartitionedCall/tf_bert_for_token_classification/bert/encoder/layer_._0/intermediate/dense/Tensordot/GatherV2/axis", "shape": [], "dtype": "int32"}, {"name": "StatefulPartitionedCall/tf_bert_for_token_classification/bert/encoder/layer_._0/intermediate/dense/Tensordot/Const_2", "shape": [1], "dtype": "int32"}, {"name": "StatefulPartitionedCall/tf_bert_for_token_classification/bert/encoder/layer_._0/intermediate/dense/Tensordot/concat_1/axis", "shape": [], "dtype": "int32"}, {"name": "StatefulPartitionedCall/tf_bert_for_token_classification/bert/encoder/layer_._0/intermediate/dense/BiasAdd/ReadVariableOp", "shape": [2048], "dtype": "float32", "quantization": {"dtype": "uint16", "min": -0.4080337205531259, "scale": 8.01071384783112e-06, "original_dtype": "float32"}}, {"name": "ConstantFolding/StatefulPartitionedCall/tf_bert_for_token_classification/bert/encoder/layer_._0/intermediate/Gelu/truediv_recip", "shape": [], "dtype": "float32", "quantization": {"dtype": "uint16", "min": 0.7071067690849304, "scale": 1.0, "original_dtype": "float32"}}, {"name": "StatefulPartitionedCall/tf_bert_for_token_classification/bert/encoder/layer_._0/output/dense/Tensordot/free", "shape": [2], "dtype": "int32"}, {"name": "StatefulPartitionedCall/tf_bert_for_token_classification/bert/encoder/layer_._0/output/dense/Tensordot/GatherV2/axis", "shape": [], "dtype": "int32"}, {"name": "StatefulPartitionedCall/tf_bert_for_token_classification/bert/encoder/layer_._0/output/dense/Tensordot/Const_2", "shape": [1], "dtype": "int32"}, {"name": "StatefulPartitionedCall/tf_bert_for_token_classification/bert/encoder/layer_._0/output/dense/Tensordot/concat_1/axis", "shape": [], "dtype": "int32"}, {"name": "StatefulPartitionedCall/tf_bert_for_token_classification/bert/encoder/layer_._0/output/dense/BiasAdd/ReadVariableOp", "shape": [512], "dtype": "float32", "quantization": {"dtype": "uint16", "min": -0.15143878107882386, "scale": 5.3673145872345865e-06, "original_dtype": "float32"}}, {"name": "StatefulPartitionedCall/tf_bert_for_token_classification/bert/encoder/layer_._0/attention/output/LayerNorm/batchnorm/ReadVariableOp", "shape": [512], "dtype": "float32", "quantization": {"dtype": "uint16", "min": -1.2447472422094032, "scale": 6.031044344248284e-05, "original_dtype": "float32"}}, {"name": "StatefulPartitionedCall/tf_bert_for_token_classification/bert/encoder/layer_._0/attention/output/dense/Tensordot/Const", "shape": [1], "dtype": "int32"}, {"name": "StatefulPartitionedCall/tf_bert_for_token_classification/bert/encoder/layer_._0/attention/output/dense/Tensordot/axes", "shape": [1], "dtype": "int32"}, {"name": "StatefulPartitionedCall/tf_bert_for_token_classification/bert/encoder/layer_._0/attention/output/dense/Tensordot/GatherV2_1/axis", "shape": [], "dtype": "int32"}, {"name": "StatefulPartitionedCall/tf_bert_for_token_classification/bert/encoder/layer_._0/attention/output/dense/Tensordot/Const_1", "shape": [1], "dtype": "int32"}, {"name": "StatefulPartitionedCall/tf_bert_for_token_classification/bert/encoder/layer_._0/attention/output/dense/Tensordot/ReadVariableOp", "shape": [512, 512], "dtype": "float32", "quantization": {"dtype": "uint16", "min": -0.3580880531536557, "scale": 1.1903335875865296e-05, "original_dtype": "float32"}}, {"name": "StatefulPartitionedCall/tf_bert_for_token_classification/bert/encoder/layer_._0/attention/self/query/Tensordot/Const", "shape": [1], "dtype": "int32"}, {"name": "StatefulPartitionedCall/tf_bert_for_token_classification/bert/encoder/layer_._0/attention/self/query/Tensordot/axes", "shape": [1], "dtype": "int32"}, {"name": "StatefulPartitionedCall/tf_bert_for_token_classification/bert/encoder/layer_._0/attention/self/query/Tensordot/GatherV2_1/axis", "shape": [], "dtype": "int32"}, {"name": "StatefulPartitionedCall/tf_bert_for_token_classification/bert/encoder/layer_._0/attention/self/query/Tensordot/Const_1", "shape": [1], "dtype": "int32"}, {"name": "StatefulPartitionedCall/tf_bert_for_token_classification/bert/encoder/layer_._0/attention/self/query/Tensordot/ReadVariableOp", "shape": [512, 512], "dtype": "float32", "quantization": {"dtype": "uint16", "min": -0.2525904547045394, "scale": 7.46006836305087e-06, "original_dtype": "float32"}}, {"name": "StatefulPartitionedCall/tf_bert_for_token_classification/bert/encoder/layer_._0/attention/self/query/Tensordot/free", "shape": [2], "dtype": "int32"}, {"name": "StatefulPartitionedCall/tf_bert_for_token_classification/bert/encoder/layer_._0/attention/self/query/Tensordot/GatherV2/axis", "shape": [], "dtype": "int32"}, {"name": "StatefulPartitionedCall/tf_bert_for_token_classification/bert/encoder/layer_._0/attention/self/query/Tensordot/Const_2", "shape": [1], "dtype": "int32"}, {"name": "StatefulPartitionedCall/tf_bert_for_token_classification/bert/encoder/layer_._0/attention/self/query/Tensordot/concat_1/axis", "shape": [], "dtype": "int32"}, {"name": "StatefulPartitionedCall/tf_bert_for_token_classification/bert/encoder/layer_._0/attention/self/query/BiasAdd/ReadVariableOp", "shape": [512], "dtype": "float32", "quantization": {"dtype": "uint16", "min": -0.6448389091762369, "scale": 2.0085310985087584e-05, "original_dtype": "float32"}}, {"name": "StatefulPartitionedCall/tf_bert_for_token_classification/bert/encoder/layer_._0/attention/self/Reshape_2/shape/1", "shape": [], "dtype": "int32"}, {"name": "StatefulPartitionedCall/tf_bert_for_token_classification/bert/encoder/layer_._0/attention/self/Reshape_2/shape/2", "shape": [], "dtype": "int32"}, {"name": "StatefulPartitionedCall/tf_bert_for_token_classification/bert/encoder/layer_._0/attention/self/Reshape_2/shape/3", "shape": [], "dtype": "int32"}, {"name": "StatefulPartitionedCall/tf_bert_for_token_classification/bert/encoder/layer_._0/attention/self/transpose_2/perm", "shape": [4], "dtype": "int32"}, {"name": "StatefulPartitionedCall/tf_bert_for_token_classification/bert/encoder/layer_._0/attention/self/key/Tensordot/Const", "shape": [1], "dtype": "int32"}, {"name": "StatefulPartitionedCall/tf_bert_for_token_classification/bert/encoder/layer_._0/attention/self/key/Tensordot/axes", "shape": [1], "dtype": "int32"}, {"name": "StatefulPartitionedCall/tf_bert_for_token_classification/bert/encoder/layer_._0/attention/self/key/Tensordot/GatherV2_1/axis", "shape": [], "dtype": "int32"}, {"name": "StatefulPartitionedCall/tf_bert_for_token_classification/bert/encoder/layer_._0/attention/self/key/Tensordot/Const_1", "shape": [1], "dtype": "int32"}, {"name": "StatefulPartitionedCall/tf_bert_for_token_classification/bert/encoder/layer_._0/attention/self/key/Tensordot/ReadVariableOp", "shape": [512, 512], "dtype": "float32", "quantization": {"dtype": "uint16", "min": -0.4115933520047936, "scale": 1.2016622445544598e-05, "original_dtype": "float32"}}, {"name": "StatefulPartitionedCall/tf_bert_for_token_classification/bert/encoder/layer_._0/attention/self/key/Tensordot/free", "shape": [2], "dtype": "int32"}, {"name": "StatefulPartitionedCall/tf_bert_for_token_classification/bert/encoder/layer_._0/attention/self/key/Tensordot/GatherV2/axis", "shape": [], "dtype": "int32"}, {"name": "StatefulPartitionedCall/tf_bert_for_token_classification/bert/encoder/layer_._0/attention/self/key/Tensordot/Const_2", "shape": [1], "dtype": "int32"}, {"name": "StatefulPartitionedCall/tf_bert_for_token_classification/bert/encoder/layer_._0/attention/self/key/Tensordot/concat_1/axis", "shape": [], "dtype": "int32"}, {"name": "StatefulPartitionedCall/tf_bert_for_token_classification/bert/encoder/layer_._0/attention/self/key/BiasAdd/ReadVariableOp", "shape": [512], "dtype": "float32", "quantization": {"dtype": "uint16", "min": -0.05606847889525281, "scale": 1.6664728457498233e-06, "original_dtype": "float32"}}, {"name": "StatefulPartitionedCall/tf_bert_for_token_classification/bert/encoder/layer_._0/attention/self/Reshape/shape/1", "shape": [], "dtype": "int32"}, {"name": "StatefulPartitionedCall/tf_bert_for_token_classification/bert/encoder/layer_._0/attention/self/Reshape/shape/2", "shape": [], "dtype": "int32"}, {"name": "StatefulPartitionedCall/tf_bert_for_token_classification/bert/encoder/layer_._0/attention/self/Reshape/shape/3", "shape": [], "dtype": "int32"}, {"name": "StatefulPartitionedCall/tf_bert_for_token_classification/bert/encoder/layer_._0/attention/self/transpose/perm", "shape": [4], "dtype": "int32"}, {"name": "ConstantFolding/StatefulPartitionedCall/tf_bert_for_token_classification/bert/encoder/layer_._0/attention/self/truediv_recip", "shape": [], "dtype": "float32", "quantization": {"dtype": "uint16", "min": 0.125, "scale": 1.0, "original_dtype": "float32"}}, {"name": "StatefulPartitionedCall/tf_bert_for_token_classification/bert/encoder/layer_._0/attention/self/add_1/y", "shape": [], "dtype": "float32", "quantization": {"dtype": "uint16", "min": 9.999999717180685e-10, "scale": 1.0, "original_dtype": "float32"}}, {"name": "StatefulPartitionedCall/tf_bert_for_token_classification/bert/Const", "shape": [], "dtype": "float32", "quantization": {"dtype": "uint16", "min": 1.0, "scale": 1.0, "original_dtype": "float32"}}, {"name": "StatefulPartitionedCall/tf_bert_for_token_classification/bert/strided_slice_2/stack", "shape": [1], "dtype": "int32"}, {"name": "StatefulPartitionedCall/tf_bert_for_token_classification/bert/strided_slice_2/stack_1", "shape": [1], "dtype": "int32"}, {"name": "StatefulPartitionedCall/tf_bert_for_token_classification/bert/strided_slice_2/stack_2", "shape": [1], "dtype": "int32"}, {"name": "StatefulPartitionedCall/tf_bert_for_token_classification/bert/Reshape/shape/1", "shape": [], "dtype": "int32"}, {"name": "StatefulPartitionedCall/tf_bert_for_token_classification/bert/Reshape/shape/2", "shape": [], "dtype": "int32"}, {"name": "StatefulPartitionedCall/tf_bert_for_token_classification/bert/strided_slice_3/stack", "shape": [1], "dtype": "int32"}, {"name": "StatefulPartitionedCall/tf_bert_for_token_classification/bert/strided_slice_3/stack_1", "shape": [1], "dtype": "int32"}, {"name": "StatefulPartitionedCall/tf_bert_for_token_classification/bert/strided_slice_3/stack_2", "shape": [1], "dtype": "int32"}, {"name": "StatefulPartitionedCall/tf_bert_for_token_classification/bert/Const_1", "shape": [], "dtype": "float32", "quantization": {"dtype": "uint16", "min": -10000.0, "scale": 1.0, "original_dtype": "float32"}}, {"name": "StatefulPartitionedCall/tf_bert_for_token_classification/bert/encoder/layer_._0/attention/self/value/Tensordot/Const", "shape": [1], "dtype": "int32"}, {"name": "StatefulPartitionedCall/tf_bert_for_token_classification/bert/encoder/layer_._0/attention/self/value/Tensordot/axes", "shape": [1], "dtype": "int32"}, {"name": "StatefulPartitionedCall/tf_bert_for_token_classification/bert/encoder/layer_._0/attention/self/value/Tensordot/GatherV2_1/axis", "shape": [], "dtype": "int32"}, {"name": "StatefulPartitionedCall/tf_bert_for_token_classification/bert/encoder/layer_._0/attention/self/value/Tensordot/Const_1", "shape": [1], "dtype": "int32"}, {"name": "StatefulPartitionedCall/tf_bert_for_token_classification/bert/encoder/layer_._0/attention/self/value/Tensordot/ReadVariableOp", "shape": [512, 512], "dtype": "float32", "quantization": {"dtype": "uint16", "min": -0.19380392293058016, "scale": 5.738767668430907e-06, "original_dtype": "float32"}}, {"name": "StatefulPartitionedCall/tf_bert_for_token_classification/bert/encoder/layer_._0/attention/self/value/Tensordot/free", "shape": [2], "dtype": "int32"}, {"name": "StatefulPartitionedCall/tf_bert_for_token_classification/bert/encoder/layer_._0/attention/self/value/Tensordot/GatherV2/axis", "shape": [], "dtype": "int32"}, {"name": "StatefulPartitionedCall/tf_bert_for_token_classification/bert/encoder/layer_._0/attention/self/value/Tensordot/Const_2", "shape": [1], "dtype": "int32"}, {"name": "StatefulPartitionedCall/tf_bert_for_token_classification/bert/encoder/layer_._0/attention/self/value/Tensordot/concat_1/axis", "shape": [], "dtype": "int32"}, {"name": "StatefulPartitionedCall/tf_bert_for_token_classification/bert/encoder/layer_._0/attention/self/value/BiasAdd/ReadVariableOp", "shape": [512], "dtype": "float32", "quantization": {"dtype": "uint16", "min": -0.25127794026027894, "scale": 8.755634003285095e-06, "original_dtype": "float32"}}, {"name": "StatefulPartitionedCall/tf_bert_for_token_classification/bert/encoder/layer_._0/attention/self/Reshape_1/shape/1", "shape": [], "dtype": "int32"}, {"name": "StatefulPartitionedCall/tf_bert_for_token_classification/bert/encoder/layer_._0/attention/self/Reshape_1/shape/2", "shape": [], "dtype": "int32"}, {"name": "StatefulPartitionedCall/tf_bert_for_token_classification/bert/encoder/layer_._0/attention/self/Reshape_1/shape/3", "shape": [], "dtype": "int32"}, {"name": "StatefulPartitionedCall/tf_bert_for_token_classification/bert/encoder/layer_._0/attention/self/transpose_1/perm", "shape": [4], "dtype": "int32"}, {"name": "StatefulPartitionedCall/tf_bert_for_token_classification/bert/encoder/layer_._0/attention/self/transpose_3/perm", "shape": [4], "dtype": "int32"}, {"name": "StatefulPartitionedCall/tf_bert_for_token_classification/bert/encoder/layer_._0/attention/self/strided_slice/stack", "shape": [1], "dtype": "int32"}, {"name": "StatefulPartitionedCall/tf_bert_for_token_classification/bert/encoder/layer_._0/attention/self/strided_slice/stack_1", "shape": [1], "dtype": "int32"}, {"name": "StatefulPartitionedCall/tf_bert_for_token_classification/bert/encoder/layer_._0/attention/self/strided_slice/stack_2", "shape": [1], "dtype": "int32"}, {"name": "StatefulPartitionedCall/tf_bert_for_token_classification/bert/encoder/layer_._0/attention/self/Reshape_3/shape/1", "shape": [], "dtype": "int32"}, {"name": "StatefulPartitionedCall/tf_bert_for_token_classification/bert/encoder/layer_._0/attention/self/Reshape_3/shape/2", "shape": [], "dtype": "int32"}, {"name": "StatefulPartitionedCall/tf_bert_for_token_classification/bert/encoder/layer_._0/attention/output/dense/Tensordot/free", "shape": [2], "dtype": "int32"}, {"name": "StatefulPartitionedCall/tf_bert_for_token_classification/bert/encoder/layer_._0/attention/output/dense/Tensordot/GatherV2/axis", "shape": [], "dtype": "int32"}, {"name": "StatefulPartitionedCall/tf_bert_for_token_classification/bert/encoder/layer_._0/attention/output/dense/Tensordot/Const_2", "shape": [1], "dtype": "int32"}, {"name": "StatefulPartitionedCall/tf_bert_for_token_classification/bert/encoder/layer_._0/attention/output/dense/Tensordot/concat_1/axis", "shape": [], "dtype": "int32"}, {"name": "StatefulPartitionedCall/tf_bert_for_token_classification/bert/encoder/layer_._0/attention/output/dense/BiasAdd/ReadVariableOp", "shape": [512], "dtype": "float32", "quantization": {"dtype": "uint16", "min": -0.15779443087581094, "scale": 6.002070402275046e-06, "original_dtype": "float32"}}, {"name": "StatefulPartitionedCall/tf_bert_for_token_classification/bert/embeddings/LayerNorm/batchnorm/ReadVariableOp", "shape": [512], "dtype": "float32", "quantization": {"dtype": "uint16", "min": -0.4307428359762522, "scale": 1.1872408036610131e-05, "original_dtype": "float32"}}, {"name": "unknown_0", "shape": [512, 512], "dtype": "float32", "quantization": {"dtype": "uint16", "min": -0.3134250824180595, "scale": 1.2115387801239253e-05, "original_dtype": "float32"}}, {"name": "StatefulPartitionedCall/tf_bert_for_token_classification/bert/embeddings/range/start", "shape": [], "dtype": "int32"}, {"name": "unknown", "shape": [30522, 512], "dtype": "float32", "quantization": {"dtype": "uint16", "min": -0.46376077059778315, "scale": 1.588548231135792e-05, "original_dtype": "float32"}}, {"name": "StatefulPartitionedCall/tf_bert_for_token_classification/bert/embeddings/Gather/axis", "shape": [], "dtype": "int32"}, {"name": "StatefulPartitionedCall/tf_bert_for_token_classification/bert/embeddings/strided_slice_1/stack", "shape": [1], "dtype": "int32"}, {"name": "StatefulPartitionedCall/tf_bert_for_token_classification/bert/embeddings/strided_slice_1/stack_1", "shape": [1], "dtype": "int32"}, {"name": "StatefulPartitionedCall/tf_bert_for_token_classification/bert/embeddings/strided_slice_1/stack_2", "shape": [1], "dtype": "int32"}, {"name": "StatefulPartitionedCall/tf_bert_for_token_classification/bert/embeddings/range/delta", "shape": [], "dtype": "int32"}, {"name": "StatefulPartitionedCall/tf_bert_for_token_classification/bert/embeddings/ExpandDims/dim", "shape": [], "dtype": "int32"}, {"name": "StatefulPartitionedCall/tf_bert_for_token_classification/bert/embeddings/Gather_1/axis", "shape": [], "dtype": "int32"}, {"name": "unknown_1", "shape": [2, 512], "dtype": "float32", "quantization": {"dtype": "uint16", "min": -0.31627810679821217, "scale": 6.333035117402778e-06, "original_dtype": "float32"}}, {"name": "StatefulPartitionedCall/tf_bert_for_token_classification/bert/embeddings/Gather_2/axis", "shape": [], "dtype": "int32"}, {"name": "StatefulPartitionedCall/tf_bert_for_token_classification/bert/embeddings/LayerNorm/moments/mean/reduction_indices", "shape": [1], "dtype": "int32"}, {"name": "StatefulPartitionedCall/tf_bert_for_token_classification/bert/embeddings/LayerNorm/moments/variance/reduction_indices", "shape": [1], "dtype": "int32"}, {"name": "StatefulPartitionedCall/tf_bert_for_token_classification/bert/embeddings/LayerNorm/batchnorm/add/y", "shape": [], "dtype": "float32", "quantization": {"dtype": "uint16", "min": 9.999999960041972e-13, "scale": 1.0, "original_dtype": "float32"}}, {"name": "StatefulPartitionedCall/tf_bert_for_token_classification/bert/embeddings/LayerNorm/batchnorm/mul/ReadVariableOp", "shape": [512], "dtype": "float32", "quantization": {"dtype": "uint16", "min": 0.3245352506637573, "scale": 1.1231890712093959e-05, "original_dtype": "float32"}}, {"name": "StatefulPartitionedCall/tf_bert_for_token_classification/bert/encoder/layer_._0/attention/output/LayerNorm/moments/mean/reduction_indices", "shape": [1], "dtype": "int32"}, {"name": "StatefulPartitionedCall/tf_bert_for_token_classification/bert/encoder/layer_._0/attention/output/LayerNorm/moments/variance/reduction_indices", "shape": [1], "dtype": "int32"}, {"name": "StatefulPartitionedCall/tf_bert_for_token_classification/bert/encoder/layer_._0/attention/output/LayerNorm/batchnorm/add/y", "shape": [], "dtype": "float32", "quantization": {"dtype": "uint16", "min": 9.999999960041972e-13, "scale": 1.0, "original_dtype": "float32"}}, {"name": "StatefulPartitionedCall/tf_bert_for_token_classification/bert/encoder/layer_._0/attention/output/LayerNorm/batchnorm/mul/ReadVariableOp", "shape": [512], "dtype": "float32", "quantization": {"dtype": "uint16", "min": 0.6057500243186951, "scale": 2.3862719308450493e-05, "original_dtype": "float32"}}, {"name": "StatefulPartitionedCall/tf_bert_for_token_classification/bert/encoder/layer_._0/output/LayerNorm/moments/mean/reduction_indices", "shape": [1], "dtype": "int32"}, {"name": "StatefulPartitionedCall/tf_bert_for_token_classification/bert/encoder/layer_._0/output/LayerNorm/moments/variance/reduction_indices", "shape": [1], "dtype": "int32"}, {"name": "StatefulPartitionedCall/tf_bert_for_token_classification/bert/encoder/layer_._0/output/LayerNorm/batchnorm/add/y", "shape": [], "dtype": "float32", "quantization": {"dtype": "uint16", "min": 9.999999960041972e-13, "scale": 1.0, "original_dtype": "float32"}}, {"name": "StatefulPartitionedCall/tf_bert_for_token_classification/bert/encoder/layer_._0/output/LayerNorm/batchnorm/mul/ReadVariableOp", "shape": [512], "dtype": "float32", "quantization": {"dtype": "uint16", "min": 0.5359607338905334, "scale": 8.265669452995824e-06, "original_dtype": "float32"}}, {"name": "StatefulPartitionedCall/tf_bert_for_token_classification/bert/encoder/layer_._1/attention/output/LayerNorm/moments/mean/reduction_indices", "shape": [1], "dtype": "int32"}, {"name": "StatefulPartitionedCall/tf_bert_for_token_classification/bert/encoder/layer_._1/attention/output/LayerNorm/moments/variance/reduction_indices", "shape": [1], "dtype": "int32"}, {"name": "StatefulPartitionedCall/tf_bert_for_token_classification/bert/encoder/layer_._1/attention/output/LayerNorm/batchnorm/add/y", "shape": [], "dtype": "float32", "quantization": {"dtype": "uint16", "min": 9.999999960041972e-13, "scale": 1.0, "original_dtype": "float32"}}, {"name": "StatefulPartitionedCall/tf_bert_for_token_classification/bert/encoder/layer_._1/attention/output/LayerNorm/batchnorm/mul/ReadVariableOp", "shape": [512], "dtype": "float32", "quantization": {"dtype": "uint16", "min": 0.7643703818321228, "scale": 1.706618361190408e-05, "original_dtype": "float32"}}, {"name": "StatefulPartitionedCall/tf_bert_for_token_classification/bert/encoder/layer_._1/output/LayerNorm/moments/mean/reduction_indices", "shape": [1], "dtype": "int32"}, {"name": "StatefulPartitionedCall/tf_bert_for_token_classification/bert/encoder/layer_._1/output/LayerNorm/moments/variance/reduction_indices", "shape": [1], "dtype": "int32"}, {"name": "StatefulPartitionedCall/tf_bert_for_token_classification/bert/encoder/layer_._1/output/LayerNorm/batchnorm/add/y", "shape": [], "dtype": "float32", "quantization": {"dtype": "uint16", "min": 9.999999960041972e-13, "scale": 1.0, "original_dtype": "float32"}}, {"name": "StatefulPartitionedCall/tf_bert_for_token_classification/bert/encoder/layer_._1/output/LayerNorm/batchnorm/mul/ReadVariableOp", "shape": [512], "dtype": "float32", "quantization": {"dtype": "uint16", "min": 0.7124555706977844, "scale": 5.748680857196137e-06, "original_dtype": "float32"}}, {"name": "StatefulPartitionedCall/tf_bert_for_token_classification/bert/encoder/layer_._2/attention/output/LayerNorm/moments/mean/reduction_indices", "shape": [1], "dtype": "int32"}, {"name": "StatefulPartitionedCall/tf_bert_for_token_classification/bert/encoder/layer_._2/attention/output/LayerNorm/moments/variance/reduction_indices", "shape": [1], "dtype": "int32"}, {"name": "StatefulPartitionedCall/tf_bert_for_token_classification/bert/encoder/layer_._2/attention/output/LayerNorm/batchnorm/add/y", "shape": [], "dtype": "float32", "quantization": {"dtype": "uint16", "min": 9.999999960041972e-13, "scale": 1.0, "original_dtype": "float32"}}, {"name": "StatefulPartitionedCall/tf_bert_for_token_classification/bert/encoder/layer_._2/attention/output/LayerNorm/batchnorm/mul/ReadVariableOp", "shape": [512], "dtype": "float32", "quantization": {"dtype": "uint16", "min": 0.8207760453224182, "scale": 1.3606316566540046e-05, "original_dtype": "float32"}}, {"name": "StatefulPartitionedCall/tf_bert_for_token_classification/bert/encoder/layer_._2/output/LayerNorm/moments/mean/reduction_indices", "shape": [1], "dtype": "int32"}, {"name": "StatefulPartitionedCall/tf_bert_for_token_classification/bert/encoder/layer_._2/output/LayerNorm/moments/variance/reduction_indices", "shape": [1], "dtype": "int32"}, {"name": "StatefulPartitionedCall/tf_bert_for_token_classification/bert/encoder/layer_._2/output/LayerNorm/batchnorm/add/y", "shape": [], "dtype": "float32", "quantization": {"dtype": "uint16", "min": 9.999999960041972e-13, "scale": 1.0, "original_dtype": "float32"}}, {"name": "StatefulPartitionedCall/tf_bert_for_token_classification/bert/encoder/layer_._2/output/LayerNorm/batchnorm/mul/ReadVariableOp", "shape": [512], "dtype": "float32", "quantization": {"dtype": "uint16", "min": 0.72845858335495, "scale": 5.5799633776140205e-06, "original_dtype": "float32"}}, {"name": "StatefulPartitionedCall/tf_bert_for_token_classification/bert/encoder/layer_._3/attention/output/LayerNorm/moments/mean/reduction_indices", "shape": [1], "dtype": "int32"}, {"name": "StatefulPartitionedCall/tf_bert_for_token_classification/bert/encoder/layer_._3/attention/output/LayerNorm/moments/variance/reduction_indices", "shape": [1], "dtype": "int32"}, {"name": "StatefulPartitionedCall/tf_bert_for_token_classification/bert/encoder/layer_._3/attention/output/LayerNorm/batchnorm/add/y", "shape": [], "dtype": "float32", "quantization": {"dtype": "uint16", "min": 9.999999960041972e-13, "scale": 1.0, "original_dtype": "float32"}}, {"name": "StatefulPartitionedCall/tf_bert_for_token_classification/bert/encoder/layer_._3/attention/output/LayerNorm/batchnorm/mul/ReadVariableOp", "shape": [512], "dtype": "float32", "quantization": {"dtype": "uint16", "min": 0.7946175932884216, "scale": 1.7438450930656443e-05, "original_dtype": "float32"}}, {"name": "StatefulPartitionedCall/tf_bert_for_token_classification/bert/encoder/layer_._3/output/LayerNorm/moments/mean/reduction_indices", "shape": [1], "dtype": "int32"}, {"name": "StatefulPartitionedCall/tf_bert_for_token_classification/bert/encoder/layer_._3/output/LayerNorm/moments/variance/reduction_indices", "shape": [1], "dtype": "int32"}, {"name": "StatefulPartitionedCall/tf_bert_for_token_classification/bert/encoder/layer_._3/output/LayerNorm/batchnorm/add/y", "shape": [], "dtype": "float32", "quantization": {"dtype": "uint16", "min": 9.999999960041972e-13, "scale": 1.0, "original_dtype": "float32"}}, {"name": "StatefulPartitionedCall/tf_bert_for_token_classification/bert/encoder/layer_._3/output/LayerNorm/batchnorm/mul/ReadVariableOp", "shape": [512], "dtype": "float32", "quantization": {"dtype": "uint16", "min": 0.6032645106315613, "scale": 8.540524764820232e-06, "original_dtype": "float32"}}, {"name": "StatefulPartitionedCall/tf_bert_for_token_classification/bert/encoder/layer_._4/attention/output/LayerNorm/moments/mean/reduction_indices", "shape": [1], "dtype": "int32"}, {"name": "StatefulPartitionedCall/tf_bert_for_token_classification/bert/encoder/layer_._4/attention/output/LayerNorm/moments/variance/reduction_indices", "shape": [1], "dtype": "int32"}, {"name": "StatefulPartitionedCall/tf_bert_for_token_classification/bert/encoder/layer_._4/attention/output/LayerNorm/batchnorm/add/y", "shape": [], "dtype": "float32", "quantization": {"dtype": "uint16", "min": 9.999999960041972e-13, "scale": 1.0, "original_dtype": "float32"}}, {"name": "StatefulPartitionedCall/tf_bert_for_token_classification/bert/encoder/layer_._4/attention/output/LayerNorm/batchnorm/mul/ReadVariableOp", "shape": [512], "dtype": "float32", "quantization": {"dtype": "uint16", "min": 0.7735331654548645, "scale": 1.0195430196231077e-05, "original_dtype": "float32"}}, {"name": "StatefulPartitionedCall/tf_bert_for_token_classification/bert/encoder/layer_._4/output/LayerNorm/moments/mean/reduction_indices", "shape": [1], "dtype": "int32"}, {"name": "StatefulPartitionedCall/tf_bert_for_token_classification/bert/encoder/layer_._4/output/LayerNorm/moments/variance/reduction_indices", "shape": [1], "dtype": "int32"}, {"name": "StatefulPartitionedCall/tf_bert_for_token_classification/bert/encoder/layer_._4/output/LayerNorm/batchnorm/add/y", "shape": [], "dtype": "float32", "quantization": {"dtype": "uint16", "min": 9.999999960041972e-13, "scale": 1.0, "original_dtype": "float32"}}, {"name": "StatefulPartitionedCall/tf_bert_for_token_classification/bert/encoder/layer_._4/output/LayerNorm/batchnorm/mul/ReadVariableOp", "shape": [512], "dtype": "float32", "quantization": {"dtype": "uint16", "min": 0.71917724609375, "scale": 6.403673465513679e-06, "original_dtype": "float32"}}, {"name": "StatefulPartitionedCall/tf_bert_for_token_classification/bert/encoder/layer_._5/attention/output/LayerNorm/moments/mean/reduction_indices", "shape": [1], "dtype": "int32"}, {"name": "StatefulPartitionedCall/tf_bert_for_token_classification/bert/encoder/layer_._5/attention/output/LayerNorm/moments/variance/reduction_indices", "shape": [1], "dtype": "int32"}, {"name": "StatefulPartitionedCall/tf_bert_for_token_classification/bert/encoder/layer_._5/attention/output/LayerNorm/batchnorm/add/y", "shape": [], "dtype": "float32", "quantization": {"dtype": "uint16", "min": 9.999999960041972e-13, "scale": 1.0, "original_dtype": "float32"}}, {"name": "StatefulPartitionedCall/tf_bert_for_token_classification/bert/encoder/layer_._5/attention/output/LayerNorm/batchnorm/mul/ReadVariableOp", "shape": [512], "dtype": "float32", "quantization": {"dtype": "uint16", "min": 0.8013947010040283, "scale": 1.8903269978403418e-05, "original_dtype": "float32"}}, {"name": "StatefulPartitionedCall/tf_bert_for_token_classification/bert/encoder/layer_._5/output/LayerNorm/moments/mean/reduction_indices", "shape": [1], "dtype": "int32"}, {"name": "StatefulPartitionedCall/tf_bert_for_token_classification/bert/encoder/layer_._5/output/LayerNorm/moments/variance/reduction_indices", "shape": [1], "dtype": "int32"}, {"name": "StatefulPartitionedCall/tf_bert_for_token_classification/bert/encoder/layer_._5/output/LayerNorm/batchnorm/add/y", "shape": [], "dtype": "float32", "quantization": {"dtype": "uint16", "min": 9.999999960041972e-13, "scale": 1.0, "original_dtype": "float32"}}, {"name": "StatefulPartitionedCall/tf_bert_for_token_classification/bert/encoder/layer_._5/output/LayerNorm/batchnorm/mul/ReadVariableOp", "shape": [512], "dtype": "float32", "quantization": {"dtype": "uint16", "min": 0.9223249554634094, "scale": 3.6058586340633785e-06, "original_dtype": "float32"}}, {"name": "StatefulPartitionedCall/tf_bert_for_token_classification/bert/encoder/layer_._6/attention/output/LayerNorm/moments/mean/reduction_indices", "shape": [1], "dtype": "int32"}, {"name": "StatefulPartitionedCall/tf_bert_for_token_classification/bert/encoder/layer_._6/attention/output/LayerNorm/moments/variance/reduction_indices", "shape": [1], "dtype": "int32"}, {"name": "StatefulPartitionedCall/tf_bert_for_token_classification/bert/encoder/layer_._6/attention/output/LayerNorm/batchnorm/add/y", "shape": [], "dtype": "float32", "quantization": {"dtype": "uint16", "min": 9.999999960041972e-13, "scale": 1.0, "original_dtype": "float32"}}, {"name": "StatefulPartitionedCall/tf_bert_for_token_classification/bert/encoder/layer_._6/attention/output/LayerNorm/batchnorm/mul/ReadVariableOp", "shape": [512], "dtype": "float32", "quantization": {"dtype": "uint16", "min": 0.7596343755722046, "scale": 4.310598633168736e-05, "original_dtype": "float32"}}, {"name": "StatefulPartitionedCall/tf_bert_for_token_classification/bert/encoder/layer_._6/output/LayerNorm/moments/mean/reduction_indices", "shape": [1], "dtype": "int32"}, {"name": "StatefulPartitionedCall/tf_bert_for_token_classification/bert/encoder/layer_._6/output/LayerNorm/moments/variance/reduction_indices", "shape": [1], "dtype": "int32"}, {"name": "StatefulPartitionedCall/tf_bert_for_token_classification/bert/encoder/layer_._6/output/LayerNorm/batchnorm/add/y", "shape": [], "dtype": "float32", "quantization": {"dtype": "uint16", "min": 9.999999960041972e-13, "scale": 1.0, "original_dtype": "float32"}}, {"name": "StatefulPartitionedCall/tf_bert_for_token_classification/bert/encoder/layer_._6/output/LayerNorm/batchnorm/mul/ReadVariableOp", "shape": [512], "dtype": "float32", "quantization": {"dtype": "uint16", "min": 0.6744402647018433, "scale": 1.305440038458528e-05, "original_dtype": "float32"}}, {"name": "StatefulPartitionedCall/tf_bert_for_token_classification/bert/encoder/layer_._7/attention/output/LayerNorm/moments/mean/reduction_indices", "shape": [1], "dtype": "int32"}, {"name": "StatefulPartitionedCall/tf_bert_for_token_classification/bert/encoder/layer_._7/attention/output/LayerNorm/moments/variance/reduction_indices", "shape": [1], "dtype": "int32"}, {"name": "StatefulPartitionedCall/tf_bert_for_token_classification/bert/encoder/layer_._7/attention/output/LayerNorm/batchnorm/add/y", "shape": [], "dtype": "float32", "quantization": {"dtype": "uint16", "min": 9.999999960041972e-13, "scale": 1.0, "original_dtype": "float32"}}, {"name": "StatefulPartitionedCall/tf_bert_for_token_classification/bert/encoder/layer_._7/attention/output/LayerNorm/batchnorm/mul/ReadVariableOp", "shape": [512], "dtype": "float32", "quantization": {"dtype": "uint16", "min": 0.33935895562171936, "scale": 9.292761575732758e-06, "original_dtype": "float32"}}, {"name": "StatefulPartitionedCall/tf_bert_for_token_classification/bert/encoder/layer_._7/output/LayerNorm/moments/mean/reduction_indices", "shape": [1], "dtype": "int32"}, {"name": "StatefulPartitionedCall/tf_bert_for_token_classification/bert/encoder/layer_._7/output/LayerNorm/moments/variance/reduction_indices", "shape": [1], "dtype": "int32"}, {"name": "StatefulPartitionedCall/tf_bert_for_token_classification/bert/encoder/layer_._7/output/LayerNorm/batchnorm/add/y", "shape": [], "dtype": "float32", "quantization": {"dtype": "uint16", "min": 9.999999960041972e-13, "scale": 1.0, "original_dtype": "float32"}}, {"name": "StatefulPartitionedCall/tf_bert_for_token_classification/bert/encoder/layer_._7/output/LayerNorm/batchnorm/mul/ReadVariableOp", "shape": [512], "dtype": "float32", "quantization": {"dtype": "uint16", "min": 0.5331471562385559, "scale": 7.063471007658159e-06, "original_dtype": "float32"}}, {"name": "StatefulPartitionedCall/tf_bert_for_token_classification/classifier/Tensordot/free", "shape": [2], "dtype": "int32"}, {"name": "StatefulPartitionedCall/tf_bert_for_token_classification/classifier/Tensordot/GatherV2/axis", "shape": [], "dtype": "int32"}, {"name": "StatefulPartitionedCall/tf_bert_for_token_classification/classifier/Tensordot/Const_2", "shape": [1], "dtype": "int32"}, {"name": "StatefulPartitionedCall/tf_bert_for_token_classification/classifier/Tensordot/concat_1/axis", "shape": [], "dtype": "int32"}, {"name": "StatefulPartitionedCall/tf_bert_for_token_classification/classifier/BiasAdd/ReadVariableOp", "shape": [7], "dtype": "float32", "quantization": {"dtype": "uint16", "min": -0.0027071438695620933, "scale": 8.062494771903664e-08, "original_dtype": "float32"}}]}]}