{"format": "graph-model", "generatedBy": "2.8.1", "convertedBy": "TensorFlow.js Converter v3.15.0", "signature": {"inputs": {"attention_mask:0": {"name": "attention_mask:0", "dtype": "DT_INT32", "tensorShape": {"dim": [{"size": "-1"}, {"size": "-1"}]}}, "token_type_ids:0": {"name": "token_type_ids:0", "dtype": "DT_INT32", "tensorShape": {"dim": [{"size": "-1"}, {"size": "-1"}]}}, "input_ids:0": {"name": "input_ids:0", "dtype": "DT_INT32", "tensorShape": {"dim": [{"size": "-1"}, {"size": "-1"}]}}}, "outputs": {"logits": {"name": "Identity:0", "dtype": "DT_FLOAT", "tensorShape": {"dim": [{"size": "-1"}, {"size": "-1"}, {"size": "7"}]}}}}, "modelTopology": {"node": [{"name": "StatefulPartitionedCall/tf_bert_for_token_classification/classifier/Tensordot/Const", "op": "Const", "attr": {"dtype": {"type": "DT_INT32"}, "value": {"tensor": {"dtype": "DT_INT32", "tensorShape": {"dim": [{"size": "1"}]}}}}}, {"name": "StatefulPartitionedCall/tf_bert_for_token_classification/classifier/Tensordot/axes", "op": "Const", "attr": {"value": {"tensor": {"dtype": "DT_INT32", "tensorShape": {"dim": [{"size": "1"}]}}}, "dtype": {"type": "DT_INT32"}}}, {"name": "StatefulPartitionedCall/tf_bert_for_token_classification/classifier/Tensordot/GatherV2_1/axis", "op": "Const", "attr": {"dtype": {"type": "DT_INT32"}, "value": {"tensor": {"dtype": "DT_INT32", "tensorShape": {}}}}}, {"name": "StatefulPartitionedCall/tf_bert_for_token_classification/classifier/Tensordot/Const_1", "op": "Const", "attr": {"value": {"tensor": {"dtype": "DT_INT32", "tensorShape": {"dim": [{"size": "1"}]}}}, "dtype": {"type": "DT_INT32"}}}, {"name": "StatefulPartitionedCall/tf_bert_for_token_classification/classifier/Tensordot/ReadVariableOp", "op": "Const", "attr": {"value": {"tensor": {"dtype": "DT_FLOAT", "tensorShape": {"dim": [{"size": "128"}, {"size": "7"}]}}}, "dtype": {"type": "DT_FLOAT"}}}, {"name": "StatefulPartitionedCall/tf_bert_for_token_classification/bert/encoder/layer_._1/output/LayerNorm/batchnorm/ReadVariableOp", "op": "Const", "attr": {"dtype": {"type": "DT_FLOAT"}, "value": {"tensor": {"dtype": "DT_FLOAT", "tensorShape": {"dim": [{"size": "128"}]}}}}}, {"name": "StatefulPartitionedCall/tf_bert_for_token_classification/bert/encoder/layer_._1/output/dense/Tensordot/Const", "op": "Const", "attr": {"dtype": {"type": "DT_INT32"}, "value": {"tensor": {"dtype": "DT_INT32", "tensorShape": {"dim": [{"size": "1"}]}}}}}, {"name": "StatefulPartitionedCall/tf_bert_for_token_classification/bert/encoder/layer_._1/output/dense/Tensordot/axes", "op": "Const", "attr": {"value": {"tensor": {"dtype": "DT_INT32", "tensorShape": {"dim": [{"size": "1"}]}}}, "dtype": {"type": "DT_INT32"}}}, {"name": "StatefulPartitionedCall/tf_bert_for_token_classification/bert/encoder/layer_._1/output/dense/Tensordot/GatherV2_1/axis", "op": "Const", "attr": {"dtype": {"type": "DT_INT32"}, "value": {"tensor": {"dtype": "DT_INT32", "tensorShape": {}}}}}, {"name": "StatefulPartitionedCall/tf_bert_for_token_classification/bert/encoder/layer_._1/output/dense/Tensordot/Const_1", "op": "Const", "attr": {"dtype": {"type": "DT_INT32"}, "value": {"tensor": {"dtype": "DT_INT32", "tensorShape": {"dim": [{"size": "1"}]}}}}}, {"name": "StatefulPartitionedCall/tf_bert_for_token_classification/bert/encoder/layer_._1/output/dense/Tensordot/ReadVariableOp", "op": "Const", "attr": {"value": {"tensor": {"dtype": "DT_FLOAT", "tensorShape": {"dim": [{"size": "512"}, {"size": "128"}]}}}, "dtype": {"type": "DT_FLOAT"}}}, {"name": "StatefulPartitionedCall/tf_bert_for_token_classification/bert/encoder/layer_._1/intermediate/Gelu/mul/x", "op": "Const", "attr": {"value": {"tensor": {"dtype": "DT_FLOAT", "tensorShape": {}}}, "dtype": {"type": "DT_FLOAT"}}}, {"name": "StatefulPartitionedCall/tf_bert_for_token_classification/bert/encoder/layer_._1/intermediate/Gelu/add/x", "op": "Const", "attr": {"dtype": {"type": "DT_FLOAT"}, "value": {"tensor": {"dtype": "DT_FLOAT", "tensorShape": {}}}}}, {"name": "StatefulPartitionedCall/tf_bert_for_token_classification/bert/encoder/layer_._1/intermediate/dense/Tensordot/Const", "op": "Const", "attr": {"dtype": {"type": "DT_INT32"}, "value": {"tensor": {"dtype": "DT_INT32", "tensorShape": {"dim": [{"size": "1"}]}}}}}, {"name": "StatefulPartitionedCall/tf_bert_for_token_classification/bert/encoder/layer_._1/intermediate/dense/Tensordot/axes", "op": "Const", "attr": {"value": {"tensor": {"dtype": "DT_INT32", "tensorShape": {"dim": [{"size": "1"}]}}}, "dtype": {"type": "DT_INT32"}}}, {"name": "StatefulPartitionedCall/tf_bert_for_token_classification/bert/encoder/layer_._1/intermediate/dense/Tensordot/GatherV2_1/axis", "op": "Const", "attr": {"dtype": {"type": "DT_INT32"}, "value": {"tensor": {"dtype": "DT_INT32", "tensorShape": {}}}}}, {"name": "StatefulPartitionedCall/tf_bert_for_token_classification/bert/encoder/layer_._1/intermediate/dense/Tensordot/Const_1", "op": "Const", "attr": {"value": {"tensor": {"dtype": "DT_INT32", "tensorShape": {"dim": [{"size": "1"}]}}}, "dtype": {"type": "DT_INT32"}}}, {"name": "StatefulPartitionedCall/tf_bert_for_token_classification/bert/encoder/layer_._1/intermediate/dense/Tensordot/ReadVariableOp", "op": "Const", "attr": {"dtype": {"type": "DT_FLOAT"}, "value": {"tensor": {"dtype": "DT_FLOAT", "tensorShape": {"dim": [{"size": "128"}, {"size": "512"}]}}}}}, {"name": "StatefulPartitionedCall/tf_bert_for_token_classification/bert/encoder/layer_._1/intermediate/dense/Tensordot/free", "op": "Const", "attr": {"value": {"tensor": {"dtype": "DT_INT32", "tensorShape": {"dim": [{"size": "2"}]}}}, "dtype": {"type": "DT_INT32"}}}, {"name": "StatefulPartitionedCall/tf_bert_for_token_classification/bert/encoder/layer_._1/intermediate/dense/Tensordot/GatherV2/axis", "op": "Const", "attr": {"value": {"tensor": {"dtype": "DT_INT32", "tensorShape": {}}}, "dtype": {"type": "DT_INT32"}}}, {"name": "StatefulPartitionedCall/tf_bert_for_token_classification/bert/encoder/layer_._1/intermediate/dense/Tensordot/Const_2", "op": "Const", "attr": {"dtype": {"type": "DT_INT32"}, "value": {"tensor": {"dtype": "DT_INT32", "tensorShape": {"dim": [{"size": "1"}]}}}}}, {"name": "StatefulPartitionedCall/tf_bert_for_token_classification/bert/encoder/layer_._1/intermediate/dense/Tensordot/concat_1/axis", "op": "Const", "attr": {"value": {"tensor": {"dtype": "DT_INT32", "tensorShape": {}}}, "dtype": {"type": "DT_INT32"}}}, {"name": "StatefulPartitionedCall/tf_bert_for_token_classification/bert/encoder/layer_._1/intermediate/dense/BiasAdd/ReadVariableOp", "op": "Const", "attr": {"value": {"tensor": {"dtype": "DT_FLOAT", "tensorShape": {"dim": [{"size": "512"}]}}}, "dtype": {"type": "DT_FLOAT"}}}, {"name": "ConstantFolding/StatefulPartitionedCall/tf_bert_for_token_classification/bert/encoder/layer_._1/intermediate/Gelu/truediv_recip", "op": "Const", "attr": {"dtype": {"type": "DT_FLOAT"}, "value": {"tensor": {"dtype": "DT_FLOAT", "tensorShape": {}}}}}, {"name": "StatefulPartitionedCall/tf_bert_for_token_classification/bert/encoder/layer_._1/output/dense/Tensordot/free", "op": "Const", "attr": {"dtype": {"type": "DT_INT32"}, "value": {"tensor": {"dtype": "DT_INT32", "tensorShape": {"dim": [{"size": "2"}]}}}}}, {"name": "StatefulPartitionedCall/tf_bert_for_token_classification/bert/encoder/layer_._1/output/dense/Tensordot/GatherV2/axis", "op": "Const", "attr": {"dtype": {"type": "DT_INT32"}, "value": {"tensor": {"dtype": "DT_INT32", "tensorShape": {}}}}}, {"name": "StatefulPartitionedCall/tf_bert_for_token_classification/bert/encoder/layer_._1/output/dense/Tensordot/Const_2", "op": "Const", "attr": {"value": {"tensor": {"dtype": "DT_INT32", "tensorShape": {"dim": [{"size": "1"}]}}}, "dtype": {"type": "DT_INT32"}}}, {"name": "StatefulPartitionedCall/tf_bert_for_token_classification/bert/encoder/layer_._1/output/dense/Tensordot/concat_1/axis", "op": "Const", "attr": {"value": {"tensor": {"dtype": "DT_INT32", "tensorShape": {}}}, "dtype": {"type": "DT_INT32"}}}, {"name": "StatefulPartitionedCall/tf_bert_for_token_classification/bert/encoder/layer_._1/output/dense/BiasAdd/ReadVariableOp", "op": "Const", "attr": {"dtype": {"type": "DT_FLOAT"}, "value": {"tensor": {"dtype": "DT_FLOAT", "tensorShape": {"dim": [{"size": "128"}]}}}}}, {"name": "StatefulPartitionedCall/tf_bert_for_token_classification/bert/encoder/layer_._1/attention/output/LayerNorm/batchnorm/ReadVariableOp", "op": "Const", "attr": {"dtype": {"type": "DT_FLOAT"}, "value": {"tensor": {"dtype": "DT_FLOAT", "tensorShape": {"dim": [{"size": "128"}]}}}}}, {"name": "StatefulPartitionedCall/tf_bert_for_token_classification/bert/encoder/layer_._1/attention/output/dense/Tensordot/Const", "op": "Const", "attr": {"value": {"tensor": {"dtype": "DT_INT32", "tensorShape": {"dim": [{"size": "1"}]}}}, "dtype": {"type": "DT_INT32"}}}, {"name": "StatefulPartitionedCall/tf_bert_for_token_classification/bert/encoder/layer_._1/attention/output/dense/Tensordot/axes", "op": "Const", "attr": {"value": {"tensor": {"dtype": "DT_INT32", "tensorShape": {"dim": [{"size": "1"}]}}}, "dtype": {"type": "DT_INT32"}}}, {"name": "StatefulPartitionedCall/tf_bert_for_token_classification/bert/encoder/layer_._1/attention/output/dense/Tensordot/GatherV2_1/axis", "op": "Const", "attr": {"value": {"tensor": {"dtype": "DT_INT32", "tensorShape": {}}}, "dtype": {"type": "DT_INT32"}}}, {"name": "StatefulPartitionedCall/tf_bert_for_token_classification/bert/encoder/layer_._1/attention/output/dense/Tensordot/Const_1", "op": "Const", "attr": {"value": {"tensor": {"dtype": "DT_INT32", "tensorShape": {"dim": [{"size": "1"}]}}}, "dtype": {"type": "DT_INT32"}}}, {"name": "StatefulPartitionedCall/tf_bert_for_token_classification/bert/encoder/layer_._1/attention/output/dense/Tensordot/ReadVariableOp", "op": "Const", "attr": {"value": {"tensor": {"dtype": "DT_FLOAT", "tensorShape": {"dim": [{"size": "128"}, {"size": "128"}]}}}, "dtype": {"type": "DT_FLOAT"}}}, {"name": "StatefulPartitionedCall/tf_bert_for_token_classification/bert/encoder/layer_._1/attention/self/query/Tensordot/Const", "op": "Const", "attr": {"dtype": {"type": "DT_INT32"}, "value": {"tensor": {"dtype": "DT_INT32", "tensorShape": {"dim": [{"size": "1"}]}}}}}, {"name": "StatefulPartitionedCall/tf_bert_for_token_classification/bert/encoder/layer_._1/attention/self/query/Tensordot/axes", "op": "Const", "attr": {"value": {"tensor": {"dtype": "DT_INT32", "tensorShape": {"dim": [{"size": "1"}]}}}, "dtype": {"type": "DT_INT32"}}}, {"name": "StatefulPartitionedCall/tf_bert_for_token_classification/bert/encoder/layer_._1/attention/self/query/Tensordot/GatherV2_1/axis", "op": "Const", "attr": {"value": {"tensor": {"dtype": "DT_INT32", "tensorShape": {}}}, "dtype": {"type": "DT_INT32"}}}, {"name": "StatefulPartitionedCall/tf_bert_for_token_classification/bert/encoder/layer_._1/attention/self/query/Tensordot/Const_1", "op": "Const", "attr": {"dtype": {"type": "DT_INT32"}, "value": {"tensor": {"dtype": "DT_INT32", "tensorShape": {"dim": [{"size": "1"}]}}}}}, {"name": "StatefulPartitionedCall/tf_bert_for_token_classification/bert/encoder/layer_._1/attention/self/query/Tensordot/ReadVariableOp", "op": "Const", "attr": {"dtype": {"type": "DT_FLOAT"}, "value": {"tensor": {"dtype": "DT_FLOAT", "tensorShape": {"dim": [{"size": "128"}, {"size": "128"}]}}}}}, {"name": "StatefulPartitionedCall/tf_bert_for_token_classification/bert/encoder/layer_._1/attention/self/query/Tensordot/free", "op": "Const", "attr": {"dtype": {"type": "DT_INT32"}, "value": {"tensor": {"dtype": "DT_INT32", "tensorShape": {"dim": [{"size": "2"}]}}}}}, {"name": "StatefulPartitionedCall/tf_bert_for_token_classification/bert/encoder/layer_._1/attention/self/query/Tensordot/GatherV2/axis", "op": "Const", "attr": {"value": {"tensor": {"dtype": "DT_INT32", "tensorShape": {}}}, "dtype": {"type": "DT_INT32"}}}, {"name": "StatefulPartitionedCall/tf_bert_for_token_classification/bert/encoder/layer_._1/attention/self/query/Tensordot/Const_2", "op": "Const", "attr": {"value": {"tensor": {"dtype": "DT_INT32", "tensorShape": {"dim": [{"size": "1"}]}}}, "dtype": {"type": "DT_INT32"}}}, {"name": "StatefulPartitionedCall/tf_bert_for_token_classification/bert/encoder/layer_._1/attention/self/query/Tensordot/concat_1/axis", "op": "Const", "attr": {"dtype": {"type": "DT_INT32"}, "value": {"tensor": {"dtype": "DT_INT32", "tensorShape": {}}}}}, {"name": "StatefulPartitionedCall/tf_bert_for_token_classification/bert/encoder/layer_._1/attention/self/query/BiasAdd/ReadVariableOp", "op": "Const", "attr": {"dtype": {"type": "DT_FLOAT"}, "value": {"tensor": {"dtype": "DT_FLOAT", "tensorShape": {"dim": [{"size": "128"}]}}}}}, {"name": "StatefulPartitionedCall/tf_bert_for_token_classification/bert/encoder/layer_._1/attention/self/Reshape_2/shape/1", "op": "Const", "attr": {"dtype": {"type": "DT_INT32"}, "value": {"tensor": {"dtype": "DT_INT32", "tensorShape": {}}}}}, {"name": "StatefulPartitionedCall/tf_bert_for_token_classification/bert/encoder/layer_._1/attention/self/Reshape_2/shape/2", "op": "Const", "attr": {"value": {"tensor": {"dtype": "DT_INT32", "tensorShape": {}}}, "dtype": {"type": "DT_INT32"}}}, {"name": "StatefulPartitionedCall/tf_bert_for_token_classification/bert/encoder/layer_._1/attention/self/Reshape_2/shape/3", "op": "Const", "attr": {"dtype": {"type": "DT_INT32"}, "value": {"tensor": {"dtype": "DT_INT32", "tensorShape": {}}}}}, {"name": "StatefulPartitionedCall/tf_bert_for_token_classification/bert/encoder/layer_._1/attention/self/transpose_2/perm", "op": "Const", "attr": {"value": {"tensor": {"dtype": "DT_INT32", "tensorShape": {"dim": [{"size": "4"}]}}}, "dtype": {"type": "DT_INT32"}}}, {"name": "StatefulPartitionedCall/tf_bert_for_token_classification/bert/encoder/layer_._1/attention/self/key/Tensordot/Const", "op": "Const", "attr": {"dtype": {"type": "DT_INT32"}, "value": {"tensor": {"dtype": "DT_INT32", "tensorShape": {"dim": [{"size": "1"}]}}}}}, {"name": "StatefulPartitionedCall/tf_bert_for_token_classification/bert/encoder/layer_._1/attention/self/key/Tensordot/axes", "op": "Const", "attr": {"dtype": {"type": "DT_INT32"}, "value": {"tensor": {"dtype": "DT_INT32", "tensorShape": {"dim": [{"size": "1"}]}}}}}, {"name": "StatefulPartitionedCall/tf_bert_for_token_classification/bert/encoder/layer_._1/attention/self/key/Tensordot/GatherV2_1/axis", "op": "Const", "attr": {"value": {"tensor": {"dtype": "DT_INT32", "tensorShape": {}}}, "dtype": {"type": "DT_INT32"}}}, {"name": "StatefulPartitionedCall/tf_bert_for_token_classification/bert/encoder/layer_._1/attention/self/key/Tensordot/Const_1", "op": "Const", "attr": {"value": {"tensor": {"dtype": "DT_INT32", "tensorShape": {"dim": [{"size": "1"}]}}}, "dtype": {"type": "DT_INT32"}}}, {"name": "StatefulPartitionedCall/tf_bert_for_token_classification/bert/encoder/layer_._1/attention/self/key/Tensordot/ReadVariableOp", "op": "Const", "attr": {"value": {"tensor": {"dtype": "DT_FLOAT", "tensorShape": {"dim": [{"size": "128"}, {"size": "128"}]}}}, "dtype": {"type": "DT_FLOAT"}}}, {"name": "StatefulPartitionedCall/tf_bert_for_token_classification/bert/encoder/layer_._1/attention/self/key/Tensordot/free", "op": "Const", "attr": {"dtype": {"type": "DT_INT32"}, "value": {"tensor": {"dtype": "DT_INT32", "tensorShape": {"dim": [{"size": "2"}]}}}}}, {"name": "StatefulPartitionedCall/tf_bert_for_token_classification/bert/encoder/layer_._1/attention/self/key/Tensordot/GatherV2/axis", "op": "Const", "attr": {"dtype": {"type": "DT_INT32"}, "value": {"tensor": {"dtype": "DT_INT32", "tensorShape": {}}}}}, {"name": "StatefulPartitionedCall/tf_bert_for_token_classification/bert/encoder/layer_._1/attention/self/key/Tensordot/Const_2", "op": "Const", "attr": {"value": {"tensor": {"dtype": "DT_INT32", "tensorShape": {"dim": [{"size": "1"}]}}}, "dtype": {"type": "DT_INT32"}}}, {"name": "StatefulPartitionedCall/tf_bert_for_token_classification/bert/encoder/layer_._1/attention/self/key/Tensordot/concat_1/axis", "op": "Const", "attr": {"value": {"tensor": {"dtype": "DT_INT32", "tensorShape": {}}}, "dtype": {"type": "DT_INT32"}}}, {"name": "StatefulPartitionedCall/tf_bert_for_token_classification/bert/encoder/layer_._1/attention/self/key/BiasAdd/ReadVariableOp", "op": "Const", "attr": {"value": {"tensor": {"dtype": "DT_FLOAT", "tensorShape": {"dim": [{"size": "128"}]}}}, "dtype": {"type": "DT_FLOAT"}}}, {"name": "StatefulPartitionedCall/tf_bert_for_token_classification/bert/encoder/layer_._1/attention/self/Reshape/shape/1", "op": "Const", "attr": {"value": {"tensor": {"dtype": "DT_INT32", "tensorShape": {}}}, "dtype": {"type": "DT_INT32"}}}, {"name": "StatefulPartitionedCall/tf_bert_for_token_classification/bert/encoder/layer_._1/attention/self/Reshape/shape/2", "op": "Const", "attr": {"dtype": {"type": "DT_INT32"}, "value": {"tensor": {"dtype": "DT_INT32", "tensorShape": {}}}}}, {"name": "StatefulPartitionedCall/tf_bert_for_token_classification/bert/encoder/layer_._1/attention/self/Reshape/shape/3", "op": "Const", "attr": {"value": {"tensor": {"dtype": "DT_INT32", "tensorShape": {}}}, "dtype": {"type": "DT_INT32"}}}, {"name": "StatefulPartitionedCall/tf_bert_for_token_classification/bert/encoder/layer_._1/attention/self/transpose/perm", "op": "Const", "attr": {"dtype": {"type": "DT_INT32"}, "value": {"tensor": {"dtype": "DT_INT32", "tensorShape": {"dim": [{"size": "4"}]}}}}}, {"name": "ConstantFolding/StatefulPartitionedCall/tf_bert_for_token_classification/bert/encoder/layer_._1/attention/self/truediv_recip", "op": "Const", "attr": {"dtype": {"type": "DT_FLOAT"}, "value": {"tensor": {"dtype": "DT_FLOAT", "tensorShape": {}}}}}, {"name": "StatefulPartitionedCall/tf_bert_for_token_classification/bert/encoder/layer_._1/attention/self/add_1/y", "op": "Const", "attr": {"dtype": {"type": "DT_FLOAT"}, "value": {"tensor": {"dtype": "DT_FLOAT", "tensorShape": {}}}}}, {"name": "StatefulPartitionedCall/tf_bert_for_token_classification/bert/encoder/layer_._1/attention/self/value/Tensordot/Const", "op": "Const", "attr": {"dtype": {"type": "DT_INT32"}, "value": {"tensor": {"dtype": "DT_INT32", "tensorShape": {"dim": [{"size": "1"}]}}}}}, {"name": "StatefulPartitionedCall/tf_bert_for_token_classification/bert/encoder/layer_._1/attention/self/value/Tensordot/axes", "op": "Const", "attr": {"dtype": {"type": "DT_INT32"}, "value": {"tensor": {"dtype": "DT_INT32", "tensorShape": {"dim": [{"size": "1"}]}}}}}, {"name": "StatefulPartitionedCall/tf_bert_for_token_classification/bert/encoder/layer_._1/attention/self/value/Tensordot/GatherV2_1/axis", "op": "Const", "attr": {"dtype": {"type": "DT_INT32"}, "value": {"tensor": {"dtype": "DT_INT32", "tensorShape": {}}}}}, {"name": "StatefulPartitionedCall/tf_bert_for_token_classification/bert/encoder/layer_._1/attention/self/value/Tensordot/Const_1", "op": "Const", "attr": {"dtype": {"type": "DT_INT32"}, "value": {"tensor": {"dtype": "DT_INT32", "tensorShape": {"dim": [{"size": "1"}]}}}}}, {"name": "StatefulPartitionedCall/tf_bert_for_token_classification/bert/encoder/layer_._1/attention/self/value/Tensordot/ReadVariableOp", "op": "Const", "attr": {"dtype": {"type": "DT_FLOAT"}, "value": {"tensor": {"dtype": "DT_FLOAT", "tensorShape": {"dim": [{"size": "128"}, {"size": "128"}]}}}}}, {"name": "StatefulPartitionedCall/tf_bert_for_token_classification/bert/encoder/layer_._1/attention/self/value/Tensordot/free", "op": "Const", "attr": {"value": {"tensor": {"dtype": "DT_INT32", "tensorShape": {"dim": [{"size": "2"}]}}}, "dtype": {"type": "DT_INT32"}}}, {"name": "StatefulPartitionedCall/tf_bert_for_token_classification/bert/encoder/layer_._1/attention/self/value/Tensordot/GatherV2/axis", "op": "Const", "attr": {"value": {"tensor": {"dtype": "DT_INT32", "tensorShape": {}}}, "dtype": {"type": "DT_INT32"}}}, {"name": "StatefulPartitionedCall/tf_bert_for_token_classification/bert/encoder/layer_._1/attention/self/value/Tensordot/Const_2", "op": "Const", "attr": {"value": {"tensor": {"dtype": "DT_INT32", "tensorShape": {"dim": [{"size": "1"}]}}}, "dtype": {"type": "DT_INT32"}}}, {"name": "StatefulPartitionedCall/tf_bert_for_token_classification/bert/encoder/layer_._1/attention/self/value/Tensordot/concat_1/axis", "op": "Const", "attr": {"dtype": {"type": "DT_INT32"}, "value": {"tensor": {"dtype": "DT_INT32", "tensorShape": {}}}}}, {"name": "StatefulPartitionedCall/tf_bert_for_token_classification/bert/encoder/layer_._1/attention/self/value/BiasAdd/ReadVariableOp", "op": "Const", "attr": {"dtype": {"type": "DT_FLOAT"}, "value": {"tensor": {"dtype": "DT_FLOAT", "tensorShape": {"dim": [{"size": "128"}]}}}}}, {"name": "StatefulPartitionedCall/tf_bert_for_token_classification/bert/encoder/layer_._1/attention/self/Reshape_1/shape/1", "op": "Const", "attr": {"dtype": {"type": "DT_INT32"}, "value": {"tensor": {"dtype": "DT_INT32", "tensorShape": {}}}}}, {"name": "StatefulPartitionedCall/tf_bert_for_token_classification/bert/encoder/layer_._1/attention/self/Reshape_1/shape/2", "op": "Const", "attr": {"value": {"tensor": {"dtype": "DT_INT32", "tensorShape": {}}}, "dtype": {"type": "DT_INT32"}}}, {"name": "StatefulPartitionedCall/tf_bert_for_token_classification/bert/encoder/layer_._1/attention/self/Reshape_1/shape/3", "op": "Const", "attr": {"dtype": {"type": "DT_INT32"}, "value": {"tensor": {"dtype": "DT_INT32", "tensorShape": {}}}}}, {"name": "StatefulPartitionedCall/tf_bert_for_token_classification/bert/encoder/layer_._1/attention/self/transpose_1/perm", "op": "Const", "attr": {"dtype": {"type": "DT_INT32"}, "value": {"tensor": {"dtype": "DT_INT32", "tensorShape": {"dim": [{"size": "4"}]}}}}}, {"name": "StatefulPartitionedCall/tf_bert_for_token_classification/bert/encoder/layer_._1/attention/self/transpose_3/perm", "op": "Const", "attr": {"value": {"tensor": {"dtype": "DT_INT32", "tensorShape": {"dim": [{"size": "4"}]}}}, "dtype": {"type": "DT_INT32"}}}, {"name": "StatefulPartitionedCall/tf_bert_for_token_classification/bert/encoder/layer_._1/attention/self/strided_slice/stack", "op": "Const", "attr": {"dtype": {"type": "DT_INT32"}, "value": {"tensor": {"dtype": "DT_INT32", "tensorShape": {"dim": [{"size": "1"}]}}}}}, {"name": "StatefulPartitionedCall/tf_bert_for_token_classification/bert/encoder/layer_._1/attention/self/strided_slice/stack_1", "op": "Const", "attr": {"dtype": {"type": "DT_INT32"}, "value": {"tensor": {"dtype": "DT_INT32", "tensorShape": {"dim": [{"size": "1"}]}}}}}, {"name": "StatefulPartitionedCall/tf_bert_for_token_classification/bert/encoder/layer_._1/attention/self/strided_slice/stack_2", "op": "Const", "attr": {"dtype": {"type": "DT_INT32"}, "value": {"tensor": {"dtype": "DT_INT32", "tensorShape": {"dim": [{"size": "1"}]}}}}}, {"name": "StatefulPartitionedCall/tf_bert_for_token_classification/bert/encoder/layer_._1/attention/self/Reshape_3/shape/1", "op": "Const", "attr": {"dtype": {"type": "DT_INT32"}, "value": {"tensor": {"dtype": "DT_INT32", "tensorShape": {}}}}}, {"name": "StatefulPartitionedCall/tf_bert_for_token_classification/bert/encoder/layer_._1/attention/self/Reshape_3/shape/2", "op": "Const", "attr": {"value": {"tensor": {"dtype": "DT_INT32", "tensorShape": {}}}, "dtype": {"type": "DT_INT32"}}}, {"name": "StatefulPartitionedCall/tf_bert_for_token_classification/bert/encoder/layer_._1/attention/output/dense/Tensordot/free", "op": "Const", "attr": {"dtype": {"type": "DT_INT32"}, "value": {"tensor": {"dtype": "DT_INT32", "tensorShape": {"dim": [{"size": "2"}]}}}}}, {"name": "StatefulPartitionedCall/tf_bert_for_token_classification/bert/encoder/layer_._1/attention/output/dense/Tensordot/GatherV2/axis", "op": "Const", "attr": {"value": {"tensor": {"dtype": "DT_INT32", "tensorShape": {}}}, "dtype": {"type": "DT_INT32"}}}, {"name": "StatefulPartitionedCall/tf_bert_for_token_classification/bert/encoder/layer_._1/attention/output/dense/Tensordot/Const_2", "op": "Const", "attr": {"dtype": {"type": "DT_INT32"}, "value": {"tensor": {"dtype": "DT_INT32", "tensorShape": {"dim": [{"size": "1"}]}}}}}, {"name": "StatefulPartitionedCall/tf_bert_for_token_classification/bert/encoder/layer_._1/attention/output/dense/Tensordot/concat_1/axis", "op": "Const", "attr": {"value": {"tensor": {"dtype": "DT_INT32", "tensorShape": {}}}, "dtype": {"type": "DT_INT32"}}}, {"name": "StatefulPartitionedCall/tf_bert_for_token_classification/bert/encoder/layer_._1/attention/output/dense/BiasAdd/ReadVariableOp", "op": "Const", "attr": {"dtype": {"type": "DT_FLOAT"}, "value": {"tensor": {"dtype": "DT_FLOAT", "tensorShape": {"dim": [{"size": "128"}]}}}}}, {"name": "StatefulPartitionedCall/tf_bert_for_token_classification/bert/encoder/layer_._0/output/LayerNorm/batchnorm/ReadVariableOp", "op": "Const", "attr": {"dtype": {"type": "DT_FLOAT"}, "value": {"tensor": {"dtype": "DT_FLOAT", "tensorShape": {"dim": [{"size": "128"}]}}}}}, {"name": "StatefulPartitionedCall/tf_bert_for_token_classification/bert/encoder/layer_._0/output/dense/Tensordot/Const", "op": "Const", "attr": {"value": {"tensor": {"dtype": "DT_INT32", "tensorShape": {"dim": [{"size": "1"}]}}}, "dtype": {"type": "DT_INT32"}}}, {"name": "StatefulPartitionedCall/tf_bert_for_token_classification/bert/encoder/layer_._0/output/dense/Tensordot/axes", "op": "Const", "attr": {"dtype": {"type": "DT_INT32"}, "value": {"tensor": {"dtype": "DT_INT32", "tensorShape": {"dim": [{"size": "1"}]}}}}}, {"name": "StatefulPartitionedCall/tf_bert_for_token_classification/bert/encoder/layer_._0/output/dense/Tensordot/GatherV2_1/axis", "op": "Const", "attr": {"dtype": {"type": "DT_INT32"}, "value": {"tensor": {"dtype": "DT_INT32", "tensorShape": {}}}}}, {"name": "StatefulPartitionedCall/tf_bert_for_token_classification/bert/encoder/layer_._0/output/dense/Tensordot/Const_1", "op": "Const", "attr": {"dtype": {"type": "DT_INT32"}, "value": {"tensor": {"dtype": "DT_INT32", "tensorShape": {"dim": [{"size": "1"}]}}}}}, {"name": "StatefulPartitionedCall/tf_bert_for_token_classification/bert/encoder/layer_._0/output/dense/Tensordot/ReadVariableOp", "op": "Const", "attr": {"dtype": {"type": "DT_FLOAT"}, "value": {"tensor": {"dtype": "DT_FLOAT", "tensorShape": {"dim": [{"size": "512"}, {"size": "128"}]}}}}}, {"name": "StatefulPartitionedCall/tf_bert_for_token_classification/bert/encoder/layer_._0/intermediate/Gelu/mul/x", "op": "Const", "attr": {"value": {"tensor": {"dtype": "DT_FLOAT", "tensorShape": {}}}, "dtype": {"type": "DT_FLOAT"}}}, {"name": "StatefulPartitionedCall/tf_bert_for_token_classification/bert/encoder/layer_._0/intermediate/Gelu/add/x", "op": "Const", "attr": {"dtype": {"type": "DT_FLOAT"}, "value": {"tensor": {"dtype": "DT_FLOAT", "tensorShape": {}}}}}, {"name": "StatefulPartitionedCall/tf_bert_for_token_classification/bert/encoder/layer_._0/intermediate/dense/Tensordot/Const", "op": "Const", "attr": {"value": {"tensor": {"dtype": "DT_INT32", "tensorShape": {"dim": [{"size": "1"}]}}}, "dtype": {"type": "DT_INT32"}}}, {"name": "StatefulPartitionedCall/tf_bert_for_token_classification/bert/encoder/layer_._0/intermediate/dense/Tensordot/axes", "op": "Const", "attr": {"dtype": {"type": "DT_INT32"}, "value": {"tensor": {"dtype": "DT_INT32", "tensorShape": {"dim": [{"size": "1"}]}}}}}, {"name": "StatefulPartitionedCall/tf_bert_for_token_classification/bert/encoder/layer_._0/intermediate/dense/Tensordot/GatherV2_1/axis", "op": "Const", "attr": {"value": {"tensor": {"dtype": "DT_INT32", "tensorShape": {}}}, "dtype": {"type": "DT_INT32"}}}, {"name": "StatefulPartitionedCall/tf_bert_for_token_classification/bert/encoder/layer_._0/intermediate/dense/Tensordot/Const_1", "op": "Const", "attr": {"value": {"tensor": {"dtype": "DT_INT32", "tensorShape": {"dim": [{"size": "1"}]}}}, "dtype": {"type": "DT_INT32"}}}, {"name": "StatefulPartitionedCall/tf_bert_for_token_classification/bert/encoder/layer_._0/intermediate/dense/Tensordot/ReadVariableOp", "op": "Const", "attr": {"dtype": {"type": "DT_FLOAT"}, "value": {"tensor": {"dtype": "DT_FLOAT", "tensorShape": {"dim": [{"size": "128"}, {"size": "512"}]}}}}}, {"name": "StatefulPartitionedCall/tf_bert_for_token_classification/bert/encoder/layer_._0/intermediate/dense/Tensordot/free", "op": "Const", "attr": {"dtype": {"type": "DT_INT32"}, "value": {"tensor": {"dtype": "DT_INT32", "tensorShape": {"dim": [{"size": "2"}]}}}}}, {"name": "StatefulPartitionedCall/tf_bert_for_token_classification/bert/encoder/layer_._0/intermediate/dense/Tensordot/GatherV2/axis", "op": "Const", "attr": {"value": {"tensor": {"dtype": "DT_INT32", "tensorShape": {}}}, "dtype": {"type": "DT_INT32"}}}, {"name": "StatefulPartitionedCall/tf_bert_for_token_classification/bert/encoder/layer_._0/intermediate/dense/Tensordot/Const_2", "op": "Const", "attr": {"value": {"tensor": {"dtype": "DT_INT32", "tensorShape": {"dim": [{"size": "1"}]}}}, "dtype": {"type": "DT_INT32"}}}, {"name": "StatefulPartitionedCall/tf_bert_for_token_classification/bert/encoder/layer_._0/intermediate/dense/Tensordot/concat_1/axis", "op": "Const", "attr": {"dtype": {"type": "DT_INT32"}, "value": {"tensor": {"dtype": "DT_INT32", "tensorShape": {}}}}}, {"name": "StatefulPartitionedCall/tf_bert_for_token_classification/bert/encoder/layer_._0/intermediate/dense/BiasAdd/ReadVariableOp", "op": "Const", "attr": {"dtype": {"type": "DT_FLOAT"}, "value": {"tensor": {"dtype": "DT_FLOAT", "tensorShape": {"dim": [{"size": "512"}]}}}}}, {"name": "ConstantFolding/StatefulPartitionedCall/tf_bert_for_token_classification/bert/encoder/layer_._0/intermediate/Gelu/truediv_recip", "op": "Const", "attr": {"value": {"tensor": {"dtype": "DT_FLOAT", "tensorShape": {}}}, "dtype": {"type": "DT_FLOAT"}}}, {"name": "StatefulPartitionedCall/tf_bert_for_token_classification/bert/encoder/layer_._0/output/dense/Tensordot/free", "op": "Const", "attr": {"value": {"tensor": {"dtype": "DT_INT32", "tensorShape": {"dim": [{"size": "2"}]}}}, "dtype": {"type": "DT_INT32"}}}, {"name": "StatefulPartitionedCall/tf_bert_for_token_classification/bert/encoder/layer_._0/output/dense/Tensordot/GatherV2/axis", "op": "Const", "attr": {"value": {"tensor": {"dtype": "DT_INT32", "tensorShape": {}}}, "dtype": {"type": "DT_INT32"}}}, {"name": "StatefulPartitionedCall/tf_bert_for_token_classification/bert/encoder/layer_._0/output/dense/Tensordot/Const_2", "op": "Const", "attr": {"dtype": {"type": "DT_INT32"}, "value": {"tensor": {"dtype": "DT_INT32", "tensorShape": {"dim": [{"size": "1"}]}}}}}, {"name": "StatefulPartitionedCall/tf_bert_for_token_classification/bert/encoder/layer_._0/output/dense/Tensordot/concat_1/axis", "op": "Const", "attr": {"dtype": {"type": "DT_INT32"}, "value": {"tensor": {"dtype": "DT_INT32", "tensorShape": {}}}}}, {"name": "StatefulPartitionedCall/tf_bert_for_token_classification/bert/encoder/layer_._0/output/dense/BiasAdd/ReadVariableOp", "op": "Const", "attr": {"dtype": {"type": "DT_FLOAT"}, "value": {"tensor": {"dtype": "DT_FLOAT", "tensorShape": {"dim": [{"size": "128"}]}}}}}, {"name": "StatefulPartitionedCall/tf_bert_for_token_classification/bert/encoder/layer_._0/attention/output/LayerNorm/batchnorm/ReadVariableOp", "op": "Const", "attr": {"value": {"tensor": {"dtype": "DT_FLOAT", "tensorShape": {"dim": [{"size": "128"}]}}}, "dtype": {"type": "DT_FLOAT"}}}, {"name": "StatefulPartitionedCall/tf_bert_for_token_classification/bert/encoder/layer_._0/attention/output/dense/Tensordot/Const", "op": "Const", "attr": {"value": {"tensor": {"dtype": "DT_INT32", "tensorShape": {"dim": [{"size": "1"}]}}}, "dtype": {"type": "DT_INT32"}}}, {"name": "StatefulPartitionedCall/tf_bert_for_token_classification/bert/encoder/layer_._0/attention/output/dense/Tensordot/axes", "op": "Const", "attr": {"value": {"tensor": {"dtype": "DT_INT32", "tensorShape": {"dim": [{"size": "1"}]}}}, "dtype": {"type": "DT_INT32"}}}, {"name": "StatefulPartitionedCall/tf_bert_for_token_classification/bert/encoder/layer_._0/attention/output/dense/Tensordot/GatherV2_1/axis", "op": "Const", "attr": {"value": {"tensor": {"dtype": "DT_INT32", "tensorShape": {}}}, "dtype": {"type": "DT_INT32"}}}, {"name": "StatefulPartitionedCall/tf_bert_for_token_classification/bert/encoder/layer_._0/attention/output/dense/Tensordot/Const_1", "op": "Const", "attr": {"dtype": {"type": "DT_INT32"}, "value": {"tensor": {"dtype": "DT_INT32", "tensorShape": {"dim": [{"size": "1"}]}}}}}, {"name": "StatefulPartitionedCall/tf_bert_for_token_classification/bert/encoder/layer_._0/attention/output/dense/Tensordot/ReadVariableOp", "op": "Const", "attr": {"dtype": {"type": "DT_FLOAT"}, "value": {"tensor": {"dtype": "DT_FLOAT", "tensorShape": {"dim": [{"size": "128"}, {"size": "128"}]}}}}}, {"name": "StatefulPartitionedCall/tf_bert_for_token_classification/bert/encoder/layer_._0/attention/self/query/Tensordot/Const", "op": "Const", "attr": {"dtype": {"type": "DT_INT32"}, "value": {"tensor": {"dtype": "DT_INT32", "tensorShape": {"dim": [{"size": "1"}]}}}}}, {"name": "StatefulPartitionedCall/tf_bert_for_token_classification/bert/encoder/layer_._0/attention/self/query/Tensordot/axes", "op": "Const", "attr": {"value": {"tensor": {"dtype": "DT_INT32", "tensorShape": {"dim": [{"size": "1"}]}}}, "dtype": {"type": "DT_INT32"}}}, {"name": "StatefulPartitionedCall/tf_bert_for_token_classification/bert/encoder/layer_._0/attention/self/query/Tensordot/GatherV2_1/axis", "op": "Const", "attr": {"value": {"tensor": {"dtype": "DT_INT32", "tensorShape": {}}}, "dtype": {"type": "DT_INT32"}}}, {"name": "StatefulPartitionedCall/tf_bert_for_token_classification/bert/encoder/layer_._0/attention/self/query/Tensordot/Const_1", "op": "Const", "attr": {"dtype": {"type": "DT_INT32"}, "value": {"tensor": {"dtype": "DT_INT32", "tensorShape": {"dim": [{"size": "1"}]}}}}}, {"name": "StatefulPartitionedCall/tf_bert_for_token_classification/bert/encoder/layer_._0/attention/self/query/Tensordot/ReadVariableOp", "op": "Const", "attr": {"dtype": {"type": "DT_FLOAT"}, "value": {"tensor": {"dtype": "DT_FLOAT", "tensorShape": {"dim": [{"size": "128"}, {"size": "128"}]}}}}}, {"name": "StatefulPartitionedCall/tf_bert_for_token_classification/bert/encoder/layer_._0/attention/self/query/Tensordot/free", "op": "Const", "attr": {"value": {"tensor": {"dtype": "DT_INT32", "tensorShape": {"dim": [{"size": "2"}]}}}, "dtype": {"type": "DT_INT32"}}}, {"name": "StatefulPartitionedCall/tf_bert_for_token_classification/bert/encoder/layer_._0/attention/self/query/Tensordot/GatherV2/axis", "op": "Const", "attr": {"dtype": {"type": "DT_INT32"}, "value": {"tensor": {"dtype": "DT_INT32", "tensorShape": {}}}}}, {"name": "StatefulPartitionedCall/tf_bert_for_token_classification/bert/encoder/layer_._0/attention/self/query/Tensordot/Const_2", "op": "Const", "attr": {"value": {"tensor": {"dtype": "DT_INT32", "tensorShape": {"dim": [{"size": "1"}]}}}, "dtype": {"type": "DT_INT32"}}}, {"name": "StatefulPartitionedCall/tf_bert_for_token_classification/bert/encoder/layer_._0/attention/self/query/Tensordot/concat_1/axis", "op": "Const", "attr": {"dtype": {"type": "DT_INT32"}, "value": {"tensor": {"dtype": "DT_INT32", "tensorShape": {}}}}}, {"name": "StatefulPartitionedCall/tf_bert_for_token_classification/bert/encoder/layer_._0/attention/self/query/BiasAdd/ReadVariableOp", "op": "Const", "attr": {"value": {"tensor": {"dtype": "DT_FLOAT", "tensorShape": {"dim": [{"size": "128"}]}}}, "dtype": {"type": "DT_FLOAT"}}}, {"name": "StatefulPartitionedCall/tf_bert_for_token_classification/bert/encoder/layer_._0/attention/self/Reshape_2/shape/1", "op": "Const", "attr": {"dtype": {"type": "DT_INT32"}, "value": {"tensor": {"dtype": "DT_INT32", "tensorShape": {}}}}}, {"name": "StatefulPartitionedCall/tf_bert_for_token_classification/bert/encoder/layer_._0/attention/self/Reshape_2/shape/2", "op": "Const", "attr": {"value": {"tensor": {"dtype": "DT_INT32", "tensorShape": {}}}, "dtype": {"type": "DT_INT32"}}}, {"name": "StatefulPartitionedCall/tf_bert_for_token_classification/bert/encoder/layer_._0/attention/self/Reshape_2/shape/3", "op": "Const", "attr": {"dtype": {"type": "DT_INT32"}, "value": {"tensor": {"dtype": "DT_INT32", "tensorShape": {}}}}}, {"name": "StatefulPartitionedCall/tf_bert_for_token_classification/bert/encoder/layer_._0/attention/self/transpose_2/perm", "op": "Const", "attr": {"dtype": {"type": "DT_INT32"}, "value": {"tensor": {"dtype": "DT_INT32", "tensorShape": {"dim": [{"size": "4"}]}}}}}, {"name": "StatefulPartitionedCall/tf_bert_for_token_classification/bert/encoder/layer_._0/attention/self/key/Tensordot/Const", "op": "Const", "attr": {"value": {"tensor": {"dtype": "DT_INT32", "tensorShape": {"dim": [{"size": "1"}]}}}, "dtype": {"type": "DT_INT32"}}}, {"name": "StatefulPartitionedCall/tf_bert_for_token_classification/bert/encoder/layer_._0/attention/self/key/Tensordot/axes", "op": "Const", "attr": {"value": {"tensor": {"dtype": "DT_INT32", "tensorShape": {"dim": [{"size": "1"}]}}}, "dtype": {"type": "DT_INT32"}}}, {"name": "StatefulPartitionedCall/tf_bert_for_token_classification/bert/encoder/layer_._0/attention/self/key/Tensordot/GatherV2_1/axis", "op": "Const", "attr": {"value": {"tensor": {"dtype": "DT_INT32", "tensorShape": {}}}, "dtype": {"type": "DT_INT32"}}}, {"name": "StatefulPartitionedCall/tf_bert_for_token_classification/bert/encoder/layer_._0/attention/self/key/Tensordot/Const_1", "op": "Const", "attr": {"value": {"tensor": {"dtype": "DT_INT32", "tensorShape": {"dim": [{"size": "1"}]}}}, "dtype": {"type": "DT_INT32"}}}, {"name": "StatefulPartitionedCall/tf_bert_for_token_classification/bert/encoder/layer_._0/attention/self/key/Tensordot/ReadVariableOp", "op": "Const", "attr": {"dtype": {"type": "DT_FLOAT"}, "value": {"tensor": {"dtype": "DT_FLOAT", "tensorShape": {"dim": [{"size": "128"}, {"size": "128"}]}}}}}, {"name": "StatefulPartitionedCall/tf_bert_for_token_classification/bert/encoder/layer_._0/attention/self/key/Tensordot/free", "op": "Const", "attr": {"value": {"tensor": {"dtype": "DT_INT32", "tensorShape": {"dim": [{"size": "2"}]}}}, "dtype": {"type": "DT_INT32"}}}, {"name": "StatefulPartitionedCall/tf_bert_for_token_classification/bert/encoder/layer_._0/attention/self/key/Tensordot/GatherV2/axis", "op": "Const", "attr": {"dtype": {"type": "DT_INT32"}, "value": {"tensor": {"dtype": "DT_INT32", "tensorShape": {}}}}}, {"name": "StatefulPartitionedCall/tf_bert_for_token_classification/bert/encoder/layer_._0/attention/self/key/Tensordot/Const_2", "op": "Const", "attr": {"value": {"tensor": {"dtype": "DT_INT32", "tensorShape": {"dim": [{"size": "1"}]}}}, "dtype": {"type": "DT_INT32"}}}, {"name": "StatefulPartitionedCall/tf_bert_for_token_classification/bert/encoder/layer_._0/attention/self/key/Tensordot/concat_1/axis", "op": "Const", "attr": {"dtype": {"type": "DT_INT32"}, "value": {"tensor": {"dtype": "DT_INT32", "tensorShape": {}}}}}, {"name": "StatefulPartitionedCall/tf_bert_for_token_classification/bert/encoder/layer_._0/attention/self/key/BiasAdd/ReadVariableOp", "op": "Const", "attr": {"value": {"tensor": {"dtype": "DT_FLOAT", "tensorShape": {"dim": [{"size": "128"}]}}}, "dtype": {"type": "DT_FLOAT"}}}, {"name": "StatefulPartitionedCall/tf_bert_for_token_classification/bert/encoder/layer_._0/attention/self/Reshape/shape/1", "op": "Const", "attr": {"value": {"tensor": {"dtype": "DT_INT32", "tensorShape": {}}}, "dtype": {"type": "DT_INT32"}}}, {"name": "StatefulPartitionedCall/tf_bert_for_token_classification/bert/encoder/layer_._0/attention/self/Reshape/shape/2", "op": "Const", "attr": {"value": {"tensor": {"dtype": "DT_INT32", "tensorShape": {}}}, "dtype": {"type": "DT_INT32"}}}, {"name": "StatefulPartitionedCall/tf_bert_for_token_classification/bert/encoder/layer_._0/attention/self/Reshape/shape/3", "op": "Const", "attr": {"value": {"tensor": {"dtype": "DT_INT32", "tensorShape": {}}}, "dtype": {"type": "DT_INT32"}}}, {"name": "StatefulPartitionedCall/tf_bert_for_token_classification/bert/encoder/layer_._0/attention/self/transpose/perm", "op": "Const", "attr": {"dtype": {"type": "DT_INT32"}, "value": {"tensor": {"dtype": "DT_INT32", "tensorShape": {"dim": [{"size": "4"}]}}}}}, {"name": "ConstantFolding/StatefulPartitionedCall/tf_bert_for_token_classification/bert/encoder/layer_._0/attention/self/truediv_recip", "op": "Const", "attr": {"value": {"tensor": {"dtype": "DT_FLOAT", "tensorShape": {}}}, "dtype": {"type": "DT_FLOAT"}}}, {"name": "StatefulPartitionedCall/tf_bert_for_token_classification/bert/encoder/layer_._0/attention/self/add_1/y", "op": "Const", "attr": {"value": {"tensor": {"dtype": "DT_FLOAT", "tensorShape": {}}}, "dtype": {"type": "DT_FLOAT"}}}, {"name": "StatefulPartitionedCall/tf_bert_for_token_classification/bert/Const", "op": "Const", "attr": {"dtype": {"type": "DT_FLOAT"}, "value": {"tensor": {"dtype": "DT_FLOAT", "tensorShape": {}}}}}, {"name": "StatefulPartitionedCall/tf_bert_for_token_classification/bert/strided_slice_2/stack", "op": "Const", "attr": {"value": {"tensor": {"dtype": "DT_INT32", "tensorShape": {"dim": [{"size": "1"}]}}}, "dtype": {"type": "DT_INT32"}}}, {"name": "StatefulPartitionedCall/tf_bert_for_token_classification/bert/strided_slice_2/stack_1", "op": "Const", "attr": {"value": {"tensor": {"dtype": "DT_INT32", "tensorShape": {"dim": [{"size": "1"}]}}}, "dtype": {"type": "DT_INT32"}}}, {"name": "StatefulPartitionedCall/tf_bert_for_token_classification/bert/strided_slice_2/stack_2", "op": "Const", "attr": {"dtype": {"type": "DT_INT32"}, "value": {"tensor": {"dtype": "DT_INT32", "tensorShape": {"dim": [{"size": "1"}]}}}}}, {"name": "StatefulPartitionedCall/tf_bert_for_token_classification/bert/Reshape/shape/1", "op": "Const", "attr": {"value": {"tensor": {"dtype": "DT_INT32", "tensorShape": {}}}, "dtype": {"type": "DT_INT32"}}}, {"name": "StatefulPartitionedCall/tf_bert_for_token_classification/bert/Reshape/shape/2", "op": "Const", "attr": {"dtype": {"type": "DT_INT32"}, "value": {"tensor": {"dtype": "DT_INT32", "tensorShape": {}}}}}, {"name": "StatefulPartitionedCall/tf_bert_for_token_classification/bert/strided_slice_3/stack", "op": "Const", "attr": {"value": {"tensor": {"dtype": "DT_INT32", "tensorShape": {"dim": [{"size": "1"}]}}}, "dtype": {"type": "DT_INT32"}}}, {"name": "StatefulPartitionedCall/tf_bert_for_token_classification/bert/strided_slice_3/stack_1", "op": "Const", "attr": {"dtype": {"type": "DT_INT32"}, "value": {"tensor": {"dtype": "DT_INT32", "tensorShape": {"dim": [{"size": "1"}]}}}}}, {"name": "StatefulPartitionedCall/tf_bert_for_token_classification/bert/strided_slice_3/stack_2", "op": "Const", "attr": {"dtype": {"type": "DT_INT32"}, "value": {"tensor": {"dtype": "DT_INT32", "tensorShape": {"dim": [{"size": "1"}]}}}}}, {"name": "StatefulPartitionedCall/tf_bert_for_token_classification/bert/Const_1", "op": "Const", "attr": {"dtype": {"type": "DT_FLOAT"}, "value": {"tensor": {"dtype": "DT_FLOAT", "tensorShape": {}}}}}, {"name": "StatefulPartitionedCall/tf_bert_for_token_classification/bert/encoder/layer_._0/attention/self/value/Tensordot/Const", "op": "Const", "attr": {"dtype": {"type": "DT_INT32"}, "value": {"tensor": {"dtype": "DT_INT32", "tensorShape": {"dim": [{"size": "1"}]}}}}}, {"name": "StatefulPartitionedCall/tf_bert_for_token_classification/bert/encoder/layer_._0/attention/self/value/Tensordot/axes", "op": "Const", "attr": {"dtype": {"type": "DT_INT32"}, "value": {"tensor": {"dtype": "DT_INT32", "tensorShape": {"dim": [{"size": "1"}]}}}}}, {"name": "StatefulPartitionedCall/tf_bert_for_token_classification/bert/encoder/layer_._0/attention/self/value/Tensordot/GatherV2_1/axis", "op": "Const", "attr": {"value": {"tensor": {"dtype": "DT_INT32", "tensorShape": {}}}, "dtype": {"type": "DT_INT32"}}}, {"name": "StatefulPartitionedCall/tf_bert_for_token_classification/bert/encoder/layer_._0/attention/self/value/Tensordot/Const_1", "op": "Const", "attr": {"dtype": {"type": "DT_INT32"}, "value": {"tensor": {"dtype": "DT_INT32", "tensorShape": {"dim": [{"size": "1"}]}}}}}, {"name": "StatefulPartitionedCall/tf_bert_for_token_classification/bert/encoder/layer_._0/attention/self/value/Tensordot/ReadVariableOp", "op": "Const", "attr": {"dtype": {"type": "DT_FLOAT"}, "value": {"tensor": {"dtype": "DT_FLOAT", "tensorShape": {"dim": [{"size": "128"}, {"size": "128"}]}}}}}, {"name": "StatefulPartitionedCall/tf_bert_for_token_classification/bert/encoder/layer_._0/attention/self/value/Tensordot/free", "op": "Const", "attr": {"dtype": {"type": "DT_INT32"}, "value": {"tensor": {"dtype": "DT_INT32", "tensorShape": {"dim": [{"size": "2"}]}}}}}, {"name": "StatefulPartitionedCall/tf_bert_for_token_classification/bert/encoder/layer_._0/attention/self/value/Tensordot/GatherV2/axis", "op": "Const", "attr": {"dtype": {"type": "DT_INT32"}, "value": {"tensor": {"dtype": "DT_INT32", "tensorShape": {}}}}}, {"name": "StatefulPartitionedCall/tf_bert_for_token_classification/bert/encoder/layer_._0/attention/self/value/Tensordot/Const_2", "op": "Const", "attr": {"value": {"tensor": {"dtype": "DT_INT32", "tensorShape": {"dim": [{"size": "1"}]}}}, "dtype": {"type": "DT_INT32"}}}, {"name": "StatefulPartitionedCall/tf_bert_for_token_classification/bert/encoder/layer_._0/attention/self/value/Tensordot/concat_1/axis", "op": "Const", "attr": {"value": {"tensor": {"dtype": "DT_INT32", "tensorShape": {}}}, "dtype": {"type": "DT_INT32"}}}, {"name": "StatefulPartitionedCall/tf_bert_for_token_classification/bert/encoder/layer_._0/attention/self/value/BiasAdd/ReadVariableOp", "op": "Const", "attr": {"value": {"tensor": {"dtype": "DT_FLOAT", "tensorShape": {"dim": [{"size": "128"}]}}}, "dtype": {"type": "DT_FLOAT"}}}, {"name": "StatefulPartitionedCall/tf_bert_for_token_classification/bert/encoder/layer_._0/attention/self/Reshape_1/shape/1", "op": "Const", "attr": {"value": {"tensor": {"dtype": "DT_INT32", "tensorShape": {}}}, "dtype": {"type": "DT_INT32"}}}, {"name": "StatefulPartitionedCall/tf_bert_for_token_classification/bert/encoder/layer_._0/attention/self/Reshape_1/shape/2", "op": "Const", "attr": {"value": {"tensor": {"dtype": "DT_INT32", "tensorShape": {}}}, "dtype": {"type": "DT_INT32"}}}, {"name": "StatefulPartitionedCall/tf_bert_for_token_classification/bert/encoder/layer_._0/attention/self/Reshape_1/shape/3", "op": "Const", "attr": {"dtype": {"type": "DT_INT32"}, "value": {"tensor": {"dtype": "DT_INT32", "tensorShape": {}}}}}, {"name": "StatefulPartitionedCall/tf_bert_for_token_classification/bert/encoder/layer_._0/attention/self/transpose_1/perm", "op": "Const", "attr": {"dtype": {"type": "DT_INT32"}, "value": {"tensor": {"dtype": "DT_INT32", "tensorShape": {"dim": [{"size": "4"}]}}}}}, {"name": "StatefulPartitionedCall/tf_bert_for_token_classification/bert/encoder/layer_._0/attention/self/transpose_3/perm", "op": "Const", "attr": {"dtype": {"type": "DT_INT32"}, "value": {"tensor": {"dtype": "DT_INT32", "tensorShape": {"dim": [{"size": "4"}]}}}}}, {"name": "StatefulPartitionedCall/tf_bert_for_token_classification/bert/encoder/layer_._0/attention/self/strided_slice/stack", "op": "Const", "attr": {"value": {"tensor": {"dtype": "DT_INT32", "tensorShape": {"dim": [{"size": "1"}]}}}, "dtype": {"type": "DT_INT32"}}}, {"name": "StatefulPartitionedCall/tf_bert_for_token_classification/bert/encoder/layer_._0/attention/self/strided_slice/stack_1", "op": "Const", "attr": {"value": {"tensor": {"dtype": "DT_INT32", "tensorShape": {"dim": [{"size": "1"}]}}}, "dtype": {"type": "DT_INT32"}}}, {"name": "StatefulPartitionedCall/tf_bert_for_token_classification/bert/encoder/layer_._0/attention/self/strided_slice/stack_2", "op": "Const", "attr": {"dtype": {"type": "DT_INT32"}, "value": {"tensor": {"dtype": "DT_INT32", "tensorShape": {"dim": [{"size": "1"}]}}}}}, {"name": "StatefulPartitionedCall/tf_bert_for_token_classification/bert/encoder/layer_._0/attention/self/Reshape_3/shape/1", "op": "Const", "attr": {"value": {"tensor": {"dtype": "DT_INT32", "tensorShape": {}}}, "dtype": {"type": "DT_INT32"}}}, {"name": "StatefulPartitionedCall/tf_bert_for_token_classification/bert/encoder/layer_._0/attention/self/Reshape_3/shape/2", "op": "Const", "attr": {"dtype": {"type": "DT_INT32"}, "value": {"tensor": {"dtype": "DT_INT32", "tensorShape": {}}}}}, {"name": "StatefulPartitionedCall/tf_bert_for_token_classification/bert/encoder/layer_._0/attention/output/dense/Tensordot/free", "op": "Const", "attr": {"dtype": {"type": "DT_INT32"}, "value": {"tensor": {"dtype": "DT_INT32", "tensorShape": {"dim": [{"size": "2"}]}}}}}, {"name": "StatefulPartitionedCall/tf_bert_for_token_classification/bert/encoder/layer_._0/attention/output/dense/Tensordot/GatherV2/axis", "op": "Const", "attr": {"dtype": {"type": "DT_INT32"}, "value": {"tensor": {"dtype": "DT_INT32", "tensorShape": {}}}}}, {"name": "StatefulPartitionedCall/tf_bert_for_token_classification/bert/encoder/layer_._0/attention/output/dense/Tensordot/Const_2", "op": "Const", "attr": {"dtype": {"type": "DT_INT32"}, "value": {"tensor": {"dtype": "DT_INT32", "tensorShape": {"dim": [{"size": "1"}]}}}}}, {"name": "StatefulPartitionedCall/tf_bert_for_token_classification/bert/encoder/layer_._0/attention/output/dense/Tensordot/concat_1/axis", "op": "Const", "attr": {"dtype": {"type": "DT_INT32"}, "value": {"tensor": {"dtype": "DT_INT32", "tensorShape": {}}}}}, {"name": "StatefulPartitionedCall/tf_bert_for_token_classification/bert/encoder/layer_._0/attention/output/dense/BiasAdd/ReadVariableOp", "op": "Const", "attr": {"value": {"tensor": {"dtype": "DT_FLOAT", "tensorShape": {"dim": [{"size": "128"}]}}}, "dtype": {"type": "DT_FLOAT"}}}, {"name": "StatefulPartitionedCall/tf_bert_for_token_classification/bert/embeddings/LayerNorm/batchnorm/ReadVariableOp", "op": "Const", "attr": {"value": {"tensor": {"dtype": "DT_FLOAT", "tensorShape": {"dim": [{"size": "128"}]}}}, "dtype": {"type": "DT_FLOAT"}}}, {"name": "unknown_0", "op": "Const", "attr": {"dtype": {"type": "DT_FLOAT"}, "value": {"tensor": {"dtype": "DT_FLOAT", "tensorShape": {"dim": [{"size": "512"}, {"size": "128"}]}}}}}, {"name": "StatefulPartitionedCall/tf_bert_for_token_classification/bert/embeddings/range/start", "op": "Const", "attr": {"dtype": {"type": "DT_INT32"}, "value": {"tensor": {"dtype": "DT_INT32", "tensorShape": {}}}}}, {"name": "unknown", "op": "Const", "attr": {"dtype": {"type": "DT_FLOAT"}, "value": {"tensor": {"dtype": "DT_FLOAT", "tensorShape": {"dim": [{"size": "30522"}, {"size": "128"}]}}}}}, {"name": "StatefulPartitionedCall/tf_bert_for_token_classification/bert/embeddings/Gather/axis", "op": "Const", "attr": {"dtype": {"type": "DT_INT32"}, "value": {"tensor": {"dtype": "DT_INT32", "tensorShape": {}}}}}, {"name": "StatefulPartitionedCall/tf_bert_for_token_classification/bert/embeddings/strided_slice_1/stack", "op": "Const", "attr": {"dtype": {"type": "DT_INT32"}, "value": {"tensor": {"dtype": "DT_INT32", "tensorShape": {"dim": [{"size": "1"}]}}}}}, {"name": "StatefulPartitionedCall/tf_bert_for_token_classification/bert/embeddings/strided_slice_1/stack_1", "op": "Const", "attr": {"dtype": {"type": "DT_INT32"}, "value": {"tensor": {"dtype": "DT_INT32", "tensorShape": {"dim": [{"size": "1"}]}}}}}, {"name": "StatefulPartitionedCall/tf_bert_for_token_classification/bert/embeddings/strided_slice_1/stack_2", "op": "Const", "attr": {"dtype": {"type": "DT_INT32"}, "value": {"tensor": {"dtype": "DT_INT32", "tensorShape": {"dim": [{"size": "1"}]}}}}}, {"name": "StatefulPartitionedCall/tf_bert_for_token_classification/bert/embeddings/range/delta", "op": "Const", "attr": {"dtype": {"type": "DT_INT32"}, "value": {"tensor": {"dtype": "DT_INT32", "tensorShape": {}}}}}, {"name": "StatefulPartitionedCall/tf_bert_for_token_classification/bert/embeddings/ExpandDims/dim", "op": "Const", "attr": {"value": {"tensor": {"dtype": "DT_INT32", "tensorShape": {}}}, "dtype": {"type": "DT_INT32"}}}, {"name": "StatefulPartitionedCall/tf_bert_for_token_classification/bert/embeddings/Gather_1/axis", "op": "Const", "attr": {"value": {"tensor": {"dtype": "DT_INT32", "tensorShape": {}}}, "dtype": {"type": "DT_INT32"}}}, {"name": "unknown_1", "op": "Const", "attr": {"dtype": {"type": "DT_FLOAT"}, "value": {"tensor": {"dtype": "DT_FLOAT", "tensorShape": {"dim": [{"size": "2"}, {"size": "128"}]}}}}}, {"name": "StatefulPartitionedCall/tf_bert_for_token_classification/bert/embeddings/Gather_2/axis", "op": "Const", "attr": {"value": {"tensor": {"dtype": "DT_INT32", "tensorShape": {}}}, "dtype": {"type": "DT_INT32"}}}, {"name": "StatefulPartitionedCall/tf_bert_for_token_classification/bert/embeddings/LayerNorm/moments/mean/reduction_indices", "op": "Const", "attr": {"dtype": {"type": "DT_INT32"}, "value": {"tensor": {"dtype": "DT_INT32", "tensorShape": {"dim": [{"size": "1"}]}}}}}, {"name": "StatefulPartitionedCall/tf_bert_for_token_classification/bert/embeddings/LayerNorm/moments/variance/reduction_indices", "op": "Const", "attr": {"value": {"tensor": {"dtype": "DT_INT32", "tensorShape": {"dim": [{"size": "1"}]}}}, "dtype": {"type": "DT_INT32"}}}, {"name": "StatefulPartitionedCall/tf_bert_for_token_classification/bert/embeddings/LayerNorm/batchnorm/add/y", "op": "Const", "attr": {"value": {"tensor": {"dtype": "DT_FLOAT", "tensorShape": {}}}, "dtype": {"type": "DT_FLOAT"}}}, {"name": "StatefulPartitionedCall/tf_bert_for_token_classification/bert/embeddings/LayerNorm/batchnorm/mul/ReadVariableOp", "op": "Const", "attr": {"value": {"tensor": {"dtype": "DT_FLOAT", "tensorShape": {"dim": [{"size": "128"}]}}}, "dtype": {"type": "DT_FLOAT"}}}, {"name": "StatefulPartitionedCall/tf_bert_for_token_classification/bert/encoder/layer_._0/attention/output/LayerNorm/moments/mean/reduction_indices", "op": "Const", "attr": {"value": {"tensor": {"dtype": "DT_INT32", "tensorShape": {"dim": [{"size": "1"}]}}}, "dtype": {"type": "DT_INT32"}}}, {"name": "StatefulPartitionedCall/tf_bert_for_token_classification/bert/encoder/layer_._0/attention/output/LayerNorm/moments/variance/reduction_indices", "op": "Const", "attr": {"value": {"tensor": {"dtype": "DT_INT32", "tensorShape": {"dim": [{"size": "1"}]}}}, "dtype": {"type": "DT_INT32"}}}, {"name": "StatefulPartitionedCall/tf_bert_for_token_classification/bert/encoder/layer_._0/attention/output/LayerNorm/batchnorm/add/y", "op": "Const", "attr": {"dtype": {"type": "DT_FLOAT"}, "value": {"tensor": {"dtype": "DT_FLOAT", "tensorShape": {}}}}}, {"name": "StatefulPartitionedCall/tf_bert_for_token_classification/bert/encoder/layer_._0/attention/output/LayerNorm/batchnorm/mul/ReadVariableOp", "op": "Const", "attr": {"value": {"tensor": {"dtype": "DT_FLOAT", "tensorShape": {"dim": [{"size": "128"}]}}}, "dtype": {"type": "DT_FLOAT"}}}, {"name": "StatefulPartitionedCall/tf_bert_for_token_classification/bert/encoder/layer_._0/output/LayerNorm/moments/mean/reduction_indices", "op": "Const", "attr": {"value": {"tensor": {"dtype": "DT_INT32", "tensorShape": {"dim": [{"size": "1"}]}}}, "dtype": {"type": "DT_INT32"}}}, {"name": "StatefulPartitionedCall/tf_bert_for_token_classification/bert/encoder/layer_._0/output/LayerNorm/moments/variance/reduction_indices", "op": "Const", "attr": {"value": {"tensor": {"dtype": "DT_INT32", "tensorShape": {"dim": [{"size": "1"}]}}}, "dtype": {"type": "DT_INT32"}}}, {"name": "StatefulPartitionedCall/tf_bert_for_token_classification/bert/encoder/layer_._0/output/LayerNorm/batchnorm/add/y", "op": "Const", "attr": {"value": {"tensor": {"dtype": "DT_FLOAT", "tensorShape": {}}}, "dtype": {"type": "DT_FLOAT"}}}, {"name": "StatefulPartitionedCall/tf_bert_for_token_classification/bert/encoder/layer_._0/output/LayerNorm/batchnorm/mul/ReadVariableOp", "op": "Const", "attr": {"value": {"tensor": {"dtype": "DT_FLOAT", "tensorShape": {"dim": [{"size": "128"}]}}}, "dtype": {"type": "DT_FLOAT"}}}, {"name": "StatefulPartitionedCall/tf_bert_for_token_classification/bert/encoder/layer_._1/attention/output/LayerNorm/moments/mean/reduction_indices", "op": "Const", "attr": {"dtype": {"type": "DT_INT32"}, "value": {"tensor": {"dtype": "DT_INT32", "tensorShape": {"dim": [{"size": "1"}]}}}}}, {"name": "StatefulPartitionedCall/tf_bert_for_token_classification/bert/encoder/layer_._1/attention/output/LayerNorm/moments/variance/reduction_indices", "op": "Const", "attr": {"value": {"tensor": {"dtype": "DT_INT32", "tensorShape": {"dim": [{"size": "1"}]}}}, "dtype": {"type": "DT_INT32"}}}, {"name": "StatefulPartitionedCall/tf_bert_for_token_classification/bert/encoder/layer_._1/attention/output/LayerNorm/batchnorm/add/y", "op": "Const", "attr": {"dtype": {"type": "DT_FLOAT"}, "value": {"tensor": {"dtype": "DT_FLOAT", "tensorShape": {}}}}}, {"name": "StatefulPartitionedCall/tf_bert_for_token_classification/bert/encoder/layer_._1/attention/output/LayerNorm/batchnorm/mul/ReadVariableOp", "op": "Const", "attr": {"value": {"tensor": {"dtype": "DT_FLOAT", "tensorShape": {"dim": [{"size": "128"}]}}}, "dtype": {"type": "DT_FLOAT"}}}, {"name": "StatefulPartitionedCall/tf_bert_for_token_classification/bert/encoder/layer_._1/output/LayerNorm/moments/mean/reduction_indices", "op": "Const", "attr": {"dtype": {"type": "DT_INT32"}, "value": {"tensor": {"dtype": "DT_INT32", "tensorShape": {"dim": [{"size": "1"}]}}}}}, {"name": "StatefulPartitionedCall/tf_bert_for_token_classification/bert/encoder/layer_._1/output/LayerNorm/moments/variance/reduction_indices", "op": "Const", "attr": {"dtype": {"type": "DT_INT32"}, "value": {"tensor": {"dtype": "DT_INT32", "tensorShape": {"dim": [{"size": "1"}]}}}}}, {"name": "StatefulPartitionedCall/tf_bert_for_token_classification/bert/encoder/layer_._1/output/LayerNorm/batchnorm/add/y", "op": "Const", "attr": {"value": {"tensor": {"dtype": "DT_FLOAT", "tensorShape": {}}}, "dtype": {"type": "DT_FLOAT"}}}, {"name": "StatefulPartitionedCall/tf_bert_for_token_classification/bert/encoder/layer_._1/output/LayerNorm/batchnorm/mul/ReadVariableOp", "op": "Const", "attr": {"value": {"tensor": {"dtype": "DT_FLOAT", "tensorShape": {"dim": [{"size": "128"}]}}}, "dtype": {"type": "DT_FLOAT"}}}, {"name": "StatefulPartitionedCall/tf_bert_for_token_classification/classifier/Tensordot/free", "op": "Const", "attr": {"dtype": {"type": "DT_INT32"}, "value": {"tensor": {"dtype": "DT_INT32", "tensorShape": {"dim": [{"size": "2"}]}}}}}, {"name": "StatefulPartitionedCall/tf_bert_for_token_classification/classifier/Tensordot/GatherV2/axis", "op": "Const", "attr": {"value": {"tensor": {"dtype": "DT_INT32", "tensorShape": {}}}, "dtype": {"type": "DT_INT32"}}}, {"name": "StatefulPartitionedCall/tf_bert_for_token_classification/classifier/Tensordot/Const_2", "op": "Const", "attr": {"dtype": {"type": "DT_INT32"}, "value": {"tensor": {"dtype": "DT_INT32", "tensorShape": {"dim": [{"size": "1"}]}}}}}, {"name": "StatefulPartitionedCall/tf_bert_for_token_classification/classifier/Tensordot/concat_1/axis", "op": "Const", "attr": {"dtype": {"type": "DT_INT32"}, "value": {"tensor": {"dtype": "DT_INT32", "tensorShape": {}}}}}, {"name": "StatefulPartitionedCall/tf_bert_for_token_classification/classifier/BiasAdd/ReadVariableOp", "op": "Const", "attr": {"value": {"tensor": {"dtype": "DT_FLOAT", "tensorShape": {"dim": [{"size": "7"}]}}}, "dtype": {"type": "DT_FLOAT"}}}, {"name": "attention_mask", "op": "Placeholder", "attr": {"dtype": {"type": "DT_INT32"}, "shape": {"shape": {"dim": [{"size": "-1"}, {"size": "-1"}]}}}}, {"name": "input_ids", "op": "Placeholder", "attr": {"shape": {"shape": {"dim": [{"size": "-1"}, {"size": "-1"}]}}, "dtype": {"type": "DT_INT32"}}}, {"name": "token_type_ids", "op": "Placeholder", "attr": {"shape": {"shape": {"dim": [{"size": "-1"}, {"size": "-1"}]}}, "dtype": {"type": "DT_INT32"}}}, {"name": "StatefulPartitionedCall/tf_bert_for_token_classification/bert/Shape_1", "op": "Shape", "input": ["attention_mask"], "attr": {"T": {"type": "DT_INT32"}, "out_type": {"type": "DT_INT32"}}}, {"name": "StatefulPartitionedCall/tf_bert_for_token_classification/bert/embeddings/Gather", "op": "GatherV2", "input": ["unknown", "input_ids", "StatefulPartitionedCall/tf_bert_for_token_classification/bert/embeddings/Gather/axis"], "attr": {"Taxis": {"type": "DT_INT32"}, "Tparams": {"type": "DT_FLOAT"}, "Tindices": {"type": "DT_INT32"}, "batch_dims": {"i": "0"}}}, {"name": "StatefulPartitionedCall/tf_bert_for_token_classification/bert/embeddings/Gather_2", "op": "GatherV2", "input": ["unknown_1", "token_type_ids", "StatefulPartitionedCall/tf_bert_for_token_classification/bert/embeddings/Gather_2/axis"], "attr": {"batch_dims": {"i": "0"}, "Taxis": {"type": "DT_INT32"}, "Tparams": {"type": "DT_FLOAT"}, "Tindices": {"type": "DT_INT32"}}}, {"name": "StatefulPartitionedCall/tf_bert_for_token_classification/bert/strided_slice_2", "op": "StridedSlice", "input": ["StatefulPartitionedCall/tf_bert_for_token_classification/bert/Shape_1", "StatefulPartitionedCall/tf_bert_for_token_classification/bert/strided_slice_2/stack", "StatefulPartitionedCall/tf_bert_for_token_classification/bert/strided_slice_2/stack_1", "StatefulPartitionedCall/tf_bert_for_token_classification/bert/strided_slice_2/stack_2"], "attr": {"Index": {"type": "DT_INT32"}, "new_axis_mask": {"i": "0"}, "ellipsis_mask": {"i": "0"}, "begin_mask": {"i": "0"}, "end_mask": {"i": "0"}, "shrink_axis_mask": {"i": "1"}, "T": {"type": "DT_INT32"}}}, {"name": "StatefulPartitionedCall/tf_bert_for_token_classification/bert/strided_slice_3", "op": "StridedSlice", "input": ["StatefulPartitionedCall/tf_bert_for_token_classification/bert/Shape_1", "StatefulPartitionedCall/tf_bert_for_token_classification/bert/strided_slice_3/stack", "StatefulPartitionedCall/tf_bert_for_token_classification/bert/strided_slice_3/stack_1", "StatefulPartitionedCall/tf_bert_for_token_classification/bert/strided_slice_3/stack_2"], "attr": {"end_mask": {"i": "0"}, "ellipsis_mask": {"i": "0"}, "new_axis_mask": {"i": "0"}, "shrink_axis_mask": {"i": "1"}, "begin_mask": {"i": "0"}, "T": {"type": "DT_INT32"}, "Index": {"type": "DT_INT32"}}}, {"name": "StatefulPartitionedCall/tf_bert_for_token_classification/bert/embeddings/Shape", "op": "Shape", "input": ["StatefulPartitionedCall/tf_bert_for_token_classification/bert/embeddings/Gather"], "attr": {"out_type": {"type": "DT_INT32"}, "T": {"type": "DT_FLOAT"}}}, {"name": "StatefulPartitionedCall/tf_bert_for_token_classification/bert/Reshape/shape", "op": "Pack", "input": ["StatefulPartitionedCall/tf_bert_for_token_classification/bert/strided_slice_2", "StatefulPartitionedCall/tf_bert_for_token_classification/bert/Reshape/shape/1", "StatefulPartitionedCall/tf_bert_for_token_classification/bert/Reshape/shape/2", "StatefulPartitionedCall/tf_bert_for_token_classification/bert/strided_slice_3"], "attr": {"axis": {"i": "0"}, "T": {"type": "DT_INT32"}, "N": {"i": "4"}}}, {"name": "StatefulPartitionedCall/tf_bert_for_token_classification/bert/embeddings/strided_slice_1", "op": "StridedSlice", "input": ["StatefulPartitionedCall/tf_bert_for_token_classification/bert/embeddings/Shape", "StatefulPartitionedCall/tf_bert_for_token_classification/bert/embeddings/strided_slice_1/stack", "StatefulPartitionedCall/tf_bert_for_token_classification/bert/embeddings/strided_slice_1/stack_1", "StatefulPartitionedCall/tf_bert_for_token_classification/bert/embeddings/strided_slice_1/stack_2"], "attr": {"T": {"type": "DT_INT32"}, "shrink_axis_mask": {"i": "1"}, "Index": {"type": "DT_INT32"}, "new_axis_mask": {"i": "0"}, "end_mask": {"i": "0"}, "begin_mask": {"i": "0"}, "ellipsis_mask": {"i": "0"}}}, {"name": "StatefulPartitionedCall/tf_bert_for_token_classification/bert/Reshape", "op": "Reshape", "input": ["attention_mask", "StatefulPartitionedCall/tf_bert_for_token_classification/bert/Reshape/shape"], "attr": {"Tshape": {"type": "DT_INT32"}, "T": {"type": "DT_INT32"}}}, {"name": "StatefulPartitionedCall/tf_bert_for_token_classification/bert/embeddings/range", "op": "Range", "input": ["StatefulPartitionedCall/tf_bert_for_token_classification/bert/embeddings/range/start", "StatefulPartitionedCall/tf_bert_for_token_classification/bert/embeddings/strided_slice_1", "StatefulPartitionedCall/tf_bert_for_token_classification/bert/embeddings/range/delta"], "attr": {"Tidx": {"type": "DT_INT32"}}}, {"name": "StatefulPartitionedCall/tf_bert_for_token_classification/bert/Cast", "op": "Cast", "input": ["StatefulPartitionedCall/tf_bert_for_token_classification/bert/Reshape"], "attr": {"Truncate": {"b": false}, "DstT": {"type": "DT_FLOAT"}, "SrcT": {"type": "DT_INT32"}}}, {"name": "StatefulPartitionedCall/tf_bert_for_token_classification/bert/embeddings/ExpandDims", "op": "ExpandDims", "input": ["StatefulPartitionedCall/tf_bert_for_token_classification/bert/embeddings/range", "StatefulPartitionedCall/tf_bert_for_token_classification/bert/embeddings/ExpandDims/dim"], "attr": {"T": {"type": "DT_INT32"}, "Tdim": {"type": "DT_INT32"}}}, {"name": "StatefulPartitionedCall/tf_bert_for_token_classification/bert/Sub", "op": "Sub", "input": ["StatefulPartitionedCall/tf_bert_for_token_classification/bert/Const", "StatefulPartitionedCall/tf_bert_for_token_classification/bert/Cast"], "attr": {"T": {"type": "DT_FLOAT"}}}, {"name": "StatefulPartitionedCall/tf_bert_for_token_classification/bert/embeddings/Gather_1", "op": "GatherV2", "input": ["unknown_0", "StatefulPartitionedCall/tf_bert_for_token_classification/bert/embeddings/ExpandDims", "StatefulPartitionedCall/tf_bert_for_token_classification/bert/embeddings/Gather_1/axis"], "attr": {"Tindices": {"type": "DT_INT32"}, "Taxis": {"type": "DT_INT32"}, "batch_dims": {"i": "0"}, "Tparams": {"type": "DT_FLOAT"}}}, {"name": "StatefulPartitionedCall/tf_bert_for_token_classification/bert/Mul", "op": "Mul", "input": ["StatefulPartitionedCall/tf_bert_for_token_classification/bert/Sub", "StatefulPartitionedCall/tf_bert_for_token_classification/bert/Const_1"], "attr": {"T": {"type": "DT_FLOAT"}}}, {"name": "StatefulPartitionedCall/tf_bert_for_token_classification/bert/embeddings/add_1", "op": "AddV2", "input": ["StatefulPartitionedCall/tf_bert_for_token_classification/bert/embeddings/Gather", "StatefulPartitionedCall/tf_bert_for_token_classification/bert/embeddings/Gather_1"], "attr": {"T": {"type": "DT_FLOAT"}}}, {"name": "StatefulPartitionedCall/tf_bert_for_token_classification/bert/encoder/layer_._1/attention/self/Add", "op": "AddV2", "input": ["StatefulPartitionedCall/tf_bert_for_token_classification/bert/encoder/layer_._1/attention/self/add_1/y", "StatefulPartitionedCall/tf_bert_for_token_classification/bert/Mul"], "attr": {"T": {"type": "DT_FLOAT"}}}, {"name": "StatefulPartitionedCall/tf_bert_for_token_classification/bert/encoder/layer_._0/attention/self/Add", "op": "AddV2", "input": ["StatefulPartitionedCall/tf_bert_for_token_classification/bert/encoder/layer_._0/attention/self/add_1/y", "StatefulPartitionedCall/tf_bert_for_token_classification/bert/Mul"], "attr": {"T": {"type": "DT_FLOAT"}}}, {"name": "StatefulPartitionedCall/tf_bert_for_token_classification/bert/embeddings/add_2", "op": "AddV2", "input": ["StatefulPartitionedCall/tf_bert_for_token_classification/bert/embeddings/add_1", "StatefulPartitionedCall/tf_bert_for_token_classification/bert/embeddings/Gather_2"], "attr": {"T": {"type": "DT_FLOAT"}}}, {"name": "StatefulPartitionedCall/tf_bert_for_token_classification/bert/embeddings/LayerNorm/moments/mean", "op": "Mean", "input": ["StatefulPartitionedCall/tf_bert_for_token_classification/bert/embeddings/add_2", "StatefulPartitionedCall/tf_bert_for_token_classification/bert/embeddings/LayerNorm/moments/mean/reduction_indices"], "attr": {"Tidx": {"type": "DT_INT32"}, "keep_dims": {"b": true}, "T": {"type": "DT_FLOAT"}}}, {"name": "StatefulPartitionedCall/tf_bert_for_token_classification/bert/embeddings/LayerNorm/moments/SquaredDifference", "op": "SquaredDifference", "input": ["StatefulPartitionedCall/tf_bert_for_token_classification/bert/embeddings/add_2", "StatefulPartitionedCall/tf_bert_for_token_classification/bert/embeddings/LayerNorm/moments/mean"], "attr": {"T": {"type": "DT_FLOAT"}}}, {"name": "StatefulPartitionedCall/tf_bert_for_token_classification/bert/embeddings/LayerNorm/moments/variance", "op": "Mean", "input": ["StatefulPartitionedCall/tf_bert_for_token_classification/bert/embeddings/LayerNorm/moments/SquaredDifference", "StatefulPartitionedCall/tf_bert_for_token_classification/bert/embeddings/LayerNorm/moments/variance/reduction_indices"], "attr": {"T": {"type": "DT_FLOAT"}, "keep_dims": {"b": true}, "Tidx": {"type": "DT_INT32"}}}, {"name": "StatefulPartitionedCall/tf_bert_for_token_classification/bert/embeddings/LayerNorm/batchnorm/add", "op": "AddV2", "input": ["StatefulPartitionedCall/tf_bert_for_token_classification/bert/embeddings/LayerNorm/moments/variance", "StatefulPartitionedCall/tf_bert_for_token_classification/bert/embeddings/LayerNorm/batchnorm/add/y"], "attr": {"T": {"type": "DT_FLOAT"}}}, {"name": "StatefulPartitionedCall/tf_bert_for_token_classification/bert/embeddings/LayerNorm/batchnorm/Rsqrt", "op": "Rsqrt", "input": ["StatefulPartitionedCall/tf_bert_for_token_classification/bert/embeddings/LayerNorm/batchnorm/add"], "attr": {"T": {"type": "DT_FLOAT"}}}, {"name": "StatefulPartitionedCall/tf_bert_for_token_classification/bert/embeddings/LayerNorm/batchnorm/mul", "op": "Mul", "input": ["StatefulPartitionedCall/tf_bert_for_token_classification/bert/embeddings/LayerNorm/batchnorm/Rsqrt", "StatefulPartitionedCall/tf_bert_for_token_classification/bert/embeddings/LayerNorm/batchnorm/mul/ReadVariableOp"], "attr": {"T": {"type": "DT_FLOAT"}}}, {"name": "StatefulPartitionedCall/tf_bert_for_token_classification/bert/embeddings/LayerNorm/batchnorm/mul_2", "op": "Mul", "input": ["StatefulPartitionedCall/tf_bert_for_token_classification/bert/embeddings/LayerNorm/moments/mean", "StatefulPartitionedCall/tf_bert_for_token_classification/bert/embeddings/LayerNorm/batchnorm/mul"], "attr": {"T": {"type": "DT_FLOAT"}}}, {"name": "StatefulPartitionedCall/tf_bert_for_token_classification/bert/embeddings/LayerNorm/batchnorm/mul_1", "op": "Mul", "input": ["StatefulPartitionedCall/tf_bert_for_token_classification/bert/embeddings/add_2", "StatefulPartitionedCall/tf_bert_for_token_classification/bert/embeddings/LayerNorm/batchnorm/mul"], "attr": {"T": {"type": "DT_FLOAT"}}}, {"name": "StatefulPartitionedCall/tf_bert_for_token_classification/bert/embeddings/LayerNorm/batchnorm/sub", "op": "Sub", "input": ["StatefulPartitionedCall/tf_bert_for_token_classification/bert/embeddings/LayerNorm/batchnorm/ReadVariableOp", "StatefulPartitionedCall/tf_bert_for_token_classification/bert/embeddings/LayerNorm/batchnorm/mul_2"], "attr": {"T": {"type": "DT_FLOAT"}}}, {"name": "StatefulPartitionedCall/tf_bert_for_token_classification/bert/embeddings/LayerNorm/batchnorm/add_1", "op": "AddV2", "input": ["StatefulPartitionedCall/tf_bert_for_token_classification/bert/embeddings/LayerNorm/batchnorm/mul_1", "StatefulPartitionedCall/tf_bert_for_token_classification/bert/embeddings/LayerNorm/batchnorm/sub"], "attr": {"T": {"type": "DT_FLOAT"}}}, {"name": "StatefulPartitionedCall/tf_bert_for_token_classification/bert/encoder/layer_._0/attention/self/query/Tensordot/Shape", "op": "Shape", "input": ["StatefulPartitionedCall/tf_bert_for_token_classification/bert/embeddings/LayerNorm/batchnorm/add_1"], "attr": {"T": {"type": "DT_FLOAT"}, "out_type": {"type": "DT_INT32"}}}, {"name": "StatefulPartitionedCall/tf_bert_for_token_classification/bert/encoder/layer_._0/attention/self/key/Tensordot/Shape", "op": "Shape", "input": ["StatefulPartitionedCall/tf_bert_for_token_classification/bert/embeddings/LayerNorm/batchnorm/add_1"], "attr": {"out_type": {"type": "DT_INT32"}, "T": {"type": "DT_FLOAT"}}}, {"name": "StatefulPartitionedCall/tf_bert_for_token_classification/bert/encoder/layer_._0/attention/self/value/Tensordot/Shape", "op": "Shape", "input": ["StatefulPartitionedCall/tf_bert_for_token_classification/bert/embeddings/LayerNorm/batchnorm/add_1"], "attr": {"out_type": {"type": "DT_INT32"}, "T": {"type": "DT_FLOAT"}}}, {"name": "StatefulPartitionedCall/tf_bert_for_token_classification/bert/encoder/layer_._0/attention/self/Shape", "op": "Shape", "input": ["StatefulPartitionedCall/tf_bert_for_token_classification/bert/embeddings/LayerNorm/batchnorm/add_1"], "attr": {"out_type": {"type": "DT_INT32"}, "T": {"type": "DT_FLOAT"}}}, {"name": "StatefulPartitionedCall/tf_bert_for_token_classification/bert/encoder/layer_._0/attention/self/query/Tensordot/GatherV2_1", "op": "GatherV2", "input": ["StatefulPartitionedCall/tf_bert_for_token_classification/bert/encoder/layer_._0/attention/self/query/Tensordot/Shape", "StatefulPartitionedCall/tf_bert_for_token_classification/bert/encoder/layer_._0/attention/self/query/Tensordot/axes", "StatefulPartitionedCall/tf_bert_for_token_classification/bert/encoder/layer_._0/attention/self/query/Tensordot/GatherV2_1/axis"], "attr": {"Tparams": {"type": "DT_INT32"}, "batch_dims": {"i": "0"}, "Tindices": {"type": "DT_INT32"}, "Taxis": {"type": "DT_INT32"}}}, {"name": "StatefulPartitionedCall/tf_bert_for_token_classification/bert/encoder/layer_._0/attention/self/query/Tensordot/GatherV2", "op": "GatherV2", "input": ["StatefulPartitionedCall/tf_bert_for_token_classification/bert/encoder/layer_._0/attention/self/query/Tensordot/Shape", "StatefulPartitionedCall/tf_bert_for_token_classification/bert/encoder/layer_._0/attention/self/query/Tensordot/free", "StatefulPartitionedCall/tf_bert_for_token_classification/bert/encoder/layer_._0/attention/self/query/Tensordot/GatherV2/axis"], "attr": {"Tindices": {"type": "DT_INT32"}, "batch_dims": {"i": "0"}, "Tparams": {"type": "DT_INT32"}, "Taxis": {"type": "DT_INT32"}}}, {"name": "StatefulPartitionedCall/tf_bert_for_token_classification/bert/encoder/layer_._0/attention/self/key/Tensordot/GatherV2_1", "op": "GatherV2", "input": ["StatefulPartitionedCall/tf_bert_for_token_classification/bert/encoder/layer_._0/attention/self/key/Tensordot/Shape", "StatefulPartitionedCall/tf_bert_for_token_classification/bert/encoder/layer_._0/attention/self/key/Tensordot/axes", "StatefulPartitionedCall/tf_bert_for_token_classification/bert/encoder/layer_._0/attention/self/key/Tensordot/GatherV2_1/axis"], "attr": {"Tindices": {"type": "DT_INT32"}, "Taxis": {"type": "DT_INT32"}, "Tparams": {"type": "DT_INT32"}, "batch_dims": {"i": "0"}}}, {"name": "StatefulPartitionedCall/tf_bert_for_token_classification/bert/encoder/layer_._0/attention/self/key/Tensordot/GatherV2", "op": "GatherV2", "input": ["StatefulPartitionedCall/tf_bert_for_token_classification/bert/encoder/layer_._0/attention/self/key/Tensordot/Shape", "StatefulPartitionedCall/tf_bert_for_token_classification/bert/encoder/layer_._0/attention/self/key/Tensordot/free", "StatefulPartitionedCall/tf_bert_for_token_classification/bert/encoder/layer_._0/attention/self/key/Tensordot/GatherV2/axis"], "attr": {"Tparams": {"type": "DT_INT32"}, "Taxis": {"type": "DT_INT32"}, "batch_dims": {"i": "0"}, "Tindices": {"type": "DT_INT32"}}}, {"name": "StatefulPartitionedCall/tf_bert_for_token_classification/bert/encoder/layer_._0/attention/self/value/Tensordot/GatherV2_1", "op": "GatherV2", "input": ["StatefulPartitionedCall/tf_bert_for_token_classification/bert/encoder/layer_._0/attention/self/value/Tensordot/Shape", "StatefulPartitionedCall/tf_bert_for_token_classification/bert/encoder/layer_._0/attention/self/value/Tensordot/axes", "StatefulPartitionedCall/tf_bert_for_token_classification/bert/encoder/layer_._0/attention/self/value/Tensordot/GatherV2_1/axis"], "attr": {"batch_dims": {"i": "0"}, "Tindices": {"type": "DT_INT32"}, "Tparams": {"type": "DT_INT32"}, "Taxis": {"type": "DT_INT32"}}}, {"name": "StatefulPartitionedCall/tf_bert_for_token_classification/bert/encoder/layer_._0/attention/self/value/Tensordot/GatherV2", "op": "GatherV2", "input": ["StatefulPartitionedCall/tf_bert_for_token_classification/bert/encoder/layer_._0/attention/self/value/Tensordot/Shape", "StatefulPartitionedCall/tf_bert_for_token_classification/bert/encoder/layer_._0/attention/self/value/Tensordot/free", "StatefulPartitionedCall/tf_bert_for_token_classification/bert/encoder/layer_._0/attention/self/value/Tensordot/GatherV2/axis"], "attr": {"Tparams": {"type": "DT_INT32"}, "Tindices": {"type": "DT_INT32"}, "Taxis": {"type": "DT_INT32"}, "batch_dims": {"i": "0"}}}, {"name": "StatefulPartitionedCall/tf_bert_for_token_classification/bert/encoder/layer_._0/attention/self/strided_slice", "op": "StridedSlice", "input": ["StatefulPartitionedCall/tf_bert_for_token_classification/bert/encoder/layer_._0/attention/self/Shape", "StatefulPartitionedCall/tf_bert_for_token_classification/bert/encoder/layer_._0/attention/self/strided_slice/stack", "StatefulPartitionedCall/tf_bert_for_token_classification/bert/encoder/layer_._0/attention/self/strided_slice/stack_1", "StatefulPartitionedCall/tf_bert_for_token_classification/bert/encoder/layer_._0/attention/self/strided_slice/stack_2"], "attr": {"new_axis_mask": {"i": "0"}, "end_mask": {"i": "0"}, "begin_mask": {"i": "0"}, "T": {"type": "DT_INT32"}, "Index": {"type": "DT_INT32"}, "shrink_axis_mask": {"i": "1"}, "ellipsis_mask": {"i": "0"}}}, {"name": "StatefulPartitionedCall/tf_bert_for_token_classification/bert/encoder/layer_._0/attention/self/query/Tensordot/Prod_1", "op": "Prod", "input": ["StatefulPartitionedCall/tf_bert_for_token_classification/bert/encoder/layer_._0/attention/self/query/Tensordot/GatherV2_1", "StatefulPartitionedCall/tf_bert_for_token_classification/bert/encoder/layer_._0/attention/self/query/Tensordot/Const_1"], "attr": {"Tidx": {"type": "DT_INT32"}, "keep_dims": {"b": false}, "T": {"type": "DT_INT32"}}}, {"name": "StatefulPartitionedCall/tf_bert_for_token_classification/bert/encoder/layer_._0/attention/self/query/Tensordot/Prod", "op": "Prod", "input": ["StatefulPartitionedCall/tf_bert_for_token_classification/bert/encoder/layer_._0/attention/self/query/Tensordot/GatherV2", "StatefulPartitionedCall/tf_bert_for_token_classification/bert/encoder/layer_._0/attention/self/query/Tensordot/Const"], "attr": {"Tidx": {"type": "DT_INT32"}, "keep_dims": {"b": false}, "T": {"type": "DT_INT32"}}}, {"name": "StatefulPartitionedCall/tf_bert_for_token_classification/bert/encoder/layer_._0/attention/self/query/Tensordot/concat_1", "op": "ConcatV2", "input": ["StatefulPartitionedCall/tf_bert_for_token_classification/bert/encoder/layer_._0/attention/self/query/Tensordot/GatherV2", "StatefulPartitionedCall/tf_bert_for_token_classification/bert/encoder/layer_._0/attention/self/query/Tensordot/Const_2", "StatefulPartitionedCall/tf_bert_for_token_classification/bert/encoder/layer_._0/attention/self/query/Tensordot/concat_1/axis"], "attr": {"N": {"i": "2"}, "T": {"type": "DT_INT32"}, "Tidx": {"type": "DT_INT32"}}}, {"name": "StatefulPartitionedCall/tf_bert_for_token_classification/bert/encoder/layer_._0/attention/self/key/Tensordot/Prod_1", "op": "Prod", "input": ["StatefulPartitionedCall/tf_bert_for_token_classification/bert/encoder/layer_._0/attention/self/key/Tensordot/GatherV2_1", "StatefulPartitionedCall/tf_bert_for_token_classification/bert/encoder/layer_._0/attention/self/key/Tensordot/Const_1"], "attr": {"T": {"type": "DT_INT32"}, "keep_dims": {"b": false}, "Tidx": {"type": "DT_INT32"}}}, {"name": "StatefulPartitionedCall/tf_bert_for_token_classification/bert/encoder/layer_._0/attention/self/key/Tensordot/Prod", "op": "Prod", "input": ["StatefulPartitionedCall/tf_bert_for_token_classification/bert/encoder/layer_._0/attention/self/key/Tensordot/GatherV2", "StatefulPartitionedCall/tf_bert_for_token_classification/bert/encoder/layer_._0/attention/self/key/Tensordot/Const"], "attr": {"T": {"type": "DT_INT32"}, "Tidx": {"type": "DT_INT32"}, "keep_dims": {"b": false}}}, {"name": "StatefulPartitionedCall/tf_bert_for_token_classification/bert/encoder/layer_._0/attention/self/key/Tensordot/concat_1", "op": "ConcatV2", "input": ["StatefulPartitionedCall/tf_bert_for_token_classification/bert/encoder/layer_._0/attention/self/key/Tensordot/GatherV2", "StatefulPartitionedCall/tf_bert_for_token_classification/bert/encoder/layer_._0/attention/self/key/Tensordot/Const_2", "StatefulPartitionedCall/tf_bert_for_token_classification/bert/encoder/layer_._0/attention/self/key/Tensordot/concat_1/axis"], "attr": {"N": {"i": "2"}, "Tidx": {"type": "DT_INT32"}, "T": {"type": "DT_INT32"}}}, {"name": "StatefulPartitionedCall/tf_bert_for_token_classification/bert/encoder/layer_._0/attention/self/value/Tensordot/Prod_1", "op": "Prod", "input": ["StatefulPartitionedCall/tf_bert_for_token_classification/bert/encoder/layer_._0/attention/self/value/Tensordot/GatherV2_1", "StatefulPartitionedCall/tf_bert_for_token_classification/bert/encoder/layer_._0/attention/self/value/Tensordot/Const_1"], "attr": {"keep_dims": {"b": false}, "Tidx": {"type": "DT_INT32"}, "T": {"type": "DT_INT32"}}}, {"name": "StatefulPartitionedCall/tf_bert_for_token_classification/bert/encoder/layer_._0/attention/self/value/Tensordot/Prod", "op": "Prod", "input": ["StatefulPartitionedCall/tf_bert_for_token_classification/bert/encoder/layer_._0/attention/self/value/Tensordot/GatherV2", "StatefulPartitionedCall/tf_bert_for_token_classification/bert/encoder/layer_._0/attention/self/value/Tensordot/Const"], "attr": {"keep_dims": {"b": false}, "Tidx": {"type": "DT_INT32"}, "T": {"type": "DT_INT32"}}}, {"name": "StatefulPartitionedCall/tf_bert_for_token_classification/bert/encoder/layer_._0/attention/self/value/Tensordot/concat_1", "op": "ConcatV2", "input": ["StatefulPartitionedCall/tf_bert_for_token_classification/bert/encoder/layer_._0/attention/self/value/Tensordot/GatherV2", "StatefulPartitionedCall/tf_bert_for_token_classification/bert/encoder/layer_._0/attention/self/value/Tensordot/Const_2", "StatefulPartitionedCall/tf_bert_for_token_classification/bert/encoder/layer_._0/attention/self/value/Tensordot/concat_1/axis"], "attr": {"Tidx": {"type": "DT_INT32"}, "N": {"i": "2"}, "T": {"type": "DT_INT32"}}}, {"name": "StatefulPartitionedCall/tf_bert_for_token_classification/bert/encoder/layer_._0/attention/self/Reshape_2/shape", "op": "Pack", "input": ["StatefulPartitionedCall/tf_bert_for_token_classification/bert/encoder/layer_._0/attention/self/strided_slice", "StatefulPartitionedCall/tf_bert_for_token_classification/bert/encoder/layer_._0/attention/self/Reshape_2/shape/1", "StatefulPartitionedCall/tf_bert_for_token_classification/bert/encoder/layer_._0/attention/self/Reshape_2/shape/2", "StatefulPartitionedCall/tf_bert_for_token_classification/bert/encoder/layer_._0/attention/self/Reshape_2/shape/3"], "attr": {"axis": {"i": "0"}, "N": {"i": "4"}, "T": {"type": "DT_INT32"}}}, {"name": "StatefulPartitionedCall/tf_bert_for_token_classification/bert/encoder/layer_._0/attention/self/Reshape/shape", "op": "Pack", "input": ["StatefulPartitionedCall/tf_bert_for_token_classification/bert/encoder/layer_._0/attention/self/strided_slice", "StatefulPartitionedCall/tf_bert_for_token_classification/bert/encoder/layer_._0/attention/self/Reshape/shape/1", "StatefulPartitionedCall/tf_bert_for_token_classification/bert/encoder/layer_._0/attention/self/Reshape/shape/2", "StatefulPartitionedCall/tf_bert_for_token_classification/bert/encoder/layer_._0/attention/self/Reshape/shape/3"], "attr": {"T": {"type": "DT_INT32"}, "axis": {"i": "0"}, "N": {"i": "4"}}}, {"name": "StatefulPartitionedCall/tf_bert_for_token_classification/bert/encoder/layer_._0/attention/self/Reshape_1/shape", "op": "Pack", "input": ["StatefulPartitionedCall/tf_bert_for_token_classification/bert/encoder/layer_._0/attention/self/strided_slice", "StatefulPartitionedCall/tf_bert_for_token_classification/bert/encoder/layer_._0/attention/self/Reshape_1/shape/1", "StatefulPartitionedCall/tf_bert_for_token_classification/bert/encoder/layer_._0/attention/self/Reshape_1/shape/2", "StatefulPartitionedCall/tf_bert_for_token_classification/bert/encoder/layer_._0/attention/self/Reshape_1/shape/3"], "attr": {"axis": {"i": "0"}, "N": {"i": "4"}, "T": {"type": "DT_INT32"}}}, {"name": "StatefulPartitionedCall/tf_bert_for_token_classification/bert/encoder/layer_._0/attention/self/Reshape_3/shape", "op": "Pack", "input": ["StatefulPartitionedCall/tf_bert_for_token_classification/bert/encoder/layer_._0/attention/self/strided_slice", "StatefulPartitionedCall/tf_bert_for_token_classification/bert/encoder/layer_._0/attention/self/Reshape_3/shape/1", "StatefulPartitionedCall/tf_bert_for_token_classification/bert/encoder/layer_._0/attention/self/Reshape_3/shape/2"], "attr": {"axis": {"i": "0"}, "N": {"i": "3"}, "T": {"type": "DT_INT32"}}}, {"name": "StatefulPartitionedCall/tf_bert_for_token_classification/bert/encoder/layer_._0/attention/self/query/Tensordot/stack", "op": "Pack", "input": ["StatefulPartitionedCall/tf_bert_for_token_classification/bert/encoder/layer_._0/attention/self/query/Tensordot/Prod", "StatefulPartitionedCall/tf_bert_for_token_classification/bert/encoder/layer_._0/attention/self/query/Tensordot/Prod_1"], "attr": {"N": {"i": "2"}, "axis": {"i": "0"}, "T": {"type": "DT_INT32"}}}, {"name": "StatefulPartitionedCall/tf_bert_for_token_classification/bert/encoder/layer_._0/attention/self/key/Tensordot/stack", "op": "Pack", "input": ["StatefulPartitionedCall/tf_bert_for_token_classification/bert/encoder/layer_._0/attention/self/key/Tensordot/Prod", "StatefulPartitionedCall/tf_bert_for_token_classification/bert/encoder/layer_._0/attention/self/key/Tensordot/Prod_1"], "attr": {"T": {"type": "DT_INT32"}, "N": {"i": "2"}, "axis": {"i": "0"}}}, {"name": "StatefulPartitionedCall/tf_bert_for_token_classification/bert/encoder/layer_._0/attention/self/value/Tensordot/stack", "op": "Pack", "input": ["StatefulPartitionedCall/tf_bert_for_token_classification/bert/encoder/layer_._0/attention/self/value/Tensordot/Prod", "StatefulPartitionedCall/tf_bert_for_token_classification/bert/encoder/layer_._0/attention/self/value/Tensordot/Prod_1"], "attr": {"axis": {"i": "0"}, "N": {"i": "2"}, "T": {"type": "DT_INT32"}}}, {"name": "StatefulPartitionedCall/tf_bert_for_token_classification/bert/encoder/layer_._0/attention/self/query/Tensordot/Reshape", "op": "Reshape", "input": ["StatefulPartitionedCall/tf_bert_for_token_classification/bert/embeddings/LayerNorm/batchnorm/add_1", "StatefulPartitionedCall/tf_bert_for_token_classification/bert/encoder/layer_._0/attention/self/query/Tensordot/stack"], "attr": {"T": {"type": "DT_FLOAT"}, "Tshape": {"type": "DT_INT32"}}}, {"name": "StatefulPartitionedCall/tf_bert_for_token_classification/bert/encoder/layer_._0/attention/self/key/Tensordot/Reshape", "op": "Reshape", "input": ["StatefulPartitionedCall/tf_bert_for_token_classification/bert/embeddings/LayerNorm/batchnorm/add_1", "StatefulPartitionedCall/tf_bert_for_token_classification/bert/encoder/layer_._0/attention/self/key/Tensordot/stack"], "attr": {"Tshape": {"type": "DT_INT32"}, "T": {"type": "DT_FLOAT"}}}, {"name": "StatefulPartitionedCall/tf_bert_for_token_classification/bert/encoder/layer_._0/attention/self/value/Tensordot/Reshape", "op": "Reshape", "input": ["StatefulPartitionedCall/tf_bert_for_token_classification/bert/embeddings/LayerNorm/batchnorm/add_1", "StatefulPartitionedCall/tf_bert_for_token_classification/bert/encoder/layer_._0/attention/self/value/Tensordot/stack"], "attr": {"Tshape": {"type": "DT_INT32"}, "T": {"type": "DT_FLOAT"}}}, {"name": "StatefulPartitionedCall/tf_bert_for_token_classification/bert/encoder/layer_._0/attention/self/query/Tensordot/MatMul", "op": "MatMul", "input": ["StatefulPartitionedCall/tf_bert_for_token_classification/bert/encoder/layer_._0/attention/self/query/Tensordot/Reshape", "StatefulPartitionedCall/tf_bert_for_token_classification/bert/encoder/layer_._0/attention/self/query/Tensordot/ReadVariableOp"], "device": "/device:CPU:0", "attr": {"transpose_b": {"b": false}, "transpose_a": {"b": false}, "T": {"type": "DT_FLOAT"}}}, {"name": "StatefulPartitionedCall/tf_bert_for_token_classification/bert/encoder/layer_._0/attention/self/key/Tensordot/MatMul", "op": "MatMul", "input": ["StatefulPartitionedCall/tf_bert_for_token_classification/bert/encoder/layer_._0/attention/self/key/Tensordot/Reshape", "StatefulPartitionedCall/tf_bert_for_token_classification/bert/encoder/layer_._0/attention/self/key/Tensordot/ReadVariableOp"], "device": "/device:CPU:0", "attr": {"T": {"type": "DT_FLOAT"}, "transpose_a": {"b": false}, "transpose_b": {"b": false}}}, {"name": "StatefulPartitionedCall/tf_bert_for_token_classification/bert/encoder/layer_._0/attention/self/value/Tensordot/MatMul", "op": "MatMul", "input": ["StatefulPartitionedCall/tf_bert_for_token_classification/bert/encoder/layer_._0/attention/self/value/Tensordot/Reshape", "StatefulPartitionedCall/tf_bert_for_token_classification/bert/encoder/layer_._0/attention/self/value/Tensordot/ReadVariableOp"], "device": "/device:CPU:0", "attr": {"transpose_a": {"b": false}, "T": {"type": "DT_FLOAT"}, "transpose_b": {"b": false}}}, {"name": "StatefulPartitionedCall/tf_bert_for_token_classification/bert/encoder/layer_._0/attention/self/query/Tensordot", "op": "Reshape", "input": ["StatefulPartitionedCall/tf_bert_for_token_classification/bert/encoder/layer_._0/attention/self/query/Tensordot/MatMul", "StatefulPartitionedCall/tf_bert_for_token_classification/bert/encoder/layer_._0/attention/self/query/Tensordot/concat_1"], "attr": {"Tshape": {"type": "DT_INT32"}, "T": {"type": "DT_FLOAT"}}}, {"name": "StatefulPartitionedCall/tf_bert_for_token_classification/bert/encoder/layer_._0/attention/self/key/Tensordot", "op": "Reshape", "input": ["StatefulPartitionedCall/tf_bert_for_token_classification/bert/encoder/layer_._0/attention/self/key/Tensordot/MatMul", "StatefulPartitionedCall/tf_bert_for_token_classification/bert/encoder/layer_._0/attention/self/key/Tensordot/concat_1"], "attr": {"Tshape": {"type": "DT_INT32"}, "T": {"type": "DT_FLOAT"}}}, {"name": "StatefulPartitionedCall/tf_bert_for_token_classification/bert/encoder/layer_._0/attention/self/value/Tensordot", "op": "Reshape", "input": ["StatefulPartitionedCall/tf_bert_for_token_classification/bert/encoder/layer_._0/attention/self/value/Tensordot/MatMul", "StatefulPartitionedCall/tf_bert_for_token_classification/bert/encoder/layer_._0/attention/self/value/Tensordot/concat_1"], "attr": {"T": {"type": "DT_FLOAT"}, "Tshape": {"type": "DT_INT32"}}}, {"name": "StatefulPartitionedCall/tf_bert_for_token_classification/bert/encoder/layer_._0/attention/self/query/BiasAdd", "op": "BiasAdd", "input": ["StatefulPartitionedCall/tf_bert_for_token_classification/bert/encoder/layer_._0/attention/self/query/Tensordot", "StatefulPartitionedCall/tf_bert_for_token_classification/bert/encoder/layer_._0/attention/self/query/BiasAdd/ReadVariableOp"], "attr": {"data_format": {"s": "TkhXQw=="}, "T": {"type": "DT_FLOAT"}}}, {"name": "StatefulPartitionedCall/tf_bert_for_token_classification/bert/encoder/layer_._0/attention/self/key/BiasAdd", "op": "BiasAdd", "input": ["StatefulPartitionedCall/tf_bert_for_token_classification/bert/encoder/layer_._0/attention/self/key/Tensordot", "StatefulPartitionedCall/tf_bert_for_token_classification/bert/encoder/layer_._0/attention/self/key/BiasAdd/ReadVariableOp"], "attr": {"T": {"type": "DT_FLOAT"}, "data_format": {"s": "TkhXQw=="}}}, {"name": "StatefulPartitionedCall/tf_bert_for_token_classification/bert/encoder/layer_._0/attention/self/value/BiasAdd", "op": "BiasAdd", "input": ["StatefulPartitionedCall/tf_bert_for_token_classification/bert/encoder/layer_._0/attention/self/value/Tensordot", "StatefulPartitionedCall/tf_bert_for_token_classification/bert/encoder/layer_._0/attention/self/value/BiasAdd/ReadVariableOp"], "attr": {"data_format": {"s": "TkhXQw=="}, "T": {"type": "DT_FLOAT"}}}, {"name": "StatefulPartitionedCall/tf_bert_for_token_classification/bert/encoder/layer_._0/attention/self/Reshape_2", "op": "Reshape", "input": ["StatefulPartitionedCall/tf_bert_for_token_classification/bert/encoder/layer_._0/attention/self/query/BiasAdd", "StatefulPartitionedCall/tf_bert_for_token_classification/bert/encoder/layer_._0/attention/self/Reshape_2/shape"], "attr": {"Tshape": {"type": "DT_INT32"}, "T": {"type": "DT_FLOAT"}}}, {"name": "StatefulPartitionedCall/tf_bert_for_token_classification/bert/encoder/layer_._0/attention/self/Reshape", "op": "Reshape", "input": ["StatefulPartitionedCall/tf_bert_for_token_classification/bert/encoder/layer_._0/attention/self/key/BiasAdd", "StatefulPartitionedCall/tf_bert_for_token_classification/bert/encoder/layer_._0/attention/self/Reshape/shape"], "attr": {"Tshape": {"type": "DT_INT32"}, "T": {"type": "DT_FLOAT"}}}, {"name": "StatefulPartitionedCall/tf_bert_for_token_classification/bert/encoder/layer_._0/attention/self/Reshape_1", "op": "Reshape", "input": ["StatefulPartitionedCall/tf_bert_for_token_classification/bert/encoder/layer_._0/attention/self/value/BiasAdd", "StatefulPartitionedCall/tf_bert_for_token_classification/bert/encoder/layer_._0/attention/self/Reshape_1/shape"], "attr": {"T": {"type": "DT_FLOAT"}, "Tshape": {"type": "DT_INT32"}}}, {"name": "StatefulPartitionedCall/tf_bert_for_token_classification/bert/encoder/layer_._0/attention/self/transpose_2", "op": "Transpose", "input": ["StatefulPartitionedCall/tf_bert_for_token_classification/bert/encoder/layer_._0/attention/self/Reshape_2", "StatefulPartitionedCall/tf_bert_for_token_classification/bert/encoder/layer_._0/attention/self/transpose_2/perm"], "attr": {"Tperm": {"type": "DT_INT32"}, "T": {"type": "DT_FLOAT"}}}, {"name": "StatefulPartitionedCall/tf_bert_for_token_classification/bert/encoder/layer_._0/attention/self/transpose", "op": "Transpose", "input": ["StatefulPartitionedCall/tf_bert_for_token_classification/bert/encoder/layer_._0/attention/self/Reshape", "StatefulPartitionedCall/tf_bert_for_token_classification/bert/encoder/layer_._0/attention/self/transpose/perm"], "attr": {"T": {"type": "DT_FLOAT"}, "Tperm": {"type": "DT_INT32"}}}, {"name": "StatefulPartitionedCall/tf_bert_for_token_classification/bert/encoder/layer_._0/attention/self/transpose_1", "op": "Transpose", "input": ["StatefulPartitionedCall/tf_bert_for_token_classification/bert/encoder/layer_._0/attention/self/Reshape_1", "StatefulPartitionedCall/tf_bert_for_token_classification/bert/encoder/layer_._0/attention/self/transpose_1/perm"], "attr": {"T": {"type": "DT_FLOAT"}, "Tperm": {"type": "DT_INT32"}}}, {"name": "StatefulPartitionedCall/tf_bert_for_token_classification/bert/encoder/layer_._0/attention/self/MatMul", "op": "BatchMatMulV2", "input": ["StatefulPartitionedCall/tf_bert_for_token_classification/bert/encoder/layer_._0/attention/self/transpose_2", "StatefulPartitionedCall/tf_bert_for_token_classification/bert/encoder/layer_._0/attention/self/transpose"], "attr": {"adj_x": {"b": false}, "adj_y": {"b": true}, "T": {"type": "DT_FLOAT"}}}, {"name": "StatefulPartitionedCall/tf_bert_for_token_classification/bert/encoder/layer_._0/attention/self/truediv", "op": "Mul", "input": ["StatefulPartitionedCall/tf_bert_for_token_classification/bert/encoder/layer_._0/attention/self/MatMul", "ConstantFolding/StatefulPartitionedCall/tf_bert_for_token_classification/bert/encoder/layer_._0/attention/self/truediv_recip"], "attr": {"T": {"type": "DT_FLOAT"}}}, {"name": "StatefulPartitionedCall/tf_bert_for_token_classification/bert/encoder/layer_._0/attention/self/add_1", "op": "AddV2", "input": ["StatefulPartitionedCall/tf_bert_for_token_classification/bert/encoder/layer_._0/attention/self/truediv", "StatefulPartitionedCall/tf_bert_for_token_classification/bert/encoder/layer_._0/attention/self/Add"], "attr": {"T": {"type": "DT_FLOAT"}}}, {"name": "StatefulPartitionedCall/tf_bert_for_token_classification/bert/encoder/layer_._0/attention/self/Softmax", "op": "Softmax", "input": ["StatefulPartitionedCall/tf_bert_for_token_classification/bert/encoder/layer_._0/attention/self/add_1"], "attr": {"T": {"type": "DT_FLOAT"}}}, {"name": "StatefulPartitionedCall/tf_bert_for_token_classification/bert/encoder/layer_._0/attention/self/MatMul_1", "op": "BatchMatMulV2", "input": ["StatefulPartitionedCall/tf_bert_for_token_classification/bert/encoder/layer_._0/attention/self/Softmax", "StatefulPartitionedCall/tf_bert_for_token_classification/bert/encoder/layer_._0/attention/self/transpose_1"], "attr": {"adj_x": {"b": false}, "T": {"type": "DT_FLOAT"}, "adj_y": {"b": false}}}, {"name": "StatefulPartitionedCall/tf_bert_for_token_classification/bert/encoder/layer_._0/attention/self/transpose_3", "op": "Transpose", "input": ["StatefulPartitionedCall/tf_bert_for_token_classification/bert/encoder/layer_._0/attention/self/MatMul_1", "StatefulPartitionedCall/tf_bert_for_token_classification/bert/encoder/layer_._0/attention/self/transpose_3/perm"], "attr": {"Tperm": {"type": "DT_INT32"}, "T": {"type": "DT_FLOAT"}}}, {"name": "StatefulPartitionedCall/tf_bert_for_token_classification/bert/encoder/layer_._0/attention/self/Reshape_3", "op": "Reshape", "input": ["StatefulPartitionedCall/tf_bert_for_token_classification/bert/encoder/layer_._0/attention/self/transpose_3", "StatefulPartitionedCall/tf_bert_for_token_classification/bert/encoder/layer_._0/attention/self/Reshape_3/shape"], "attr": {"Tshape": {"type": "DT_INT32"}, "T": {"type": "DT_FLOAT"}}}, {"name": "StatefulPartitionedCall/tf_bert_for_token_classification/bert/encoder/layer_._0/attention/output/dense/Tensordot/Shape", "op": "Shape", "input": ["StatefulPartitionedCall/tf_bert_for_token_classification/bert/encoder/layer_._0/attention/self/Reshape_3"], "attr": {"T": {"type": "DT_FLOAT"}, "out_type": {"type": "DT_INT32"}}}, {"name": "StatefulPartitionedCall/tf_bert_for_token_classification/bert/encoder/layer_._0/attention/output/dense/Tensordot/GatherV2_1", "op": "GatherV2", "input": ["StatefulPartitionedCall/tf_bert_for_token_classification/bert/encoder/layer_._0/attention/output/dense/Tensordot/Shape", "StatefulPartitionedCall/tf_bert_for_token_classification/bert/encoder/layer_._0/attention/output/dense/Tensordot/axes", "StatefulPartitionedCall/tf_bert_for_token_classification/bert/encoder/layer_._0/attention/output/dense/Tensordot/GatherV2_1/axis"], "attr": {"Taxis": {"type": "DT_INT32"}, "Tparams": {"type": "DT_INT32"}, "batch_dims": {"i": "0"}, "Tindices": {"type": "DT_INT32"}}}, {"name": "StatefulPartitionedCall/tf_bert_for_token_classification/bert/encoder/layer_._0/attention/output/dense/Tensordot/GatherV2", "op": "GatherV2", "input": ["StatefulPartitionedCall/tf_bert_for_token_classification/bert/encoder/layer_._0/attention/output/dense/Tensordot/Shape", "StatefulPartitionedCall/tf_bert_for_token_classification/bert/encoder/layer_._0/attention/output/dense/Tensordot/free", "StatefulPartitionedCall/tf_bert_for_token_classification/bert/encoder/layer_._0/attention/output/dense/Tensordot/GatherV2/axis"], "attr": {"Taxis": {"type": "DT_INT32"}, "Tindices": {"type": "DT_INT32"}, "Tparams": {"type": "DT_INT32"}, "batch_dims": {"i": "0"}}}, {"name": "StatefulPartitionedCall/tf_bert_for_token_classification/bert/encoder/layer_._0/attention/output/dense/Tensordot/Prod_1", "op": "Prod", "input": ["StatefulPartitionedCall/tf_bert_for_token_classification/bert/encoder/layer_._0/attention/output/dense/Tensordot/GatherV2_1", "StatefulPartitionedCall/tf_bert_for_token_classification/bert/encoder/layer_._0/attention/output/dense/Tensordot/Const_1"], "attr": {"T": {"type": "DT_INT32"}, "Tidx": {"type": "DT_INT32"}, "keep_dims": {"b": false}}}, {"name": "StatefulPartitionedCall/tf_bert_for_token_classification/bert/encoder/layer_._0/attention/output/dense/Tensordot/Prod", "op": "Prod", "input": ["StatefulPartitionedCall/tf_bert_for_token_classification/bert/encoder/layer_._0/attention/output/dense/Tensordot/GatherV2", "StatefulPartitionedCall/tf_bert_for_token_classification/bert/encoder/layer_._0/attention/output/dense/Tensordot/Const"], "attr": {"Tidx": {"type": "DT_INT32"}, "T": {"type": "DT_INT32"}, "keep_dims": {"b": false}}}, {"name": "StatefulPartitionedCall/tf_bert_for_token_classification/bert/encoder/layer_._0/attention/output/dense/Tensordot/concat_1", "op": "ConcatV2", "input": ["StatefulPartitionedCall/tf_bert_for_token_classification/bert/encoder/layer_._0/attention/output/dense/Tensordot/GatherV2", "StatefulPartitionedCall/tf_bert_for_token_classification/bert/encoder/layer_._0/attention/output/dense/Tensordot/Const_2", "StatefulPartitionedCall/tf_bert_for_token_classification/bert/encoder/layer_._0/attention/output/dense/Tensordot/concat_1/axis"], "attr": {"N": {"i": "2"}, "T": {"type": "DT_INT32"}, "Tidx": {"type": "DT_INT32"}}}, {"name": "StatefulPartitionedCall/tf_bert_for_token_classification/bert/encoder/layer_._0/attention/output/dense/Tensordot/stack", "op": "Pack", "input": ["StatefulPartitionedCall/tf_bert_for_token_classification/bert/encoder/layer_._0/attention/output/dense/Tensordot/Prod", "StatefulPartitionedCall/tf_bert_for_token_classification/bert/encoder/layer_._0/attention/output/dense/Tensordot/Prod_1"], "attr": {"N": {"i": "2"}, "axis": {"i": "0"}, "T": {"type": "DT_INT32"}}}, {"name": "StatefulPartitionedCall/tf_bert_for_token_classification/bert/encoder/layer_._0/attention/output/dense/Tensordot/Reshape", "op": "Reshape", "input": ["StatefulPartitionedCall/tf_bert_for_token_classification/bert/encoder/layer_._0/attention/self/Reshape_3", "StatefulPartitionedCall/tf_bert_for_token_classification/bert/encoder/layer_._0/attention/output/dense/Tensordot/stack"], "attr": {"T": {"type": "DT_FLOAT"}, "Tshape": {"type": "DT_INT32"}}}, {"name": "StatefulPartitionedCall/tf_bert_for_token_classification/bert/encoder/layer_._0/attention/output/dense/Tensordot/MatMul", "op": "MatMul", "input": ["StatefulPartitionedCall/tf_bert_for_token_classification/bert/encoder/layer_._0/attention/output/dense/Tensordot/Reshape", "StatefulPartitionedCall/tf_bert_for_token_classification/bert/encoder/layer_._0/attention/output/dense/Tensordot/ReadVariableOp"], "device": "/device:CPU:0", "attr": {"transpose_b": {"b": false}, "T": {"type": "DT_FLOAT"}, "transpose_a": {"b": false}}}, {"name": "StatefulPartitionedCall/tf_bert_for_token_classification/bert/encoder/layer_._0/attention/output/dense/Tensordot", "op": "Reshape", "input": ["StatefulPartitionedCall/tf_bert_for_token_classification/bert/encoder/layer_._0/attention/output/dense/Tensordot/MatMul", "StatefulPartitionedCall/tf_bert_for_token_classification/bert/encoder/layer_._0/attention/output/dense/Tensordot/concat_1"], "attr": {"Tshape": {"type": "DT_INT32"}, "T": {"type": "DT_FLOAT"}}}, {"name": "StatefulPartitionedCall/tf_bert_for_token_classification/bert/encoder/layer_._0/attention/output/dense/BiasAdd", "op": "BiasAdd", "input": ["StatefulPartitionedCall/tf_bert_for_token_classification/bert/encoder/layer_._0/attention/output/dense/Tensordot", "StatefulPartitionedCall/tf_bert_for_token_classification/bert/encoder/layer_._0/attention/output/dense/BiasAdd/ReadVariableOp"], "attr": {"data_format": {"s": "TkhXQw=="}, "T": {"type": "DT_FLOAT"}}}, {"name": "StatefulPartitionedCall/tf_bert_for_token_classification/bert/encoder/layer_._0/attention/output/add", "op": "AddV2", "input": ["StatefulPartitionedCall/tf_bert_for_token_classification/bert/encoder/layer_._0/attention/output/dense/BiasAdd", "StatefulPartitionedCall/tf_bert_for_token_classification/bert/embeddings/LayerNorm/batchnorm/add_1"], "attr": {"T": {"type": "DT_FLOAT"}}}, {"name": "StatefulPartitionedCall/tf_bert_for_token_classification/bert/encoder/layer_._0/attention/output/LayerNorm/moments/mean", "op": "Mean", "input": ["StatefulPartitionedCall/tf_bert_for_token_classification/bert/encoder/layer_._0/attention/output/add", "StatefulPartitionedCall/tf_bert_for_token_classification/bert/encoder/layer_._0/attention/output/LayerNorm/moments/mean/reduction_indices"], "attr": {"T": {"type": "DT_FLOAT"}, "keep_dims": {"b": true}, "Tidx": {"type": "DT_INT32"}}}, {"name": "StatefulPartitionedCall/tf_bert_for_token_classification/bert/encoder/layer_._0/attention/output/LayerNorm/moments/SquaredDifference", "op": "SquaredDifference", "input": ["StatefulPartitionedCall/tf_bert_for_token_classification/bert/encoder/layer_._0/attention/output/add", "StatefulPartitionedCall/tf_bert_for_token_classification/bert/encoder/layer_._0/attention/output/LayerNorm/moments/mean"], "attr": {"T": {"type": "DT_FLOAT"}}}, {"name": "StatefulPartitionedCall/tf_bert_for_token_classification/bert/encoder/layer_._0/attention/output/LayerNorm/moments/variance", "op": "Mean", "input": ["StatefulPartitionedCall/tf_bert_for_token_classification/bert/encoder/layer_._0/attention/output/LayerNorm/moments/SquaredDifference", "StatefulPartitionedCall/tf_bert_for_token_classification/bert/encoder/layer_._0/attention/output/LayerNorm/moments/variance/reduction_indices"], "attr": {"keep_dims": {"b": true}, "T": {"type": "DT_FLOAT"}, "Tidx": {"type": "DT_INT32"}}}, {"name": "StatefulPartitionedCall/tf_bert_for_token_classification/bert/encoder/layer_._0/attention/output/LayerNorm/batchnorm/add", "op": "AddV2", "input": ["StatefulPartitionedCall/tf_bert_for_token_classification/bert/encoder/layer_._0/attention/output/LayerNorm/moments/variance", "StatefulPartitionedCall/tf_bert_for_token_classification/bert/encoder/layer_._0/attention/output/LayerNorm/batchnorm/add/y"], "attr": {"T": {"type": "DT_FLOAT"}}}, {"name": "StatefulPartitionedCall/tf_bert_for_token_classification/bert/encoder/layer_._0/attention/output/LayerNorm/batchnorm/Rsqrt", "op": "Rsqrt", "input": ["StatefulPartitionedCall/tf_bert_for_token_classification/bert/encoder/layer_._0/attention/output/LayerNorm/batchnorm/add"], "attr": {"T": {"type": "DT_FLOAT"}}}, {"name": "StatefulPartitionedCall/tf_bert_for_token_classification/bert/encoder/layer_._0/attention/output/LayerNorm/batchnorm/mul", "op": "Mul", "input": ["StatefulPartitionedCall/tf_bert_for_token_classification/bert/encoder/layer_._0/attention/output/LayerNorm/batchnorm/Rsqrt", "StatefulPartitionedCall/tf_bert_for_token_classification/bert/encoder/layer_._0/attention/output/LayerNorm/batchnorm/mul/ReadVariableOp"], "attr": {"T": {"type": "DT_FLOAT"}}}, {"name": "StatefulPartitionedCall/tf_bert_for_token_classification/bert/encoder/layer_._0/attention/output/LayerNorm/batchnorm/mul_2", "op": "Mul", "input": ["StatefulPartitionedCall/tf_bert_for_token_classification/bert/encoder/layer_._0/attention/output/LayerNorm/moments/mean", "StatefulPartitionedCall/tf_bert_for_token_classification/bert/encoder/layer_._0/attention/output/LayerNorm/batchnorm/mul"], "attr": {"T": {"type": "DT_FLOAT"}}}, {"name": "StatefulPartitionedCall/tf_bert_for_token_classification/bert/encoder/layer_._0/attention/output/LayerNorm/batchnorm/mul_1", "op": "Mul", "input": ["StatefulPartitionedCall/tf_bert_for_token_classification/bert/encoder/layer_._0/attention/output/add", "StatefulPartitionedCall/tf_bert_for_token_classification/bert/encoder/layer_._0/attention/output/LayerNorm/batchnorm/mul"], "attr": {"T": {"type": "DT_FLOAT"}}}, {"name": "StatefulPartitionedCall/tf_bert_for_token_classification/bert/encoder/layer_._0/attention/output/LayerNorm/batchnorm/sub", "op": "Sub", "input": ["StatefulPartitionedCall/tf_bert_for_token_classification/bert/encoder/layer_._0/attention/output/LayerNorm/batchnorm/ReadVariableOp", "StatefulPartitionedCall/tf_bert_for_token_classification/bert/encoder/layer_._0/attention/output/LayerNorm/batchnorm/mul_2"], "attr": {"T": {"type": "DT_FLOAT"}}}, {"name": "StatefulPartitionedCall/tf_bert_for_token_classification/bert/encoder/layer_._0/attention/output/LayerNorm/batchnorm/add_1", "op": "AddV2", "input": ["StatefulPartitionedCall/tf_bert_for_token_classification/bert/encoder/layer_._0/attention/output/LayerNorm/batchnorm/mul_1", "StatefulPartitionedCall/tf_bert_for_token_classification/bert/encoder/layer_._0/attention/output/LayerNorm/batchnorm/sub"], "attr": {"T": {"type": "DT_FLOAT"}}}, {"name": "StatefulPartitionedCall/tf_bert_for_token_classification/bert/encoder/layer_._0/intermediate/dense/Tensordot/Shape", "op": "Shape", "input": ["StatefulPartitionedCall/tf_bert_for_token_classification/bert/encoder/layer_._0/attention/output/LayerNorm/batchnorm/add_1"], "attr": {"out_type": {"type": "DT_INT32"}, "T": {"type": "DT_FLOAT"}}}, {"name": "StatefulPartitionedCall/tf_bert_for_token_classification/bert/encoder/layer_._0/intermediate/dense/Tensordot/GatherV2_1", "op": "GatherV2", "input": ["StatefulPartitionedCall/tf_bert_for_token_classification/bert/encoder/layer_._0/intermediate/dense/Tensordot/Shape", "StatefulPartitionedCall/tf_bert_for_token_classification/bert/encoder/layer_._0/intermediate/dense/Tensordot/axes", "StatefulPartitionedCall/tf_bert_for_token_classification/bert/encoder/layer_._0/intermediate/dense/Tensordot/GatherV2_1/axis"], "attr": {"Tparams": {"type": "DT_INT32"}, "Taxis": {"type": "DT_INT32"}, "Tindices": {"type": "DT_INT32"}, "batch_dims": {"i": "0"}}}, {"name": "StatefulPartitionedCall/tf_bert_for_token_classification/bert/encoder/layer_._0/intermediate/dense/Tensordot/GatherV2", "op": "GatherV2", "input": ["StatefulPartitionedCall/tf_bert_for_token_classification/bert/encoder/layer_._0/intermediate/dense/Tensordot/Shape", "StatefulPartitionedCall/tf_bert_for_token_classification/bert/encoder/layer_._0/intermediate/dense/Tensordot/free", "StatefulPartitionedCall/tf_bert_for_token_classification/bert/encoder/layer_._0/intermediate/dense/Tensordot/GatherV2/axis"], "attr": {"Taxis": {"type": "DT_INT32"}, "Tindices": {"type": "DT_INT32"}, "Tparams": {"type": "DT_INT32"}, "batch_dims": {"i": "0"}}}, {"name": "StatefulPartitionedCall/tf_bert_for_token_classification/bert/encoder/layer_._0/intermediate/dense/Tensordot/Prod_1", "op": "Prod", "input": ["StatefulPartitionedCall/tf_bert_for_token_classification/bert/encoder/layer_._0/intermediate/dense/Tensordot/GatherV2_1", "StatefulPartitionedCall/tf_bert_for_token_classification/bert/encoder/layer_._0/intermediate/dense/Tensordot/Const_1"], "attr": {"Tidx": {"type": "DT_INT32"}, "T": {"type": "DT_INT32"}, "keep_dims": {"b": false}}}, {"name": "StatefulPartitionedCall/tf_bert_for_token_classification/bert/encoder/layer_._0/intermediate/dense/Tensordot/Prod", "op": "Prod", "input": ["StatefulPartitionedCall/tf_bert_for_token_classification/bert/encoder/layer_._0/intermediate/dense/Tensordot/GatherV2", "StatefulPartitionedCall/tf_bert_for_token_classification/bert/encoder/layer_._0/intermediate/dense/Tensordot/Const"], "attr": {"keep_dims": {"b": false}, "T": {"type": "DT_INT32"}, "Tidx": {"type": "DT_INT32"}}}, {"name": "StatefulPartitionedCall/tf_bert_for_token_classification/bert/encoder/layer_._0/intermediate/dense/Tensordot/concat_1", "op": "ConcatV2", "input": ["StatefulPartitionedCall/tf_bert_for_token_classification/bert/encoder/layer_._0/intermediate/dense/Tensordot/GatherV2", "StatefulPartitionedCall/tf_bert_for_token_classification/bert/encoder/layer_._0/intermediate/dense/Tensordot/Const_2", "StatefulPartitionedCall/tf_bert_for_token_classification/bert/encoder/layer_._0/intermediate/dense/Tensordot/concat_1/axis"], "attr": {"Tidx": {"type": "DT_INT32"}, "N": {"i": "2"}, "T": {"type": "DT_INT32"}}}, {"name": "StatefulPartitionedCall/tf_bert_for_token_classification/bert/encoder/layer_._0/intermediate/dense/Tensordot/stack", "op": "Pack", "input": ["StatefulPartitionedCall/tf_bert_for_token_classification/bert/encoder/layer_._0/intermediate/dense/Tensordot/Prod", "StatefulPartitionedCall/tf_bert_for_token_classification/bert/encoder/layer_._0/intermediate/dense/Tensordot/Prod_1"], "attr": {"T": {"type": "DT_INT32"}, "N": {"i": "2"}, "axis": {"i": "0"}}}, {"name": "StatefulPartitionedCall/tf_bert_for_token_classification/bert/encoder/layer_._0/intermediate/dense/Tensordot/Reshape", "op": "Reshape", "input": ["StatefulPartitionedCall/tf_bert_for_token_classification/bert/encoder/layer_._0/attention/output/LayerNorm/batchnorm/add_1", "StatefulPartitionedCall/tf_bert_for_token_classification/bert/encoder/layer_._0/intermediate/dense/Tensordot/stack"], "attr": {"T": {"type": "DT_FLOAT"}, "Tshape": {"type": "DT_INT32"}}}, {"name": "StatefulPartitionedCall/tf_bert_for_token_classification/bert/encoder/layer_._0/intermediate/dense/Tensordot/MatMul", "op": "MatMul", "input": ["StatefulPartitionedCall/tf_bert_for_token_classification/bert/encoder/layer_._0/intermediate/dense/Tensordot/Reshape", "StatefulPartitionedCall/tf_bert_for_token_classification/bert/encoder/layer_._0/intermediate/dense/Tensordot/ReadVariableOp"], "device": "/device:CPU:0", "attr": {"transpose_b": {"b": false}, "T": {"type": "DT_FLOAT"}, "transpose_a": {"b": false}}}, {"name": "StatefulPartitionedCall/tf_bert_for_token_classification/bert/encoder/layer_._0/intermediate/dense/Tensordot", "op": "Reshape", "input": ["StatefulPartitionedCall/tf_bert_for_token_classification/bert/encoder/layer_._0/intermediate/dense/Tensordot/MatMul", "StatefulPartitionedCall/tf_bert_for_token_classification/bert/encoder/layer_._0/intermediate/dense/Tensordot/concat_1"], "attr": {"T": {"type": "DT_FLOAT"}, "Tshape": {"type": "DT_INT32"}}}, {"name": "StatefulPartitionedCall/tf_bert_for_token_classification/bert/encoder/layer_._0/intermediate/dense/BiasAdd", "op": "BiasAdd", "input": ["StatefulPartitionedCall/tf_bert_for_token_classification/bert/encoder/layer_._0/intermediate/dense/Tensordot", "StatefulPartitionedCall/tf_bert_for_token_classification/bert/encoder/layer_._0/intermediate/dense/BiasAdd/ReadVariableOp"], "attr": {"data_format": {"s": "TkhXQw=="}, "T": {"type": "DT_FLOAT"}}}, {"name": "StatefulPartitionedCall/tf_bert_for_token_classification/bert/encoder/layer_._0/intermediate/Gelu/mul", "op": "Mul", "input": ["StatefulPartitionedCall/tf_bert_for_token_classification/bert/encoder/layer_._0/intermediate/Gelu/mul/x", "StatefulPartitionedCall/tf_bert_for_token_classification/bert/encoder/layer_._0/intermediate/dense/BiasAdd"], "attr": {"_grappler_ArithmeticOptimizer_MinimizeBroadcasts": {"b": true}, "T": {"type": "DT_FLOAT"}}}, {"name": "StatefulPartitionedCall/tf_bert_for_token_classification/bert/encoder/layer_._0/intermediate/Gelu/truediv", "op": "Mul", "input": ["StatefulPartitionedCall/tf_bert_for_token_classification/bert/encoder/layer_._0/intermediate/dense/BiasAdd", "ConstantFolding/StatefulPartitionedCall/tf_bert_for_token_classification/bert/encoder/layer_._0/intermediate/Gelu/truediv_recip"], "attr": {"T": {"type": "DT_FLOAT"}}}, {"name": "StatefulPartitionedCall/tf_bert_for_token_classification/bert/encoder/layer_._0/intermediate/Gelu/Erf", "op": "Erf", "input": ["StatefulPartitionedCall/tf_bert_for_token_classification/bert/encoder/layer_._0/intermediate/Gelu/truediv"], "attr": {"T": {"type": "DT_FLOAT"}}}, {"name": "StatefulPartitionedCall/tf_bert_for_token_classification/bert/encoder/layer_._0/intermediate/Gelu/add", "op": "AddV2", "input": ["StatefulPartitionedCall/tf_bert_for_token_classification/bert/encoder/layer_._0/intermediate/Gelu/add/x", "StatefulPartitionedCall/tf_bert_for_token_classification/bert/encoder/layer_._0/intermediate/Gelu/Erf"], "attr": {"T": {"type": "DT_FLOAT"}}}, {"name": "StatefulPartitionedCall/tf_bert_for_token_classification/bert/encoder/layer_._0/intermediate/Gelu/mul_1", "op": "Mul", "input": ["StatefulPartitionedCall/tf_bert_for_token_classification/bert/encoder/layer_._0/intermediate/Gelu/mul", "StatefulPartitionedCall/tf_bert_for_token_classification/bert/encoder/layer_._0/intermediate/Gelu/add"], "attr": {"T": {"type": "DT_FLOAT"}, "_grappler_ArithmeticOptimizer_MinimizeBroadcasts": {"b": true}}}, {"name": "StatefulPartitionedCall/tf_bert_for_token_classification/bert/encoder/layer_._0/output/dense/Tensordot/Shape", "op": "Shape", "input": ["StatefulPartitionedCall/tf_bert_for_token_classification/bert/encoder/layer_._0/intermediate/Gelu/mul_1"], "attr": {"T": {"type": "DT_FLOAT"}, "out_type": {"type": "DT_INT32"}}}, {"name": "StatefulPartitionedCall/tf_bert_for_token_classification/bert/encoder/layer_._0/output/dense/Tensordot/GatherV2_1", "op": "GatherV2", "input": ["StatefulPartitionedCall/tf_bert_for_token_classification/bert/encoder/layer_._0/output/dense/Tensordot/Shape", "StatefulPartitionedCall/tf_bert_for_token_classification/bert/encoder/layer_._0/output/dense/Tensordot/axes", "StatefulPartitionedCall/tf_bert_for_token_classification/bert/encoder/layer_._0/output/dense/Tensordot/GatherV2_1/axis"], "attr": {"Tparams": {"type": "DT_INT32"}, "Taxis": {"type": "DT_INT32"}, "Tindices": {"type": "DT_INT32"}, "batch_dims": {"i": "0"}}}, {"name": "StatefulPartitionedCall/tf_bert_for_token_classification/bert/encoder/layer_._0/output/dense/Tensordot/GatherV2", "op": "GatherV2", "input": ["StatefulPartitionedCall/tf_bert_for_token_classification/bert/encoder/layer_._0/output/dense/Tensordot/Shape", "StatefulPartitionedCall/tf_bert_for_token_classification/bert/encoder/layer_._0/output/dense/Tensordot/free", "StatefulPartitionedCall/tf_bert_for_token_classification/bert/encoder/layer_._0/output/dense/Tensordot/GatherV2/axis"], "attr": {"Taxis": {"type": "DT_INT32"}, "Tparams": {"type": "DT_INT32"}, "batch_dims": {"i": "0"}, "Tindices": {"type": "DT_INT32"}}}, {"name": "StatefulPartitionedCall/tf_bert_for_token_classification/bert/encoder/layer_._0/output/dense/Tensordot/Prod_1", "op": "Prod", "input": ["StatefulPartitionedCall/tf_bert_for_token_classification/bert/encoder/layer_._0/output/dense/Tensordot/GatherV2_1", "StatefulPartitionedCall/tf_bert_for_token_classification/bert/encoder/layer_._0/output/dense/Tensordot/Const_1"], "attr": {"T": {"type": "DT_INT32"}, "Tidx": {"type": "DT_INT32"}, "keep_dims": {"b": false}}}, {"name": "StatefulPartitionedCall/tf_bert_for_token_classification/bert/encoder/layer_._0/output/dense/Tensordot/Prod", "op": "Prod", "input": ["StatefulPartitionedCall/tf_bert_for_token_classification/bert/encoder/layer_._0/output/dense/Tensordot/GatherV2", "StatefulPartitionedCall/tf_bert_for_token_classification/bert/encoder/layer_._0/output/dense/Tensordot/Const"], "attr": {"keep_dims": {"b": false}, "Tidx": {"type": "DT_INT32"}, "T": {"type": "DT_INT32"}}}, {"name": "StatefulPartitionedCall/tf_bert_for_token_classification/bert/encoder/layer_._0/output/dense/Tensordot/concat_1", "op": "ConcatV2", "input": ["StatefulPartitionedCall/tf_bert_for_token_classification/bert/encoder/layer_._0/output/dense/Tensordot/GatherV2", "StatefulPartitionedCall/tf_bert_for_token_classification/bert/encoder/layer_._0/output/dense/Tensordot/Const_2", "StatefulPartitionedCall/tf_bert_for_token_classification/bert/encoder/layer_._0/output/dense/Tensordot/concat_1/axis"], "attr": {"N": {"i": "2"}, "Tidx": {"type": "DT_INT32"}, "T": {"type": "DT_INT32"}}}, {"name": "StatefulPartitionedCall/tf_bert_for_token_classification/bert/encoder/layer_._0/output/dense/Tensordot/stack", "op": "Pack", "input": ["StatefulPartitionedCall/tf_bert_for_token_classification/bert/encoder/layer_._0/output/dense/Tensordot/Prod", "StatefulPartitionedCall/tf_bert_for_token_classification/bert/encoder/layer_._0/output/dense/Tensordot/Prod_1"], "attr": {"N": {"i": "2"}, "T": {"type": "DT_INT32"}, "axis": {"i": "0"}}}, {"name": "StatefulPartitionedCall/tf_bert_for_token_classification/bert/encoder/layer_._0/output/dense/Tensordot/Reshape", "op": "Reshape", "input": ["StatefulPartitionedCall/tf_bert_for_token_classification/bert/encoder/layer_._0/intermediate/Gelu/mul_1", "StatefulPartitionedCall/tf_bert_for_token_classification/bert/encoder/layer_._0/output/dense/Tensordot/stack"], "attr": {"T": {"type": "DT_FLOAT"}, "Tshape": {"type": "DT_INT32"}}}, {"name": "StatefulPartitionedCall/tf_bert_for_token_classification/bert/encoder/layer_._0/output/dense/Tensordot/MatMul", "op": "MatMul", "input": ["StatefulPartitionedCall/tf_bert_for_token_classification/bert/encoder/layer_._0/output/dense/Tensordot/Reshape", "StatefulPartitionedCall/tf_bert_for_token_classification/bert/encoder/layer_._0/output/dense/Tensordot/ReadVariableOp"], "device": "/device:CPU:0", "attr": {"transpose_b": {"b": false}, "transpose_a": {"b": false}, "T": {"type": "DT_FLOAT"}}}, {"name": "StatefulPartitionedCall/tf_bert_for_token_classification/bert/encoder/layer_._0/output/dense/Tensordot", "op": "Reshape", "input": ["StatefulPartitionedCall/tf_bert_for_token_classification/bert/encoder/layer_._0/output/dense/Tensordot/MatMul", "StatefulPartitionedCall/tf_bert_for_token_classification/bert/encoder/layer_._0/output/dense/Tensordot/concat_1"], "attr": {"T": {"type": "DT_FLOAT"}, "Tshape": {"type": "DT_INT32"}}}, {"name": "StatefulPartitionedCall/tf_bert_for_token_classification/bert/encoder/layer_._0/output/dense/BiasAdd", "op": "BiasAdd", "input": ["StatefulPartitionedCall/tf_bert_for_token_classification/bert/encoder/layer_._0/output/dense/Tensordot", "StatefulPartitionedCall/tf_bert_for_token_classification/bert/encoder/layer_._0/output/dense/BiasAdd/ReadVariableOp"], "attr": {"T": {"type": "DT_FLOAT"}, "data_format": {"s": "TkhXQw=="}}}, {"name": "StatefulPartitionedCall/tf_bert_for_token_classification/bert/encoder/layer_._0/output/add", "op": "AddV2", "input": ["StatefulPartitionedCall/tf_bert_for_token_classification/bert/encoder/layer_._0/output/dense/BiasAdd", "StatefulPartitionedCall/tf_bert_for_token_classification/bert/encoder/layer_._0/attention/output/LayerNorm/batchnorm/add_1"], "attr": {"T": {"type": "DT_FLOAT"}}}, {"name": "StatefulPartitionedCall/tf_bert_for_token_classification/bert/encoder/layer_._0/output/LayerNorm/moments/mean", "op": "Mean", "input": ["StatefulPartitionedCall/tf_bert_for_token_classification/bert/encoder/layer_._0/output/add", "StatefulPartitionedCall/tf_bert_for_token_classification/bert/encoder/layer_._0/output/LayerNorm/moments/mean/reduction_indices"], "attr": {"keep_dims": {"b": true}, "Tidx": {"type": "DT_INT32"}, "T": {"type": "DT_FLOAT"}}}, {"name": "StatefulPartitionedCall/tf_bert_for_token_classification/bert/encoder/layer_._0/output/LayerNorm/moments/SquaredDifference", "op": "SquaredDifference", "input": ["StatefulPartitionedCall/tf_bert_for_token_classification/bert/encoder/layer_._0/output/add", "StatefulPartitionedCall/tf_bert_for_token_classification/bert/encoder/layer_._0/output/LayerNorm/moments/mean"], "attr": {"T": {"type": "DT_FLOAT"}}}, {"name": "StatefulPartitionedCall/tf_bert_for_token_classification/bert/encoder/layer_._0/output/LayerNorm/moments/variance", "op": "Mean", "input": ["StatefulPartitionedCall/tf_bert_for_token_classification/bert/encoder/layer_._0/output/LayerNorm/moments/SquaredDifference", "StatefulPartitionedCall/tf_bert_for_token_classification/bert/encoder/layer_._0/output/LayerNorm/moments/variance/reduction_indices"], "attr": {"T": {"type": "DT_FLOAT"}, "keep_dims": {"b": true}, "Tidx": {"type": "DT_INT32"}}}, {"name": "StatefulPartitionedCall/tf_bert_for_token_classification/bert/encoder/layer_._0/output/LayerNorm/batchnorm/add", "op": "AddV2", "input": ["StatefulPartitionedCall/tf_bert_for_token_classification/bert/encoder/layer_._0/output/LayerNorm/moments/variance", "StatefulPartitionedCall/tf_bert_for_token_classification/bert/encoder/layer_._0/output/LayerNorm/batchnorm/add/y"], "attr": {"T": {"type": "DT_FLOAT"}}}, {"name": "StatefulPartitionedCall/tf_bert_for_token_classification/bert/encoder/layer_._0/output/LayerNorm/batchnorm/Rsqrt", "op": "Rsqrt", "input": ["StatefulPartitionedCall/tf_bert_for_token_classification/bert/encoder/layer_._0/output/LayerNorm/batchnorm/add"], "attr": {"T": {"type": "DT_FLOAT"}}}, {"name": "StatefulPartitionedCall/tf_bert_for_token_classification/bert/encoder/layer_._0/output/LayerNorm/batchnorm/mul", "op": "Mul", "input": ["StatefulPartitionedCall/tf_bert_for_token_classification/bert/encoder/layer_._0/output/LayerNorm/batchnorm/Rsqrt", "StatefulPartitionedCall/tf_bert_for_token_classification/bert/encoder/layer_._0/output/LayerNorm/batchnorm/mul/ReadVariableOp"], "attr": {"T": {"type": "DT_FLOAT"}}}, {"name": "StatefulPartitionedCall/tf_bert_for_token_classification/bert/encoder/layer_._0/output/LayerNorm/batchnorm/mul_2", "op": "Mul", "input": ["StatefulPartitionedCall/tf_bert_for_token_classification/bert/encoder/layer_._0/output/LayerNorm/moments/mean", "StatefulPartitionedCall/tf_bert_for_token_classification/bert/encoder/layer_._0/output/LayerNorm/batchnorm/mul"], "attr": {"T": {"type": "DT_FLOAT"}}}, {"name": "StatefulPartitionedCall/tf_bert_for_token_classification/bert/encoder/layer_._0/output/LayerNorm/batchnorm/mul_1", "op": "Mul", "input": ["StatefulPartitionedCall/tf_bert_for_token_classification/bert/encoder/layer_._0/output/add", "StatefulPartitionedCall/tf_bert_for_token_classification/bert/encoder/layer_._0/output/LayerNorm/batchnorm/mul"], "attr": {"T": {"type": "DT_FLOAT"}}}, {"name": "StatefulPartitionedCall/tf_bert_for_token_classification/bert/encoder/layer_._0/output/LayerNorm/batchnorm/sub", "op": "Sub", "input": ["StatefulPartitionedCall/tf_bert_for_token_classification/bert/encoder/layer_._0/output/LayerNorm/batchnorm/ReadVariableOp", "StatefulPartitionedCall/tf_bert_for_token_classification/bert/encoder/layer_._0/output/LayerNorm/batchnorm/mul_2"], "attr": {"T": {"type": "DT_FLOAT"}}}, {"name": "StatefulPartitionedCall/tf_bert_for_token_classification/bert/encoder/layer_._0/output/LayerNorm/batchnorm/add_1", "op": "AddV2", "input": ["StatefulPartitionedCall/tf_bert_for_token_classification/bert/encoder/layer_._0/output/LayerNorm/batchnorm/mul_1", "StatefulPartitionedCall/tf_bert_for_token_classification/bert/encoder/layer_._0/output/LayerNorm/batchnorm/sub"], "attr": {"T": {"type": "DT_FLOAT"}}}, {"name": "StatefulPartitionedCall/tf_bert_for_token_classification/bert/encoder/layer_._1/attention/self/query/Tensordot/Shape", "op": "Shape", "input": ["StatefulPartitionedCall/tf_bert_for_token_classification/bert/encoder/layer_._0/output/LayerNorm/batchnorm/add_1"], "attr": {"out_type": {"type": "DT_INT32"}, "T": {"type": "DT_FLOAT"}}}, {"name": "StatefulPartitionedCall/tf_bert_for_token_classification/bert/encoder/layer_._1/attention/self/key/Tensordot/Shape", "op": "Shape", "input": ["StatefulPartitionedCall/tf_bert_for_token_classification/bert/encoder/layer_._0/output/LayerNorm/batchnorm/add_1"], "attr": {"out_type": {"type": "DT_INT32"}, "T": {"type": "DT_FLOAT"}}}, {"name": "StatefulPartitionedCall/tf_bert_for_token_classification/bert/encoder/layer_._1/attention/self/value/Tensordot/Shape", "op": "Shape", "input": ["StatefulPartitionedCall/tf_bert_for_token_classification/bert/encoder/layer_._0/output/LayerNorm/batchnorm/add_1"], "attr": {"T": {"type": "DT_FLOAT"}, "out_type": {"type": "DT_INT32"}}}, {"name": "StatefulPartitionedCall/tf_bert_for_token_classification/bert/encoder/layer_._1/attention/self/Shape", "op": "Shape", "input": ["StatefulPartitionedCall/tf_bert_for_token_classification/bert/encoder/layer_._0/output/LayerNorm/batchnorm/add_1"], "attr": {"T": {"type": "DT_FLOAT"}, "out_type": {"type": "DT_INT32"}}}, {"name": "StatefulPartitionedCall/tf_bert_for_token_classification/bert/encoder/layer_._1/attention/self/query/Tensordot/GatherV2_1", "op": "GatherV2", "input": ["StatefulPartitionedCall/tf_bert_for_token_classification/bert/encoder/layer_._1/attention/self/query/Tensordot/Shape", "StatefulPartitionedCall/tf_bert_for_token_classification/bert/encoder/layer_._1/attention/self/query/Tensordot/axes", "StatefulPartitionedCall/tf_bert_for_token_classification/bert/encoder/layer_._1/attention/self/query/Tensordot/GatherV2_1/axis"], "attr": {"Tparams": {"type": "DT_INT32"}, "batch_dims": {"i": "0"}, "Tindices": {"type": "DT_INT32"}, "Taxis": {"type": "DT_INT32"}}}, {"name": "StatefulPartitionedCall/tf_bert_for_token_classification/bert/encoder/layer_._1/attention/self/query/Tensordot/GatherV2", "op": "GatherV2", "input": ["StatefulPartitionedCall/tf_bert_for_token_classification/bert/encoder/layer_._1/attention/self/query/Tensordot/Shape", "StatefulPartitionedCall/tf_bert_for_token_classification/bert/encoder/layer_._1/attention/self/query/Tensordot/free", "StatefulPartitionedCall/tf_bert_for_token_classification/bert/encoder/layer_._1/attention/self/query/Tensordot/GatherV2/axis"], "attr": {"Taxis": {"type": "DT_INT32"}, "batch_dims": {"i": "0"}, "Tparams": {"type": "DT_INT32"}, "Tindices": {"type": "DT_INT32"}}}, {"name": "StatefulPartitionedCall/tf_bert_for_token_classification/bert/encoder/layer_._1/attention/self/key/Tensordot/GatherV2_1", "op": "GatherV2", "input": ["StatefulPartitionedCall/tf_bert_for_token_classification/bert/encoder/layer_._1/attention/self/key/Tensordot/Shape", "StatefulPartitionedCall/tf_bert_for_token_classification/bert/encoder/layer_._1/attention/self/key/Tensordot/axes", "StatefulPartitionedCall/tf_bert_for_token_classification/bert/encoder/layer_._1/attention/self/key/Tensordot/GatherV2_1/axis"], "attr": {"Tindices": {"type": "DT_INT32"}, "batch_dims": {"i": "0"}, "Taxis": {"type": "DT_INT32"}, "Tparams": {"type": "DT_INT32"}}}, {"name": "StatefulPartitionedCall/tf_bert_for_token_classification/bert/encoder/layer_._1/attention/self/key/Tensordot/GatherV2", "op": "GatherV2", "input": ["StatefulPartitionedCall/tf_bert_for_token_classification/bert/encoder/layer_._1/attention/self/key/Tensordot/Shape", "StatefulPartitionedCall/tf_bert_for_token_classification/bert/encoder/layer_._1/attention/self/key/Tensordot/free", "StatefulPartitionedCall/tf_bert_for_token_classification/bert/encoder/layer_._1/attention/self/key/Tensordot/GatherV2/axis"], "attr": {"Tparams": {"type": "DT_INT32"}, "Tindices": {"type": "DT_INT32"}, "Taxis": {"type": "DT_INT32"}, "batch_dims": {"i": "0"}}}, {"name": "StatefulPartitionedCall/tf_bert_for_token_classification/bert/encoder/layer_._1/attention/self/value/Tensordot/GatherV2_1", "op": "GatherV2", "input": ["StatefulPartitionedCall/tf_bert_for_token_classification/bert/encoder/layer_._1/attention/self/value/Tensordot/Shape", "StatefulPartitionedCall/tf_bert_for_token_classification/bert/encoder/layer_._1/attention/self/value/Tensordot/axes", "StatefulPartitionedCall/tf_bert_for_token_classification/bert/encoder/layer_._1/attention/self/value/Tensordot/GatherV2_1/axis"], "attr": {"Tindices": {"type": "DT_INT32"}, "Tparams": {"type": "DT_INT32"}, "Taxis": {"type": "DT_INT32"}, "batch_dims": {"i": "0"}}}, {"name": "StatefulPartitionedCall/tf_bert_for_token_classification/bert/encoder/layer_._1/attention/self/value/Tensordot/GatherV2", "op": "GatherV2", "input": ["StatefulPartitionedCall/tf_bert_for_token_classification/bert/encoder/layer_._1/attention/self/value/Tensordot/Shape", "StatefulPartitionedCall/tf_bert_for_token_classification/bert/encoder/layer_._1/attention/self/value/Tensordot/free", "StatefulPartitionedCall/tf_bert_for_token_classification/bert/encoder/layer_._1/attention/self/value/Tensordot/GatherV2/axis"], "attr": {"Tparams": {"type": "DT_INT32"}, "Tindices": {"type": "DT_INT32"}, "Taxis": {"type": "DT_INT32"}, "batch_dims": {"i": "0"}}}, {"name": "StatefulPartitionedCall/tf_bert_for_token_classification/bert/encoder/layer_._1/attention/self/strided_slice", "op": "StridedSlice", "input": ["StatefulPartitionedCall/tf_bert_for_token_classification/bert/encoder/layer_._1/attention/self/Shape", "StatefulPartitionedCall/tf_bert_for_token_classification/bert/encoder/layer_._1/attention/self/strided_slice/stack", "StatefulPartitionedCall/tf_bert_for_token_classification/bert/encoder/layer_._1/attention/self/strided_slice/stack_1", "StatefulPartitionedCall/tf_bert_for_token_classification/bert/encoder/layer_._1/attention/self/strided_slice/stack_2"], "attr": {"end_mask": {"i": "0"}, "ellipsis_mask": {"i": "0"}, "shrink_axis_mask": {"i": "1"}, "begin_mask": {"i": "0"}, "new_axis_mask": {"i": "0"}, "T": {"type": "DT_INT32"}, "Index": {"type": "DT_INT32"}}}, {"name": "StatefulPartitionedCall/tf_bert_for_token_classification/bert/encoder/layer_._1/attention/self/query/Tensordot/Prod_1", "op": "Prod", "input": ["StatefulPartitionedCall/tf_bert_for_token_classification/bert/encoder/layer_._1/attention/self/query/Tensordot/GatherV2_1", "StatefulPartitionedCall/tf_bert_for_token_classification/bert/encoder/layer_._1/attention/self/query/Tensordot/Const_1"], "attr": {"Tidx": {"type": "DT_INT32"}, "keep_dims": {"b": false}, "T": {"type": "DT_INT32"}}}, {"name": "StatefulPartitionedCall/tf_bert_for_token_classification/bert/encoder/layer_._1/attention/self/query/Tensordot/Prod", "op": "Prod", "input": ["StatefulPartitionedCall/tf_bert_for_token_classification/bert/encoder/layer_._1/attention/self/query/Tensordot/GatherV2", "StatefulPartitionedCall/tf_bert_for_token_classification/bert/encoder/layer_._1/attention/self/query/Tensordot/Const"], "attr": {"Tidx": {"type": "DT_INT32"}, "T": {"type": "DT_INT32"}, "keep_dims": {"b": false}}}, {"name": "StatefulPartitionedCall/tf_bert_for_token_classification/bert/encoder/layer_._1/attention/self/query/Tensordot/concat_1", "op": "ConcatV2", "input": ["StatefulPartitionedCall/tf_bert_for_token_classification/bert/encoder/layer_._1/attention/self/query/Tensordot/GatherV2", "StatefulPartitionedCall/tf_bert_for_token_classification/bert/encoder/layer_._1/attention/self/query/Tensordot/Const_2", "StatefulPartitionedCall/tf_bert_for_token_classification/bert/encoder/layer_._1/attention/self/query/Tensordot/concat_1/axis"], "attr": {"Tidx": {"type": "DT_INT32"}, "T": {"type": "DT_INT32"}, "N": {"i": "2"}}}, {"name": "StatefulPartitionedCall/tf_bert_for_token_classification/bert/encoder/layer_._1/attention/self/key/Tensordot/Prod_1", "op": "Prod", "input": ["StatefulPartitionedCall/tf_bert_for_token_classification/bert/encoder/layer_._1/attention/self/key/Tensordot/GatherV2_1", "StatefulPartitionedCall/tf_bert_for_token_classification/bert/encoder/layer_._1/attention/self/key/Tensordot/Const_1"], "attr": {"keep_dims": {"b": false}, "T": {"type": "DT_INT32"}, "Tidx": {"type": "DT_INT32"}}}, {"name": "StatefulPartitionedCall/tf_bert_for_token_classification/bert/encoder/layer_._1/attention/self/key/Tensordot/Prod", "op": "Prod", "input": ["StatefulPartitionedCall/tf_bert_for_token_classification/bert/encoder/layer_._1/attention/self/key/Tensordot/GatherV2", "StatefulPartitionedCall/tf_bert_for_token_classification/bert/encoder/layer_._1/attention/self/key/Tensordot/Const"], "attr": {"keep_dims": {"b": false}, "Tidx": {"type": "DT_INT32"}, "T": {"type": "DT_INT32"}}}, {"name": "StatefulPartitionedCall/tf_bert_for_token_classification/bert/encoder/layer_._1/attention/self/key/Tensordot/concat_1", "op": "ConcatV2", "input": ["StatefulPartitionedCall/tf_bert_for_token_classification/bert/encoder/layer_._1/attention/self/key/Tensordot/GatherV2", "StatefulPartitionedCall/tf_bert_for_token_classification/bert/encoder/layer_._1/attention/self/key/Tensordot/Const_2", "StatefulPartitionedCall/tf_bert_for_token_classification/bert/encoder/layer_._1/attention/self/key/Tensordot/concat_1/axis"], "attr": {"Tidx": {"type": "DT_INT32"}, "N": {"i": "2"}, "T": {"type": "DT_INT32"}}}, {"name": "StatefulPartitionedCall/tf_bert_for_token_classification/bert/encoder/layer_._1/attention/self/value/Tensordot/Prod_1", "op": "Prod", "input": ["StatefulPartitionedCall/tf_bert_for_token_classification/bert/encoder/layer_._1/attention/self/value/Tensordot/GatherV2_1", "StatefulPartitionedCall/tf_bert_for_token_classification/bert/encoder/layer_._1/attention/self/value/Tensordot/Const_1"], "attr": {"keep_dims": {"b": false}, "T": {"type": "DT_INT32"}, "Tidx": {"type": "DT_INT32"}}}, {"name": "StatefulPartitionedCall/tf_bert_for_token_classification/bert/encoder/layer_._1/attention/self/value/Tensordot/Prod", "op": "Prod", "input": ["StatefulPartitionedCall/tf_bert_for_token_classification/bert/encoder/layer_._1/attention/self/value/Tensordot/GatherV2", "StatefulPartitionedCall/tf_bert_for_token_classification/bert/encoder/layer_._1/attention/self/value/Tensordot/Const"], "attr": {"keep_dims": {"b": false}, "Tidx": {"type": "DT_INT32"}, "T": {"type": "DT_INT32"}}}, {"name": "StatefulPartitionedCall/tf_bert_for_token_classification/bert/encoder/layer_._1/attention/self/value/Tensordot/concat_1", "op": "ConcatV2", "input": ["StatefulPartitionedCall/tf_bert_for_token_classification/bert/encoder/layer_._1/attention/self/value/Tensordot/GatherV2", "StatefulPartitionedCall/tf_bert_for_token_classification/bert/encoder/layer_._1/attention/self/value/Tensordot/Const_2", "StatefulPartitionedCall/tf_bert_for_token_classification/bert/encoder/layer_._1/attention/self/value/Tensordot/concat_1/axis"], "attr": {"Tidx": {"type": "DT_INT32"}, "N": {"i": "2"}, "T": {"type": "DT_INT32"}}}, {"name": "StatefulPartitionedCall/tf_bert_for_token_classification/bert/encoder/layer_._1/attention/self/Reshape_2/shape", "op": "Pack", "input": ["StatefulPartitionedCall/tf_bert_for_token_classification/bert/encoder/layer_._1/attention/self/strided_slice", "StatefulPartitionedCall/tf_bert_for_token_classification/bert/encoder/layer_._1/attention/self/Reshape_2/shape/1", "StatefulPartitionedCall/tf_bert_for_token_classification/bert/encoder/layer_._1/attention/self/Reshape_2/shape/2", "StatefulPartitionedCall/tf_bert_for_token_classification/bert/encoder/layer_._1/attention/self/Reshape_2/shape/3"], "attr": {"T": {"type": "DT_INT32"}, "N": {"i": "4"}, "axis": {"i": "0"}}}, {"name": "StatefulPartitionedCall/tf_bert_for_token_classification/bert/encoder/layer_._1/attention/self/Reshape/shape", "op": "Pack", "input": ["StatefulPartitionedCall/tf_bert_for_token_classification/bert/encoder/layer_._1/attention/self/strided_slice", "StatefulPartitionedCall/tf_bert_for_token_classification/bert/encoder/layer_._1/attention/self/Reshape/shape/1", "StatefulPartitionedCall/tf_bert_for_token_classification/bert/encoder/layer_._1/attention/self/Reshape/shape/2", "StatefulPartitionedCall/tf_bert_for_token_classification/bert/encoder/layer_._1/attention/self/Reshape/shape/3"], "attr": {"axis": {"i": "0"}, "N": {"i": "4"}, "T": {"type": "DT_INT32"}}}, {"name": "StatefulPartitionedCall/tf_bert_for_token_classification/bert/encoder/layer_._1/attention/self/Reshape_1/shape", "op": "Pack", "input": ["StatefulPartitionedCall/tf_bert_for_token_classification/bert/encoder/layer_._1/attention/self/strided_slice", "StatefulPartitionedCall/tf_bert_for_token_classification/bert/encoder/layer_._1/attention/self/Reshape_1/shape/1", "StatefulPartitionedCall/tf_bert_for_token_classification/bert/encoder/layer_._1/attention/self/Reshape_1/shape/2", "StatefulPartitionedCall/tf_bert_for_token_classification/bert/encoder/layer_._1/attention/self/Reshape_1/shape/3"], "attr": {"axis": {"i": "0"}, "T": {"type": "DT_INT32"}, "N": {"i": "4"}}}, {"name": "StatefulPartitionedCall/tf_bert_for_token_classification/bert/encoder/layer_._1/attention/self/Reshape_3/shape", "op": "Pack", "input": ["StatefulPartitionedCall/tf_bert_for_token_classification/bert/encoder/layer_._1/attention/self/strided_slice", "StatefulPartitionedCall/tf_bert_for_token_classification/bert/encoder/layer_._1/attention/self/Reshape_3/shape/1", "StatefulPartitionedCall/tf_bert_for_token_classification/bert/encoder/layer_._1/attention/self/Reshape_3/shape/2"], "attr": {"N": {"i": "3"}, "axis": {"i": "0"}, "T": {"type": "DT_INT32"}}}, {"name": "StatefulPartitionedCall/tf_bert_for_token_classification/bert/encoder/layer_._1/attention/self/query/Tensordot/stack", "op": "Pack", "input": ["StatefulPartitionedCall/tf_bert_for_token_classification/bert/encoder/layer_._1/attention/self/query/Tensordot/Prod", "StatefulPartitionedCall/tf_bert_for_token_classification/bert/encoder/layer_._1/attention/self/query/Tensordot/Prod_1"], "attr": {"T": {"type": "DT_INT32"}, "axis": {"i": "0"}, "N": {"i": "2"}}}, {"name": "StatefulPartitionedCall/tf_bert_for_token_classification/bert/encoder/layer_._1/attention/self/key/Tensordot/stack", "op": "Pack", "input": ["StatefulPartitionedCall/tf_bert_for_token_classification/bert/encoder/layer_._1/attention/self/key/Tensordot/Prod", "StatefulPartitionedCall/tf_bert_for_token_classification/bert/encoder/layer_._1/attention/self/key/Tensordot/Prod_1"], "attr": {"axis": {"i": "0"}, "N": {"i": "2"}, "T": {"type": "DT_INT32"}}}, {"name": "StatefulPartitionedCall/tf_bert_for_token_classification/bert/encoder/layer_._1/attention/self/value/Tensordot/stack", "op": "Pack", "input": ["StatefulPartitionedCall/tf_bert_for_token_classification/bert/encoder/layer_._1/attention/self/value/Tensordot/Prod", "StatefulPartitionedCall/tf_bert_for_token_classification/bert/encoder/layer_._1/attention/self/value/Tensordot/Prod_1"], "attr": {"T": {"type": "DT_INT32"}, "N": {"i": "2"}, "axis": {"i": "0"}}}, {"name": "StatefulPartitionedCall/tf_bert_for_token_classification/bert/encoder/layer_._1/attention/self/query/Tensordot/Reshape", "op": "Reshape", "input": ["StatefulPartitionedCall/tf_bert_for_token_classification/bert/encoder/layer_._0/output/LayerNorm/batchnorm/add_1", "StatefulPartitionedCall/tf_bert_for_token_classification/bert/encoder/layer_._1/attention/self/query/Tensordot/stack"], "attr": {"T": {"type": "DT_FLOAT"}, "Tshape": {"type": "DT_INT32"}}}, {"name": "StatefulPartitionedCall/tf_bert_for_token_classification/bert/encoder/layer_._1/attention/self/key/Tensordot/Reshape", "op": "Reshape", "input": ["StatefulPartitionedCall/tf_bert_for_token_classification/bert/encoder/layer_._0/output/LayerNorm/batchnorm/add_1", "StatefulPartitionedCall/tf_bert_for_token_classification/bert/encoder/layer_._1/attention/self/key/Tensordot/stack"], "attr": {"Tshape": {"type": "DT_INT32"}, "T": {"type": "DT_FLOAT"}}}, {"name": "StatefulPartitionedCall/tf_bert_for_token_classification/bert/encoder/layer_._1/attention/self/value/Tensordot/Reshape", "op": "Reshape", "input": ["StatefulPartitionedCall/tf_bert_for_token_classification/bert/encoder/layer_._0/output/LayerNorm/batchnorm/add_1", "StatefulPartitionedCall/tf_bert_for_token_classification/bert/encoder/layer_._1/attention/self/value/Tensordot/stack"], "attr": {"Tshape": {"type": "DT_INT32"}, "T": {"type": "DT_FLOAT"}}}, {"name": "StatefulPartitionedCall/tf_bert_for_token_classification/bert/encoder/layer_._1/attention/self/query/Tensordot/MatMul", "op": "MatMul", "input": ["StatefulPartitionedCall/tf_bert_for_token_classification/bert/encoder/layer_._1/attention/self/query/Tensordot/Reshape", "StatefulPartitionedCall/tf_bert_for_token_classification/bert/encoder/layer_._1/attention/self/query/Tensordot/ReadVariableOp"], "device": "/device:CPU:0", "attr": {"transpose_b": {"b": false}, "T": {"type": "DT_FLOAT"}, "transpose_a": {"b": false}}}, {"name": "StatefulPartitionedCall/tf_bert_for_token_classification/bert/encoder/layer_._1/attention/self/key/Tensordot/MatMul", "op": "MatMul", "input": ["StatefulPartitionedCall/tf_bert_for_token_classification/bert/encoder/layer_._1/attention/self/key/Tensordot/Reshape", "StatefulPartitionedCall/tf_bert_for_token_classification/bert/encoder/layer_._1/attention/self/key/Tensordot/ReadVariableOp"], "device": "/device:CPU:0", "attr": {"transpose_a": {"b": false}, "T": {"type": "DT_FLOAT"}, "transpose_b": {"b": false}}}, {"name": "StatefulPartitionedCall/tf_bert_for_token_classification/bert/encoder/layer_._1/attention/self/value/Tensordot/MatMul", "op": "MatMul", "input": ["StatefulPartitionedCall/tf_bert_for_token_classification/bert/encoder/layer_._1/attention/self/value/Tensordot/Reshape", "StatefulPartitionedCall/tf_bert_for_token_classification/bert/encoder/layer_._1/attention/self/value/Tensordot/ReadVariableOp"], "device": "/device:CPU:0", "attr": {"transpose_b": {"b": false}, "T": {"type": "DT_FLOAT"}, "transpose_a": {"b": false}}}, {"name": "StatefulPartitionedCall/tf_bert_for_token_classification/bert/encoder/layer_._1/attention/self/query/Tensordot", "op": "Reshape", "input": ["StatefulPartitionedCall/tf_bert_for_token_classification/bert/encoder/layer_._1/attention/self/query/Tensordot/MatMul", "StatefulPartitionedCall/tf_bert_for_token_classification/bert/encoder/layer_._1/attention/self/query/Tensordot/concat_1"], "attr": {"T": {"type": "DT_FLOAT"}, "Tshape": {"type": "DT_INT32"}}}, {"name": "StatefulPartitionedCall/tf_bert_for_token_classification/bert/encoder/layer_._1/attention/self/key/Tensordot", "op": "Reshape", "input": ["StatefulPartitionedCall/tf_bert_for_token_classification/bert/encoder/layer_._1/attention/self/key/Tensordot/MatMul", "StatefulPartitionedCall/tf_bert_for_token_classification/bert/encoder/layer_._1/attention/self/key/Tensordot/concat_1"], "attr": {"Tshape": {"type": "DT_INT32"}, "T": {"type": "DT_FLOAT"}}}, {"name": "StatefulPartitionedCall/tf_bert_for_token_classification/bert/encoder/layer_._1/attention/self/value/Tensordot", "op": "Reshape", "input": ["StatefulPartitionedCall/tf_bert_for_token_classification/bert/encoder/layer_._1/attention/self/value/Tensordot/MatMul", "StatefulPartitionedCall/tf_bert_for_token_classification/bert/encoder/layer_._1/attention/self/value/Tensordot/concat_1"], "attr": {"Tshape": {"type": "DT_INT32"}, "T": {"type": "DT_FLOAT"}}}, {"name": "StatefulPartitionedCall/tf_bert_for_token_classification/bert/encoder/layer_._1/attention/self/query/BiasAdd", "op": "BiasAdd", "input": ["StatefulPartitionedCall/tf_bert_for_token_classification/bert/encoder/layer_._1/attention/self/query/Tensordot", "StatefulPartitionedCall/tf_bert_for_token_classification/bert/encoder/layer_._1/attention/self/query/BiasAdd/ReadVariableOp"], "attr": {"data_format": {"s": "TkhXQw=="}, "T": {"type": "DT_FLOAT"}}}, {"name": "StatefulPartitionedCall/tf_bert_for_token_classification/bert/encoder/layer_._1/attention/self/key/BiasAdd", "op": "BiasAdd", "input": ["StatefulPartitionedCall/tf_bert_for_token_classification/bert/encoder/layer_._1/attention/self/key/Tensordot", "StatefulPartitionedCall/tf_bert_for_token_classification/bert/encoder/layer_._1/attention/self/key/BiasAdd/ReadVariableOp"], "attr": {"data_format": {"s": "TkhXQw=="}, "T": {"type": "DT_FLOAT"}}}, {"name": "StatefulPartitionedCall/tf_bert_for_token_classification/bert/encoder/layer_._1/attention/self/value/BiasAdd", "op": "BiasAdd", "input": ["StatefulPartitionedCall/tf_bert_for_token_classification/bert/encoder/layer_._1/attention/self/value/Tensordot", "StatefulPartitionedCall/tf_bert_for_token_classification/bert/encoder/layer_._1/attention/self/value/BiasAdd/ReadVariableOp"], "attr": {"data_format": {"s": "TkhXQw=="}, "T": {"type": "DT_FLOAT"}}}, {"name": "StatefulPartitionedCall/tf_bert_for_token_classification/bert/encoder/layer_._1/attention/self/Reshape_2", "op": "Reshape", "input": ["StatefulPartitionedCall/tf_bert_for_token_classification/bert/encoder/layer_._1/attention/self/query/BiasAdd", "StatefulPartitionedCall/tf_bert_for_token_classification/bert/encoder/layer_._1/attention/self/Reshape_2/shape"], "attr": {"T": {"type": "DT_FLOAT"}, "Tshape": {"type": "DT_INT32"}}}, {"name": "StatefulPartitionedCall/tf_bert_for_token_classification/bert/encoder/layer_._1/attention/self/Reshape", "op": "Reshape", "input": ["StatefulPartitionedCall/tf_bert_for_token_classification/bert/encoder/layer_._1/attention/self/key/BiasAdd", "StatefulPartitionedCall/tf_bert_for_token_classification/bert/encoder/layer_._1/attention/self/Reshape/shape"], "attr": {"T": {"type": "DT_FLOAT"}, "Tshape": {"type": "DT_INT32"}}}, {"name": "StatefulPartitionedCall/tf_bert_for_token_classification/bert/encoder/layer_._1/attention/self/Reshape_1", "op": "Reshape", "input": ["StatefulPartitionedCall/tf_bert_for_token_classification/bert/encoder/layer_._1/attention/self/value/BiasAdd", "StatefulPartitionedCall/tf_bert_for_token_classification/bert/encoder/layer_._1/attention/self/Reshape_1/shape"], "attr": {"T": {"type": "DT_FLOAT"}, "Tshape": {"type": "DT_INT32"}}}, {"name": "StatefulPartitionedCall/tf_bert_for_token_classification/bert/encoder/layer_._1/attention/self/transpose_2", "op": "Transpose", "input": ["StatefulPartitionedCall/tf_bert_for_token_classification/bert/encoder/layer_._1/attention/self/Reshape_2", "StatefulPartitionedCall/tf_bert_for_token_classification/bert/encoder/layer_._1/attention/self/transpose_2/perm"], "attr": {"T": {"type": "DT_FLOAT"}, "Tperm": {"type": "DT_INT32"}}}, {"name": "StatefulPartitionedCall/tf_bert_for_token_classification/bert/encoder/layer_._1/attention/self/transpose", "op": "Transpose", "input": ["StatefulPartitionedCall/tf_bert_for_token_classification/bert/encoder/layer_._1/attention/self/Reshape", "StatefulPartitionedCall/tf_bert_for_token_classification/bert/encoder/layer_._1/attention/self/transpose/perm"], "attr": {"T": {"type": "DT_FLOAT"}, "Tperm": {"type": "DT_INT32"}}}, {"name": "StatefulPartitionedCall/tf_bert_for_token_classification/bert/encoder/layer_._1/attention/self/transpose_1", "op": "Transpose", "input": ["StatefulPartitionedCall/tf_bert_for_token_classification/bert/encoder/layer_._1/attention/self/Reshape_1", "StatefulPartitionedCall/tf_bert_for_token_classification/bert/encoder/layer_._1/attention/self/transpose_1/perm"], "attr": {"T": {"type": "DT_FLOAT"}, "Tperm": {"type": "DT_INT32"}}}, {"name": "StatefulPartitionedCall/tf_bert_for_token_classification/bert/encoder/layer_._1/attention/self/MatMul", "op": "BatchMatMulV2", "input": ["StatefulPartitionedCall/tf_bert_for_token_classification/bert/encoder/layer_._1/attention/self/transpose_2", "StatefulPartitionedCall/tf_bert_for_token_classification/bert/encoder/layer_._1/attention/self/transpose"], "attr": {"adj_y": {"b": true}, "T": {"type": "DT_FLOAT"}, "adj_x": {"b": false}}}, {"name": "StatefulPartitionedCall/tf_bert_for_token_classification/bert/encoder/layer_._1/attention/self/truediv", "op": "Mul", "input": ["StatefulPartitionedCall/tf_bert_for_token_classification/bert/encoder/layer_._1/attention/self/MatMul", "ConstantFolding/StatefulPartitionedCall/tf_bert_for_token_classification/bert/encoder/layer_._1/attention/self/truediv_recip"], "attr": {"T": {"type": "DT_FLOAT"}}}, {"name": "StatefulPartitionedCall/tf_bert_for_token_classification/bert/encoder/layer_._1/attention/self/add_1", "op": "AddV2", "input": ["StatefulPartitionedCall/tf_bert_for_token_classification/bert/encoder/layer_._1/attention/self/truediv", "StatefulPartitionedCall/tf_bert_for_token_classification/bert/encoder/layer_._1/attention/self/Add"], "attr": {"T": {"type": "DT_FLOAT"}}}, {"name": "StatefulPartitionedCall/tf_bert_for_token_classification/bert/encoder/layer_._1/attention/self/Softmax", "op": "Softmax", "input": ["StatefulPartitionedCall/tf_bert_for_token_classification/bert/encoder/layer_._1/attention/self/add_1"], "attr": {"T": {"type": "DT_FLOAT"}}}, {"name": "StatefulPartitionedCall/tf_bert_for_token_classification/bert/encoder/layer_._1/attention/self/MatMul_1", "op": "BatchMatMulV2", "input": ["StatefulPartitionedCall/tf_bert_for_token_classification/bert/encoder/layer_._1/attention/self/Softmax", "StatefulPartitionedCall/tf_bert_for_token_classification/bert/encoder/layer_._1/attention/self/transpose_1"], "attr":…
_classification/bert/encoder/layer_._1/output/LayerNorm/moments/variance/reduction_indices"], "attr": {"Tidx": {"type": "DT_INT32"}, "T": {"type": "DT_FLOAT"}, "keep_dims": {"b": true}}}, {"name": "StatefulPartitionedCall/tf_bert_for_token_classification/bert/encoder/layer_._1/output/LayerNorm/batchnorm/add", "op": "AddV2", "input": ["StatefulPartitionedCall/tf_bert_for_token_classification/bert/encoder/layer_._1/output/LayerNorm/moments/variance", "StatefulPartitionedCall/tf_bert_for_token_classification/bert/encoder/layer_._1/output/LayerNorm/batchnorm/add/y"], "attr": {"T": {"type": "DT_FLOAT"}}}, {"name": "StatefulPartitionedCall/tf_bert_for_token_classification/bert/encoder/layer_._1/output/LayerNorm/batchnorm/Rsqrt", "op": "Rsqrt", "input": ["StatefulPartitionedCall/tf_bert_for_token_classification/bert/encoder/layer_._1/output/LayerNorm/batchnorm/add"], "attr": {"T": {"type": "DT_FLOAT"}}}, {"name": "StatefulPartitionedCall/tf_bert_for_token_classification/bert/encoder/layer_._1/output/LayerNorm/batchnorm/mul", "op": "Mul", "input": ["StatefulPartitionedCall/tf_bert_for_token_classification/bert/encoder/layer_._1/output/LayerNorm/batchnorm/Rsqrt", "StatefulPartitionedCall/tf_bert_for_token_classification/bert/encoder/layer_._1/output/LayerNorm/batchnorm/mul/ReadVariableOp"], "attr": {"T": {"type": "DT_FLOAT"}}}, {"name": "StatefulPartitionedCall/tf_bert_for_token_classification/bert/encoder/layer_._1/output/LayerNorm/batchnorm/mul_2", "op": "Mul", "input": ["StatefulPartitionedCall/tf_bert_for_token_classification/bert/encoder/layer_._1/output/LayerNorm/moments/mean", "StatefulPartitionedCall/tf_bert_for_token_classification/bert/encoder/layer_._1/output/LayerNorm/batchnorm/mul"], "attr": {"T": {"type": "DT_FLOAT"}}}, {"name": "StatefulPartitionedCall/tf_bert_for_token_classification/bert/encoder/layer_._1/output/LayerNorm/batchnorm/mul_1", "op": "Mul", "input": ["StatefulPartitionedCall/tf_bert_for_token_classification/bert/encoder/layer_._1/output/add", "StatefulPartitionedCall/tf_bert_for_token_classification/bert/encoder/layer_._1/output/LayerNorm/batchnorm/mul"], "attr": {"T": {"type": "DT_FLOAT"}}}, {"name": "StatefulPartitionedCall/tf_bert_for_token_classification/bert/encoder/layer_._1/output/LayerNorm/batchnorm/sub", "op": "Sub", "input": ["StatefulPartitionedCall/tf_bert_for_token_classification/bert/encoder/layer_._1/output/LayerNorm/batchnorm/ReadVariableOp", "StatefulPartitionedCall/tf_bert_for_token_classification/bert/encoder/layer_._1/output/LayerNorm/batchnorm/mul_2"], "attr": {"T": {"type": "DT_FLOAT"}}}, {"name": "StatefulPartitionedCall/tf_bert_for_token_classification/bert/encoder/layer_._1/output/LayerNorm/batchnorm/add_1", "op": "AddV2", "input": ["StatefulPartitionedCall/tf_bert_for_token_classification/bert/encoder/layer_._1/output/LayerNorm/batchnorm/mul_1", "StatefulPartitionedCall/tf_bert_for_token_classification/bert/encoder/layer_._1/output/LayerNorm/batchnorm/sub"], "attr": {"T": {"type": "DT_FLOAT"}}}, {"name": "StatefulPartitionedCall/tf_bert_for_token_classification/classifier/Tensordot/Shape", "op": "Shape", "input": ["StatefulPartitionedCall/tf_bert_for_token_classification/bert/encoder/layer_._1/output/LayerNorm/batchnorm/add_1"], "attr": {"T": {"type": "DT_FLOAT"}, "out_type": {"type": "DT_INT32"}}}, {"name": "StatefulPartitionedCall/tf_bert_for_token_classification/classifier/Tensordot/GatherV2_1", "op": "GatherV2", "input": ["StatefulPartitionedCall/tf_bert_for_token_classification/classifier/Tensordot/Shape", "StatefulPartitionedCall/tf_bert_for_token_classification/classifier/Tensordot/axes", "StatefulPartitionedCall/tf_bert_for_token_classification/classifier/Tensordot/GatherV2_1/axis"], "attr": {"Taxis": {"type": "DT_INT32"}, "batch_dims": {"i": "0"}, "Tparams": {"type": "DT_INT32"}, "Tindices": {"type": "DT_INT32"}}}, {"name": "StatefulPartitionedCall/tf_bert_for_token_classification/classifier/Tensordot/GatherV2", "op": "GatherV2", "input": ["StatefulPartitionedCall/tf_bert_for_token_classification/classifier/Tensordot/Shape", "StatefulPartitionedCall/tf_bert_for_token_classification/classifier/Tensordot/free", "StatefulPartitionedCall/tf_bert_for_token_classification/classifier/Tensordot/GatherV2/axis"], "attr": {"Taxis": {"type": "DT_INT32"}, "Tparams": {"type": "DT_INT32"}, "Tindices": {"type": "DT_INT32"}, "batch_dims": {"i": "0"}}}, {"name": "StatefulPartitionedCall/tf_bert_for_token_classification/classifier/Tensordot/Prod_1", "op": "Prod", "input": ["StatefulPartitionedCall/tf_bert_for_token_classification/classifier/Tensordot/GatherV2_1", "StatefulPartitionedCall/tf_bert_for_token_classification/classifier/Tensordot/Const_1"], "attr": {"Tidx": {"type": "DT_INT32"}, "keep_dims": {"b": false}, "T": {"type": "DT_INT32"}}}, {"name": "StatefulPartitionedCall/tf_bert_for_token_classification/classifier/Tensordot/Prod", "op": "Prod", "input": ["StatefulPartitionedCall/tf_bert_for_token_classification/classifier/Tensordot/GatherV2", "StatefulPartitionedCall/tf_bert_for_token_classification/classifier/Tensordot/Const"], "attr": {"keep_dims": {"b": false}, "Tidx": {"type": "DT_INT32"}, "T": {"type": "DT_INT32"}}}, {"name": "StatefulPartitionedCall/tf_bert_for_token_classification/classifier/Tensordot/concat_1", "op": "ConcatV2", "input": ["StatefulPartitionedCall/tf_bert_for_token_classification/classifier/Tensordot/GatherV2", "StatefulPartitionedCall/tf_bert_for_token_classification/classifier/Tensordot/Const_2", "StatefulPartitionedCall/tf_bert_for_token_classification/classifier/Tensordot/concat_1/axis"], "attr": {"N": {"i": "2"}, "Tidx": {"type": "DT_INT32"}, "T": {"type": "DT_INT32"}}}, {"name": "StatefulPartitionedCall/tf_bert_for_token_classification/classifier/Tensordot/stack", "op": "Pack", "input": ["StatefulPartitionedCall/tf_bert_for_token_classification/classifier/Tensordot/Prod", "StatefulPartitionedCall/tf_bert_for_token_classification/classifier/Tensordot/Prod_1"], "attr": {"axis": {"i": "0"}, "T": {"type": "DT_INT32"}, "N": {"i": "2"}}}, {"name": "StatefulPartitionedCall/tf_bert_for_token_classification/classifier/Tensordot/Reshape", "op": "Reshape", "input": ["StatefulPartitionedCall/tf_bert_for_token_classification/bert/encoder/layer_._1/output/LayerNorm/batchnorm/add_1", "StatefulPartitionedCall/tf_bert_for_token_classification/classifier/Tensordot/stack"], "attr": {"T": {"type": "DT_FLOAT"}, "Tshape": {"type": "DT_INT32"}}}, {"name": "StatefulPartitionedCall/tf_bert_for_token_classification/classifier/Tensordot/MatMul", "op": "MatMul", "input": ["StatefulPartitionedCall/tf_bert_for_token_classification/classifier/Tensordot/Reshape", "StatefulPartitionedCall/tf_bert_for_token_classification/classifier/Tensordot/ReadVariableOp"], "device": "/device:CPU:0", "attr": {"transpose_b": {"b": false}, "T": {"type": "DT_FLOAT"}, "transpose_a": {"b": false}}}, {"name": "StatefulPartitionedCall/tf_bert_for_token_classification/classifier/Tensordot", "op": "Reshape", "input": ["StatefulPartitionedCall/tf_bert_for_token_classification/classifier/Tensordot/MatMul", "StatefulPartitionedCall/tf_bert_for_token_classification/classifier/Tensordot/concat_1"], "attr": {"T": {"type": "DT_FLOAT"}, "Tshape": {"type": "DT_INT32"}}}, {"name": "StatefulPartitionedCall/tf_bert_for_token_classification/classifier/BiasAdd", "op": "BiasAdd", "input": ["StatefulPartitionedCall/tf_bert_for_token_classification/classifier/Tensordot", "StatefulPartitionedCall/tf_bert_for_token_classification/classifier/BiasAdd/ReadVariableOp"], "attr": {"data_format": {"s": "TkhXQw=="}, "T": {"type": "DT_FLOAT"}}}, {"name": "Identity", "op": "Identity", "input": ["StatefulPartitionedCall/tf_bert_for_token_classification/classifier/BiasAdd"], "attr": {"T": {"type": "DT_FLOAT"}}}], "library": {}, "versions": {"producer": 987}}, "weightsManifest": [{"paths": ["group1-shard1of3.bin", "group1-shard2of3.bin", "group1-shard3of3.bin"], "weights": [{"name": "StatefulPartitionedCall/tf_bert_for_token_classification/classifier/Tensordot/Const", "shape": [1], "dtype": "int32"}, {"name": "StatefulPartitionedCall/tf_bert_for_token_classification/classifier/Tensordot/axes", "shape": [1], "dtype": "int32"}, {"name": "StatefulPartitionedCall/tf_bert_for_token_classification/classifier/Tensordot/GatherV2_1/axis", "shape": [], "dtype": "int32"}, {"name": "StatefulPartitionedCall/tf_bert_for_token_classification/classifier/Tensordot/Const_1", "shape": [1], "dtype": "int32"}, {"name": "StatefulPartitionedCall/tf_bert_for_token_classification/classifier/Tensordot/ReadVariableOp", "shape": [128, 7], "dtype": "float32", "quantization": {"dtype": "uint16", "min": -0.09437502812941778, "scale": 2.7957172772882005e-06, "original_dtype": "float32"}}, {"name": "StatefulPartitionedCall/tf_bert_for_token_classification/bert/encoder/layer_._1/output/LayerNorm/batchnorm/ReadVariableOp", "shape": [128], "dtype": "float32", "quantization": {"dtype": "uint16", "min": -0.4822894885009401, "scale": 1.141486564817259e-05, "original_dtype": "float32"}}, {"name": "StatefulPartitionedCall/tf_bert_for_token_classification/bert/encoder/layer_._1/output/dense/Tensordot/Const", "shape": [1], "dtype": "int32"}, {"name": "StatefulPartitionedCall/tf_bert_for_token_classification/bert/encoder/layer_._1/output/dense/Tensordot/axes", "shape": [1], "dtype": "int32"}, {"name": "StatefulPartitionedCall/tf_bert_for_token_classification/bert/encoder/layer_._1/output/dense/Tensordot/GatherV2_1/axis", "shape": [], "dtype": "int32"}, {"name": "StatefulPartitionedCall/tf_bert_for_token_classification/bert/encoder/layer_._1/output/dense/Tensordot/Const_1", "shape": [1], "dtype": "int32"}, {"name": "StatefulPartitionedCall/tf_bert_for_token_classification/bert/encoder/layer_._1/output/dense/Tensordot/ReadVariableOp", "shape": [512, 128], "dtype": "float32", "quantization": {"dtype": "uint16", "min": -0.6443094709031031, "scale": 1.855997323644255e-05, "original_dtype": "float32"}}, {"name": "StatefulPartitionedCall/tf_bert_for_token_classification/bert/encoder/layer_._1/intermediate/Gelu/mul/x", "shape": [], "dtype": "float32", "quantization": {"dtype": "uint16", "min": 0.5, "scale": 1.0, "original_dtype": "float32"}}, {"name": "StatefulPartitionedCall/tf_bert_for_token_classification/bert/encoder/layer_._1/intermediate/Gelu/add/x", "shape": [], "dtype": "float32", "quantization": {"dtype": "uint16", "min": 1.0, "scale": 1.0, "original_dtype": "float32"}}, {"name": "StatefulPartitionedCall/tf_bert_for_token_classification/bert/encoder/layer_._1/intermediate/dense/Tensordot/Const", "shape": [1], "dtype": "int32"}, {"name": "StatefulPartitionedCall/tf_bert_for_token_classification/bert/encoder/layer_._1/intermediate/dense/Tensordot/axes", "shape": [1], "dtype": "int32"}, {"name": "StatefulPartitionedCall/tf_bert_for_token_classification/bert/encoder/layer_._1/intermediate/dense/Tensordot/GatherV2_1/axis", "shape": [], "dtype": "int32"}, {"name": "StatefulPartitionedCall/tf_bert_for_token_classification/bert/encoder/layer_._1/intermediate/dense/Tensordot/Const_1", "shape": [1], "dtype": "int32"}, {"name": "StatefulPartitionedCall/tf_bert_for_token_classification/bert/encoder/layer_._1/intermediate/dense/Tensordot/ReadVariableOp", "shape": [128, 512], "dtype": "float32", "quantization": {"dtype": "uint16", "min": -0.5268678617630214, "scale": 2.2246668993076106e-05, "original_dtype": "float32"}}, {"name": "StatefulPartitionedCall/tf_bert_for_token_classification/bert/encoder/layer_._1/intermediate/dense/Tensordot/free", "shape": [2], "dtype": "int32"}, {"name": "StatefulPartitionedCall/tf_bert_for_token_classification/bert/encoder/layer_._1/intermediate/dense/Tensordot/GatherV2/axis", "shape": [], "dtype": "int32"}, {"name": "StatefulPartitionedCall/tf_bert_for_token_classification/bert/encoder/layer_._1/intermediate/dense/Tensordot/Const_2", "shape": [1], "dtype": "int32"}, {"name": "StatefulPartitionedCall/tf_bert_for_token_classification/bert/encoder/layer_._1/intermediate/dense/Tensordot/concat_1/axis", "shape": [], "dtype": "int32"}, {"name": "StatefulPartitionedCall/tf_bert_for_token_classification/bert/encoder/layer_._1/intermediate/dense/BiasAdd/ReadVariableOp", "shape": [512], "dtype": "float32", "quantization": {"dtype": "uint16", "min": -1.147616952281163, "scale": 2.3018171014725376e-05, "original_dtype": "float32"}}, {"name": "ConstantFolding/StatefulPartitionedCall/tf_bert_for_token_classification/bert/encoder/layer_._1/intermediate/Gelu/truediv_recip", "shape": [], "dtype": "float32", "quantization": {"dtype": "uint16", "min": 0.7071067690849304, "scale": 1.0, "original_dtype": "float32"}}, {"name": "StatefulPartitionedCall/tf_bert_for_token_classification/bert/encoder/layer_._1/output/dense/Tensordot/free", "shape": [2], "dtype": "int32"}, {"name": "StatefulPartitionedCall/tf_bert_for_token_classification/bert/encoder/layer_._1/output/dense/Tensordot/GatherV2/axis", "shape": [], "dtype": "int32"}, {"name": "StatefulPartitionedCall/tf_bert_for_token_classification/bert/encoder/layer_._1/output/dense/Tensordot/Const_2", "shape": [1], "dtype": "int32"}, {"name": "StatefulPartitionedCall/tf_bert_for_token_classification/bert/encoder/layer_._1/output/dense/Tensordot/concat_1/axis", "shape": [], "dtype": "int32"}, {"name": "StatefulPartitionedCall/tf_bert_for_token_classification/bert/encoder/layer_._1/output/dense/BiasAdd/ReadVariableOp", "shape": [128], "dtype": "float32", "quantization": {"dtype": "uint16", "min": -0.20098396152101028, "scale": 6.777405547833765e-06, "original_dtype": "float32"}}, {"name": "StatefulPartitionedCall/tf_bert_for_token_classification/bert/encoder/layer_._1/attention/output/LayerNorm/batchnorm/ReadVariableOp", "shape": [128], "dtype": "float32", "quantization": {"dtype": "uint16", "min": -1.140656741922195, "scale": 3.235905650843106e-05, "original_dtype": "float32"}}, {"name": "StatefulPartitionedCall/tf_bert_for_token_classification/bert/encoder/layer_._1/attention/output/dense/Tensordot/Const", "shape": [1], "dtype": "int32"}, {"name": "StatefulPartitionedCall/tf_bert_for_token_classification/bert/encoder/layer_._1/attention/output/dense/Tensordot/axes", "shape": [1], "dtype": "int32"}, {"name": "StatefulPartitionedCall/tf_bert_for_token_classification/bert/encoder/layer_._1/attention/output/dense/Tensordot/GatherV2_1/axis", "shape": [], "dtype": "int32"}, {"name": "StatefulPartitionedCall/tf_bert_for_token_classification/bert/encoder/layer_._1/attention/output/dense/Tensordot/Const_1", "shape": [1], "dtype": "int32"}, {"name": "StatefulPartitionedCall/tf_bert_for_token_classification/bert/encoder/layer_._1/attention/output/dense/Tensordot/ReadVariableOp", "shape": [128, 128], "dtype": "float32", "quantization": {"dtype": "uint16", "min": -0.9667205593901931, "scale": 3.2718061373073176e-05, "original_dtype": "float32"}}, {"name": "StatefulPartitionedCall/tf_bert_for_token_classification/bert/encoder/layer_._1/attention/self/query/Tensordot/Const", "shape": [1], "dtype": "int32"}, {"name": "StatefulPartitionedCall/tf_bert_for_token_classification/bert/encoder/layer_._1/attention/self/query/Tensordot/axes", "shape": [1], "dtype": "int32"}, {"name": "StatefulPartitionedCall/tf_bert_for_token_classification/bert/encoder/layer_._1/attention/self/query/Tensordot/GatherV2_1/axis", "shape": [], "dtype": "int32"}, {"name": "StatefulPartitionedCall/tf_bert_for_token_classification/bert/encoder/layer_._1/attention/self/query/Tensordot/Const_1", "shape": [1], "dtype": "int32"}, {"name": "StatefulPartitionedCall/tf_bert_for_token_classification/bert/encoder/layer_._1/attention/self/query/Tensordot/ReadVariableOp", "shape": [128, 128], "dtype": "float32", "quantization": {"dtype": "uint16", "min": -0.4893576104480705, "scale": 1.3135353924253671e-05, "original_dtype": "float32"}}, {"name": "StatefulPartitionedCall/tf_bert_for_token_classification/bert/encoder/layer_._1/attention/self/query/Tensordot/free", "shape": [2], "dtype": "int32"}, {"name": "StatefulPartitionedCall/tf_bert_for_token_classification/bert/encoder/layer_._1/attention/self/query/Tensordot/GatherV2/axis", "shape": [], "dtype": "int32"}, {"name": "StatefulPartitionedCall/tf_bert_for_token_classification/bert/encoder/layer_._1/attention/self/query/Tensordot/Const_2", "shape": [1], "dtype": "int32"}, {"name": "StatefulPartitionedCall/tf_bert_for_token_classification/bert/encoder/layer_._1/attention/self/query/Tensordot/concat_1/axis", "shape": [], "dtype": "int32"}, {"name": "StatefulPartitionedCall/tf_bert_for_token_classification/bert/encoder/layer_._1/attention/self/query/BiasAdd/ReadVariableOp", "shape": [128], "dtype": "float32", "quantization": {"dtype": "uint16", "min": -0.48485866417926293, "scale": 1.648674433606253e-05, "original_dtype": "float32"}}, {"name": "StatefulPartitionedCall/tf_bert_for_token_classification/bert/encoder/layer_._1/attention/self/Reshape_2/shape/1", "shape": [], "dtype": "int32"}, {"name": "StatefulPartitionedCall/tf_bert_for_token_classification/bert/encoder/layer_._1/attention/self/Reshape_2/shape/2", "shape": [], "dtype": "int32"}, {"name": "StatefulPartitionedCall/tf_bert_for_token_classification/bert/encoder/layer_._1/attention/self/Reshape_2/shape/3", "shape": [], "dtype": "int32"}, {"name": "StatefulPartitionedCall/tf_bert_for_token_classification/bert/encoder/layer_._1/attention/self/transpose_2/perm", "shape": [4], "dtype": "int32"}, {"name": "StatefulPartitionedCall/tf_bert_for_token_classification/bert/encoder/layer_._1/attention/self/key/Tensordot/Const", "shape": [1], "dtype": "int32"}, {"name": "StatefulPartitionedCall/tf_bert_for_token_classification/bert/encoder/layer_._1/attention/self/key/Tensordot/axes", "shape": [1], "dtype": "int32"}, {"name": "StatefulPartitionedCall/tf_bert_for_token_classification/bert/encoder/layer_._1/attention/self/key/Tensordot/GatherV2_1/axis", "shape": [], "dtype": "int32"}, {"name": "StatefulPartitionedCall/tf_bert_for_token_classification/bert/encoder/layer_._1/attention/self/key/Tensordot/Const_1", "shape": [1], "dtype": "int32"}, {"name": "StatefulPartitionedCall/tf_bert_for_token_classification/bert/encoder/layer_._1/attention/self/key/Tensordot/ReadVariableOp", "shape": [128, 128], "dtype": "float32", "quantization": {"dtype": "uint16", "min": -0.3376116703147245, "scale": 1.0119647212838694e-05, "original_dtype": "float32"}}, {"name": "StatefulPartitionedCall/tf_bert_for_token_classification/bert/encoder/layer_._1/attention/self/key/Tensordot/free", "shape": [2], "dtype": "int32"}, {"name": "StatefulPartitionedCall/tf_bert_for_token_classification/bert/encoder/layer_._1/attention/self/key/Tensordot/GatherV2/axis", "shape": [], "dtype": "int32"}, {"name": "StatefulPartitionedCall/tf_bert_for_token_classification/bert/encoder/layer_._1/attention/self/key/Tensordot/Const_2", "shape": [1], "dtype": "int32"}, {"name": "StatefulPartitionedCall/tf_bert_for_token_classification/bert/encoder/layer_._1/attention/self/key/Tensordot/concat_1/axis", "shape": [], "dtype": "int32"}, {"name": "StatefulPartitionedCall/tf_bert_for_token_classification/bert/encoder/layer_._1/attention/self/key/BiasAdd/ReadVariableOp", "shape": [128], "dtype": "float32", "quantization": {"dtype": "uint16", "min": -0.08609693707959223, "scale": 2.649462613232159e-06, "original_dtype": "float32"}}, {"name": "StatefulPartitionedCall/tf_bert_for_token_classification/bert/encoder/layer_._1/attention/self/Reshape/shape/1", "shape": [], "dtype": "int32"}, {"name": "StatefulPartitionedCall/tf_bert_for_token_classification/bert/encoder/layer_._1/attention/self/Reshape/shape/2", "shape": [], "dtype": "int32"}, {"name": "StatefulPartitionedCall/tf_bert_for_token_classification/bert/encoder/layer_._1/attention/self/Reshape/shape/3", "shape": [], "dtype": "int32"}, {"name": "StatefulPartitionedCall/tf_bert_for_token_classification/bert/encoder/layer_._1/attention/self/transpose/perm", "shape": [4], "dtype": "int32"}, {"name": "ConstantFolding/StatefulPartitionedCall/tf_bert_for_token_classification/bert/encoder/layer_._1/attention/self/truediv_recip", "shape": [], "dtype": "float32", "quantization": {"dtype": "uint16", "min": 0.125, "scale": 1.0, "original_dtype": "float32"}}, {"name": "StatefulPartitionedCall/tf_bert_for_token_classification/bert/encoder/layer_._1/attention/self/add_1/y", "shape": [], "dtype": "float32", "quantization": {"dtype": "uint16", "min": 9.999999717180685e-10, "scale": 1.0, "original_dtype": "float32"}}, {"name": "StatefulPartitionedCall/tf_bert_for_token_classification/bert/encoder/layer_._1/attention/self/value/Tensordot/Const", "shape": [1], "dtype": "int32"}, {"name": "StatefulPartitionedCall/tf_bert_for_token_classification/bert/encoder/layer_._1/attention/self/value/Tensordot/axes", "shape": [1], "dtype": "int32"}, {"name": "StatefulPartitionedCall/tf_bert_for_token_classification/bert/encoder/layer_._1/attention/self/value/Tensordot/GatherV2_1/axis", "shape": [], "dtype": "int32"}, {"name": "StatefulPartitionedCall/tf_bert_for_token_classification/bert/encoder/layer_._1/attention/self/value/Tensordot/Const_1", "shape": [1], "dtype": "int32"}, {"name": "StatefulPartitionedCall/tf_bert_for_token_classification/bert/encoder/layer_._1/attention/self/value/Tensordot/ReadVariableOp", "shape": [128, 128], "dtype": "float32", "quantization": {"dtype": "uint16", "min": -0.4030128286970264, "scale": 1.2043895424571946e-05, "original_dtype": "float32"}}, {"name": "StatefulPartitionedCall/tf_bert_for_token_classification/bert/encoder/layer_._1/attention/self/value/Tensordot/free", "shape": [2], "dtype": "int32"}, {"name": "StatefulPartitionedCall/tf_bert_for_token_classification/bert/encoder/layer_._1/attention/self/value/Tensordot/GatherV2/axis", "shape": [], "dtype": "int32"}, {"name": "StatefulPartitionedCall/tf_bert_for_token_classification/bert/encoder/layer_._1/attention/self/value/Tensordot/Const_2", "shape": [1], "dtype": "int32"}, {"name": "StatefulPartitionedCall/tf_bert_for_token_classification/bert/encoder/layer_._1/attention/self/value/Tensordot/concat_1/axis", "shape": [], "dtype": "int32"}, {"name": "StatefulPartitionedCall/tf_bert_for_token_classification/bert/encoder/layer_._1/attention/self/value/BiasAdd/ReadVariableOp", "shape": [128], "dtype": "float32", "quantization": {"dtype": "uint16", "min": -0.19786845986335785, "scale": 5.07928072346642e-06, "original_dtype": "float32"}}, {"name": "StatefulPartitionedCall/tf_bert_for_token_classification/bert/encoder/layer_._1/attention/self/Reshape_1/shape/1", "shape": [], "dtype": "int32"}, {"name": "StatefulPartitionedCall/tf_bert_for_token_classification/bert/encoder/layer_._1/attention/self/Reshape_1/shape/2", "shape": [], "dtype": "int32"}, {"name": "StatefulPartitionedCall/tf_bert_for_token_classification/bert/encoder/layer_._1/attention/self/Reshape_1/shape/3", "shape": [], "dtype": "int32"}, {"name": "StatefulPartitionedCall/tf_bert_for_token_classification/bert/encoder/layer_._1/attention/self/transpose_1/perm", "shape": [4], "dtype": "int32"}, {"name": "StatefulPartitionedCall/tf_bert_for_token_classification/bert/encoder/layer_._1/attention/self/transpose_3/perm", "shape": [4], "dtype": "int32"}, {"name": "StatefulPartitionedCall/tf_bert_for_token_classification/bert/encoder/layer_._1/attention/self/strided_slice/stack", "shape": [1], "dtype": "int32"}, {"name": "StatefulPartitionedCall/tf_bert_for_token_classification/bert/encoder/layer_._1/attention/self/strided_slice/stack_1", "shape": [1], "dtype": "int32"}, {"name": "StatefulPartitionedCall/tf_bert_for_token_classification/bert/encoder/layer_._1/attention/self/strided_slice/stack_2", "shape": [1], "dtype": "int32"}, {"name": "StatefulPartitionedCall/tf_bert_for_token_classification/bert/encoder/layer_._1/attention/self/Reshape_3/shape/1", "shape": [], "dtype": "int32"}, {"name": "StatefulPartitionedCall/tf_bert_for_token_classification/bert/encoder/layer_._1/attention/self/Reshape_3/shape/2", "shape": [], "dtype": "int32"}, {"name": "StatefulPartitionedCall/tf_bert_for_token_classification/bert/encoder/layer_._1/attention/output/dense/Tensordot/free", "shape": [2], "dtype": "int32"}, {"name": "StatefulPartitionedCall/tf_bert_for_token_classification/bert/encoder/layer_._1/attention/output/dense/Tensordot/GatherV2/axis", "shape": [], "dtype": "int32"}, {"name": "StatefulPartitionedCall/tf_bert_for_token_classification/bert/encoder/layer_._1/attention/output/dense/Tensordot/Const_2", "shape": [1], "dtype": "int32"}, {"name": "StatefulPartitionedCall/tf_bert_for_token_classification/bert/encoder/layer_._1/attention/output/dense/Tensordot/concat_1/axis", "shape": [], "dtype": "int32"}, {"name": "StatefulPartitionedCall/tf_bert_for_token_classification/bert/encoder/layer_._1/attention/output/dense/BiasAdd/ReadVariableOp", "shape": [128], "dtype": "float32", "quantization": {"dtype": "uint16", "min": -1.1088374468139173, "scale": 3.603631611354947e-05, "original_dtype": "float32"}}, {"name": "StatefulPartitionedCall/tf_bert_for_token_classification/bert/encoder/layer_._0/output/LayerNorm/batchnorm/ReadVariableOp", "shape": [128], "dtype": "float32", "quantization": {"dtype": "uint16", "min": -0.42971007796658833, "scale": 1.5845351154784038e-05, "original_dtype": "float32"}}, {"name": "StatefulPartitionedCall/tf_bert_for_token_classification/bert/encoder/layer_._0/output/dense/Tensordot/Const", "shape": [1], "dtype": "int32"}, {"name": "StatefulPartitionedCall/tf_bert_for_token_classification/bert/encoder/layer_._0/output/dense/Tensordot/axes", "shape": [1], "dtype": "int32"}, {"name": "StatefulPartitionedCall/tf_bert_for_token_classification/bert/encoder/layer_._0/output/dense/Tensordot/GatherV2_1/axis", "shape": [], "dtype": "int32"}, {"name": "StatefulPartitionedCall/tf_bert_for_token_classification/bert/encoder/layer_._0/output/dense/Tensordot/Const_1", "shape": [1], "dtype": "int32"}, {"name": "StatefulPartitionedCall/tf_bert_for_token_classification/bert/encoder/layer_._0/output/dense/Tensordot/ReadVariableOp", "shape": [512, 128], "dtype": "float32", "quantization": {"dtype": "uint16", "min": -1.2478250908107644, "scale": 3.5802516019016e-05, "original_dtype": "float32"}}, {"name": "StatefulPartitionedCall/tf_bert_for_token_classification/bert/encoder/layer_._0/intermediate/Gelu/mul/x", "shape": [], "dtype": "float32", "quantization": {"dtype": "uint16", "min": 0.5, "scale": 1.0, "original_dtype": "float32"}}, {"name": "StatefulPartitionedCall/tf_bert_for_token_classification/bert/encoder/layer_._0/intermediate/Gelu/add/x", "shape": [], "dtype": "float32", "quantization": {"dtype": "uint16", "min": 1.0, "scale": 1.0, "original_dtype": "float32"}}, {"name": "StatefulPartitionedCall/tf_bert_for_token_classification/bert/encoder/layer_._0/intermediate/dense/Tensordot/Const", "shape": [1], "dtype": "int32"}, {"name": "StatefulPartitionedCall/tf_bert_for_token_classification/bert/encoder/layer_._0/intermediate/dense/Tensordot/axes", "shape": [1], "dtype": "int32"}, {"name": "StatefulPartitionedCall/tf_bert_for_token_classification/bert/encoder/layer_._0/intermediate/dense/Tensordot/GatherV2_1/axis", "shape": [], "dtype": "int32"}, {"name": "StatefulPartitionedCall/tf_bert_for_token_classification/bert/encoder/layer_._0/intermediate/dense/Tensordot/Const_1", "shape": [1], "dtype": "int32"}, {"name": "StatefulPartitionedCall/tf_bert_for_token_classification/bert/encoder/layer_._0/intermediate/dense/Tensordot/ReadVariableOp", "shape": [128, 512], "dtype": "float32", "quantization": {"dtype": "uint16", "min": -0.6413639152396542, "scale": 1.9154911902746294e-05, "original_dtype": "float32"}}, {"name": "StatefulPartitionedCall/tf_bert_for_token_classification/bert/encoder/layer_._0/intermediate/dense/Tensordot/free", "shape": [2], "dtype": "int32"}, {"name": "StatefulPartitionedCall/tf_bert_for_token_classification/bert/encoder/layer_._0/intermediate/dense/Tensordot/GatherV2/axis", "shape": [], "dtype": "int32"}, {"name": "StatefulPartitionedCall/tf_bert_for_token_classification/bert/encoder/layer_._0/intermediate/dense/Tensordot/Const_2", "shape": [1], "dtype": "int32"}, {"name": "StatefulPartitionedCall/tf_bert_for_token_classification/bert/encoder/layer_._0/intermediate/dense/Tensordot/concat_1/axis", "shape": [], "dtype": "int32"}, {"name": "StatefulPartitionedCall/tf_bert_for_token_classification/bert/encoder/layer_._0/intermediate/dense/BiasAdd/ReadVariableOp", "shape": [512], "dtype": "float32", "quantization": {"dtype": "uint16", "min": -0.916036618499868, "scale": 2.200582839262661e-05, "original_dtype": "float32"}}, {"name": "ConstantFolding/StatefulPartitionedCall/tf_bert_for_token_classification/bert/encoder/layer_._0/intermediate/Gelu/truediv_recip", "shape": [], "dtype": "float32", "quantization": {"dtype": "uint16", "min": 0.7071067690849304, "scale": 1.0, "original_dtype": "float32"}}, {"name": "StatefulPartitionedCall/tf_bert_for_token_classification/bert/encoder/layer_._0/output/dense/Tensordot/free", "shape": [2], "dtype": "int32"}, {"name": "StatefulPartitionedCall/tf_bert_for_token_classification/bert/encoder/layer_._0/output/dense/Tensordot/GatherV2/axis", "shape": [], "dtype": "int32"}, {"name": "StatefulPartitionedCall/tf_bert_for_token_classification/bert/encoder/layer_._0/output/dense/Tensordot/Const_2", "shape": [1], "dtype": "int32"}, {"name": "StatefulPartitionedCall/tf_bert_for_token_classification/bert/encoder/layer_._0/output/dense/Tensordot/concat_1/axis", "shape": [], "dtype": "int32"}, {"name": "StatefulPartitionedCall/tf_bert_for_token_classification/bert/encoder/layer_._0/output/dense/BiasAdd/ReadVariableOp", "shape": [128], "dtype": "float32", "quantization": {"dtype": "uint16", "min": -0.4373512239771594, "scale": 1.4151013524142866e-05, "original_dtype": "float32"}}, {"name": "StatefulPartitionedCall/tf_bert_for_token_classification/bert/encoder/layer_._0/attention/output/LayerNorm/batchnorm/ReadVariableOp", "shape": [128], "dtype": "float32", "quantization": {"dtype": "uint16", "min": -2.032682381286004, "scale": 6.098474037040605e-05, "original_dtype": "float32"}}, {"name": "StatefulPartitionedCall/tf_bert_for_token_classification/bert/encoder/layer_._0/attention/output/dense/Tensordot/Const", "shape": [1], "dtype": "int32"}, {"name": "StatefulPartitionedCall/tf_bert_for_token_classification/bert/encoder/layer_._0/attention/output/dense/Tensordot/axes", "shape": [1], "dtype": "int32"}, {"name": "StatefulPartitionedCall/tf_bert_for_token_classification/bert/encoder/layer_._0/attention/output/dense/Tensordot/GatherV2_1/axis", "shape": [], "dtype": "int32"}, {"name": "StatefulPartitionedCall/tf_bert_for_token_classification/bert/encoder/layer_._0/attention/output/dense/Tensordot/Const_1", "shape": [1], "dtype": "int32"}, {"name": "StatefulPartitionedCall/tf_bert_for_token_classification/bert/encoder/layer_._0/attention/output/dense/Tensordot/ReadVariableOp", "shape": [128, 128], "dtype": "float32", "quantization": {"dtype": "uint16", "min": -0.5938532388655047, "scale": 1.6378543738361317e-05, "original_dtype": "float32"}}, {"name": "StatefulPartitionedCall/tf_bert_for_token_classification/bert/encoder/layer_._0/attention/self/query/Tensordot/Const", "shape": [1], "dtype": "int32"}, {"name": "StatefulPartitionedCall/tf_bert_for_token_classification/bert/encoder/layer_._0/attention/self/query/Tensordot/axes", "shape": [1], "dtype": "int32"}, {"name": "StatefulPartitionedCall/tf_bert_for_token_classification/bert/encoder/layer_._0/attention/self/query/Tensordot/GatherV2_1/axis", "shape": [], "dtype": "int32"}, {"name": "StatefulPartitionedCall/tf_bert_for_token_classification/bert/encoder/layer_._0/attention/self/query/Tensordot/Const_1", "shape": [1], "dtype": "int32"}, {"name": "StatefulPartitionedCall/tf_bert_for_token_classification/bert/encoder/layer_._0/attention/self/query/Tensordot/ReadVariableOp", "shape": [128, 128], "dtype": "float32", "quantization": {"dtype": "uint16", "min": -0.3396198401637014, "scale": 1.0699720870914635e-05, "original_dtype": "float32"}}, {"name": "StatefulPartitionedCall/tf_bert_for_token_classification/bert/encoder/layer_._0/attention/self/query/Tensordot/free", "shape": [2], "dtype": "int32"}, {"name": "StatefulPartitionedCall/tf_bert_for_token_classification/bert/encoder/layer_._0/attention/self/query/Tensordot/GatherV2/axis", "shape": [], "dtype": "int32"}, {"name": "StatefulPartitionedCall/tf_bert_for_token_classification/bert/encoder/layer_._0/attention/self/query/Tensordot/Const_2", "shape": [1], "dtype": "int32"}, {"name": "StatefulPartitionedCall/tf_bert_for_token_classification/bert/encoder/layer_._0/attention/self/query/Tensordot/concat_1/axis", "shape": [], "dtype": "int32"}, {"name": "StatefulPartitionedCall/tf_bert_for_token_classification/bert/encoder/layer_._0/attention/self/query/BiasAdd/ReadVariableOp", "shape": [128], "dtype": "float32", "quantization": {"dtype": "uint16", "min": -0.4717097876355151, "scale": 1.5012086679253869e-05, "original_dtype": "float32"}}, {"name": "StatefulPartitionedCall/tf_bert_for_token_classification/bert/encoder/layer_._0/attention/self/Reshape_2/shape/1", "shape": [], "dtype": "int32"}, {"name": "StatefulPartitionedCall/tf_bert_for_token_classification/bert/encoder/layer_._0/attention/self/Reshape_2/shape/2", "shape": [], "dtype": "int32"}, {"name": "StatefulPartitionedCall/tf_bert_for_token_classification/bert/encoder/layer_._0/attention/self/Reshape_2/shape/3", "shape": [], "dtype": "int32"}, {"name": "StatefulPartitionedCall/tf_bert_for_token_classification/bert/encoder/layer_._0/attention/self/transpose_2/perm", "shape": [4], "dtype": "int32"}, {"name": "StatefulPartitionedCall/tf_bert_for_token_classification/bert/encoder/layer_._0/attention/self/key/Tensordot/Const", "shape": [1], "dtype": "int32"}, {"name": "StatefulPartitionedCall/tf_bert_for_token_classification/bert/encoder/layer_._0/attention/self/key/Tensordot/axes", "shape": [1], "dtype": "int32"}, {"name": "StatefulPartitionedCall/tf_bert_for_token_classification/bert/encoder/layer_._0/attention/self/key/Tensordot/GatherV2_1/axis", "shape": [], "dtype": "int32"}, {"name": "StatefulPartitionedCall/tf_bert_for_token_classification/bert/encoder/layer_._0/attention/self/key/Tensordot/Const_1", "shape": [1], "dtype": "int32"}, {"name": "StatefulPartitionedCall/tf_bert_for_token_classification/bert/encoder/layer_._0/attention/self/key/Tensordot/ReadVariableOp", "shape": [128, 128], "dtype": "float32", "quantization": {"dtype": "uint16", "min": -0.3191433002048893, "scale": 9.678634688084227e-06, "original_dtype": "float32"}}, {"name": "StatefulPartitionedCall/tf_bert_for_token_classification/bert/encoder/layer_._0/attention/self/key/Tensordot/free", "shape": [2], "dtype": "int32"}, {"name": "StatefulPartitionedCall/tf_bert_for_token_classification/bert/encoder/layer_._0/attention/self/key/Tensordot/GatherV2/axis", "shape": [], "dtype": "int32"}, {"name": "StatefulPartitionedCall/tf_bert_for_token_classification/bert/encoder/layer_._0/attention/self/key/Tensordot/Const_2", "shape": [1], "dtype": "int32"}, {"name": "StatefulPartitionedCall/tf_bert_for_token_classification/bert/encoder/layer_._0/attention/self/key/Tensordot/concat_1/axis", "shape": [], "dtype": "int32"}, {"name": "StatefulPartitionedCall/tf_bert_for_token_classification/bert/encoder/layer_._0/attention/self/key/BiasAdd/ReadVariableOp", "shape": [128], "dtype": "float32", "quantization": {"dtype": "uint16", "min": -0.1251004310133365, "scale": 3.471347772166505e-06, "original_dtype": "float32"}}, {"name": "StatefulPartitionedCall/tf_bert_for_token_classification/bert/encoder/layer_._0/attention/self/Reshape/shape/1", "shape": [], "dtype": "int32"}, {"name": "StatefulPartitionedCall/tf_bert_for_token_classification/bert/encoder/layer_._0/attention/self/Reshape/shape/2", "shape": [], "dtype": "int32"}, {"name": "StatefulPartitionedCall/tf_bert_for_token_classification/bert/encoder/layer_._0/attention/self/Reshape/shape/3", "shape": [], "dtype": "int32"}, {"name": "StatefulPartitionedCall/tf_bert_for_token_classification/bert/encoder/layer_._0/attention/self/transpose/perm", "shape": [4], "dtype": "int32"}, {"name": "ConstantFolding/StatefulPartitionedCall/tf_bert_for_token_classification/bert/encoder/layer_._0/attention/self/truediv_recip", "shape": [], "dtype": "float32", "quantization": {"dtype": "uint16", "min": 0.125, "scale": 1.0, "original_dtype": "float32"}}, {"name": "StatefulPartitionedCall/tf_bert_for_token_classification/bert/encoder/layer_._0/attention/self/add_1/y", "shape": [], "dtype": "float32", "quantization": {"dtype": "uint16", "min": 9.999999717180685e-10, "scale": 1.0, "original_dtype": "float32"}}, {"name": "StatefulPartitionedCall/tf_bert_for_token_classification/bert/Const", "shape": [], "dtype": "float32", "quantization": {"dtype": "uint16", "min": 1.0, "scale": 1.0, "original_dtype": "float32"}}, {"name": "StatefulPartitionedCall/tf_bert_for_token_classification/bert/strided_slice_2/stack", "shape": [1], "dtype": "int32"}, {"name": "StatefulPartitionedCall/tf_bert_for_token_classification/bert/strided_slice_2/stack_1", "shape": [1], "dtype": "int32"}, {"name": "StatefulPartitionedCall/tf_bert_for_token_classification/bert/strided_slice_2/stack_2", "shape": [1], "dtype": "int32"}, {"name": "StatefulPartitionedCall/tf_bert_for_token_classification/bert/Reshape/shape/1", "shape": [], "dtype": "int32"}, {"name": "StatefulPartitionedCall/tf_bert_for_token_classification/bert/Reshape/shape/2", "shape": [], "dtype": "int32"}, {"name": "StatefulPartitionedCall/tf_bert_for_token_classification/bert/strided_slice_3/stack", "shape": [1], "dtype": "int32"}, {"name": "StatefulPartitionedCall/tf_bert_for_token_classification/bert/strided_slice_3/stack_1", "shape": [1], "dtype": "int32"}, {"name": "StatefulPartitionedCall/tf_bert_for_token_classification/bert/strided_slice_3/stack_2", "shape": [1], "dtype": "int32"}, {"name": "StatefulPartitionedCall/tf_bert_for_token_classification/bert/Const_1", "shape": [], "dtype": "float32", "quantization": {"dtype": "uint16", "min": -10000.0, "scale": 1.0, "original_dtype": "float32"}}, {"name": "StatefulPartitionedCall/tf_bert_for_token_classification/bert/encoder/layer_._0/attention/self/value/Tensordot/Const", "shape": [1], "dtype": "int32"}, {"name": "StatefulPartitionedCall/tf_bert_for_token_classification/bert/encoder/layer_._0/attention/self/value/Tensordot/axes", "shape": [1], "dtype": "int32"}, {"name": "StatefulPartitionedCall/tf_bert_for_token_classification/bert/encoder/layer_._0/attention/self/value/Tensordot/GatherV2_1/axis", "shape": [], "dtype": "int32"}, {"name": "StatefulPartitionedCall/tf_bert_for_token_classification/bert/encoder/layer_._0/attention/self/value/Tensordot/Const_1", "shape": [1], "dtype": "int32"}, {"name": "StatefulPartitionedCall/tf_bert_for_token_classification/bert/encoder/layer_._0/attention/self/value/Tensordot/ReadVariableOp", "shape": [128, 128], "dtype": "float32", "quantization": {"dtype": "uint16", "min": -0.49975652308206475, "scale": 1.5566314377264126e-05, "original_dtype": "float32"}}, {"name": "StatefulPartitionedCall/tf_bert_for_token_classification/bert/encoder/layer_._0/attention/self/value/Tensordot/free", "shape": [2], "dtype": "int32"}, {"name": "StatefulPartitionedCall/tf_bert_for_token_classification/bert/encoder/layer_._0/attention/self/value/Tensordot/GatherV2/axis", "shape": [], "dtype": "int32"}, {"name": "StatefulPartitionedCall/tf_bert_for_token_classification/bert/encoder/layer_._0/attention/self/value/Tensordot/Const_2", "shape": [1], "dtype": "int32"}, {"name": "StatefulPartitionedCall/tf_bert_for_token_classification/bert/encoder/layer_._0/attention/self/value/Tensordot/concat_1/axis", "shape": [], "dtype": "int32"}, {"name": "StatefulPartitionedCall/tf_bert_for_token_classification/bert/encoder/layer_._0/attention/self/value/BiasAdd/ReadVariableOp", "shape": [128], "dtype": "float32", "quantization": {"dtype": "uint16", "min": -0.2729591431302683, "scale": 8.574183858340453e-06, "original_dtype": "float32"}}, {"name": "StatefulPartitionedCall/tf_bert_for_token_classification/bert/encoder/layer_._0/attention/self/Reshape_1/shape/1", "shape": [], "dtype": "int32"}, {"name": "StatefulPartitionedCall/tf_bert_for_token_classification/bert/encoder/layer_._0/attention/self/Reshape_1/shape/2", "shape": [], "dtype": "int32"}, {"name": "StatefulPartitionedCall/tf_bert_for_token_classification/bert/encoder/layer_._0/attention/self/Reshape_1/shape/3", "shape": [], "dtype": "int32"}, {"name": "StatefulPartitionedCall/tf_bert_for_token_classification/bert/encoder/layer_._0/attention/self/transpose_1/perm", "shape": [4], "dtype": "int32"}, {"name": "StatefulPartitionedCall/tf_bert_for_token_classification/bert/encoder/layer_._0/attention/self/transpose_3/perm", "shape": [4], "dtype": "int32"}, {"name": "StatefulPartitionedCall/tf_bert_for_token_classification/bert/encoder/layer_._0/attention/self/strided_slice/stack", "shape": [1], "dtype": "int32"}, {"name": "StatefulPartitionedCall/tf_bert_for_token_classification/bert/encoder/layer_._0/attention/self/strided_slice/stack_1", "shape": [1], "dtype": "int32"}, {"name": "StatefulPartitionedCall/tf_bert_for_token_classification/bert/encoder/layer_._0/attention/self/strided_slice/stack_2", "shape": [1], "dtype": "int32"}, {"name": "StatefulPartitionedCall/tf_bert_for_token_classification/bert/encoder/layer_._0/attention/self/Reshape_3/shape/1", "shape": [], "dtype": "int32"}, {"name": "StatefulPartitionedCall/tf_bert_for_token_classification/bert/encoder/layer_._0/attention/self/Reshape_3/shape/2", "shape": [], "dtype": "int32"}, {"name": "StatefulPartitionedCall/tf_bert_for_token_classification/bert/encoder/layer_._0/attention/output/dense/Tensordot/free", "shape": [2], "dtype": "int32"}, {"name": "StatefulPartitionedCall/tf_bert_for_token_classification/bert/encoder/layer_._0/attention/output/dense/Tensordot/GatherV2/axis", "shape": [], "dtype": "int32"}, {"name": "StatefulPartitionedCall/tf_bert_for_token_classification/bert/encoder/layer_._0/attention/output/dense/Tensordot/Const_2", "shape": [1], "dtype": "int32"}, {"name": "StatefulPartitionedCall/tf_bert_for_token_classification/bert/encoder/layer_._0/attention/output/dense/Tensordot/concat_1/axis", "shape": [], "dtype": "int32"}, {"name": "StatefulPartitionedCall/tf_bert_for_token_classification/bert/encoder/layer_._0/attention/output/dense/BiasAdd/ReadVariableOp", "shape": [128], "dtype": "float32", "quantization": {"dtype": "uint16", "min": -0.26723142759181673, "scale": 8.921095896905917e-06, "original_dtype": "float32"}}, {"name": "StatefulPartitionedCall/tf_bert_for_token_classification/bert/embeddings/LayerNorm/batchnorm/ReadVariableOp", "shape": [128], "dtype": "float32", "quantization": {"dtype": "uint16", "min": -0.8183686925061209, "scale": 3.5505605124132104e-05, "original_dtype": "float32"}}, {"name": "unknown_0", "shape": [512, 128], "dtype": "float32", "quantization": {"dtype": "uint16", "min": -0.5176450186386673, "scale": 1.0814687530317922e-05, "original_dtype": "float32"}}, {"name": "StatefulPartitionedCall/tf_bert_for_token_classification/bert/embeddings/range/start", "shape": [], "dtype": "int32"}, {"name": "unknown", "shape": [30522, 128], "dtype": "float32", "quantization": {"dtype": "uint16", "min": -0.6044171982429262, "scale": 1.8254271941135156e-05, "original_dtype": "float32"}}, {"name": "StatefulPartitionedCall/tf_bert_for_token_classification/bert/embeddings/Gather/axis", "shape": [], "dtype": "int32"}, {"name": "StatefulPartitionedCall/tf_bert_for_token_classification/bert/embeddings/strided_slice_1/stack", "shape": [1], "dtype": "int32"}, {"name": "StatefulPartitionedCall/tf_bert_for_token_classification/bert/embeddings/strided_slice_1/stack_1", "shape": [1], "dtype": "int32"}, {"name": "StatefulPartitionedCall/tf_bert_for_token_classification/bert/embeddings/strided_slice_1/stack_2", "shape": [1], "dtype": "int32"}, {"name": "StatefulPartitionedCall/tf_bert_for_token_classification/bert/embeddings/range/delta", "shape": [], "dtype": "int32"}, {"name": "StatefulPartitionedCall/tf_bert_for_token_classification/bert/embeddings/ExpandDims/dim", "shape": [], "dtype": "int32"}, {"name": "StatefulPartitionedCall/tf_bert_for_token_classification/bert/embeddings/Gather_1/axis", "shape": [], "dtype": "int32"}, {"name": "unknown_1", "shape": [2, 128], "dtype": "float32", "quantization": {"dtype": "uint16", "min": -0.18414537353847413, "scale": 5.410311832720476e-06, "original_dtype": "float32"}}, {"name": "StatefulPartitionedCall/tf_bert_for_token_classification/bert/embeddings/Gather_2/axis", "shape": [], "dtype": "int32"}, {"name": "StatefulPartitionedCall/tf_bert_for_token_classification/bert/embeddings/LayerNorm/moments/mean/reduction_indices", "shape": [1], "dtype": "int32"}, {"name": "StatefulPartitionedCall/tf_bert_for_token_classification/bert/embeddings/LayerNorm/moments/variance/reduction_indices", "shape": [1], "dtype": "int32"}, {"name": "StatefulPartitionedCall/tf_bert_for_token_classification/bert/embeddings/LayerNorm/batchnorm/add/y", "shape": [], "dtype": "float32", "quantization": {"dtype": "uint16", "min": 9.999999960041972e-13, "scale": 1.0, "original_dtype": "float32"}}, {"name": "StatefulPartitionedCall/tf_bert_for_token_classification/bert/embeddings/LayerNorm/batchnorm/mul/ReadVariableOp", "shape": [128], "dtype": "float32", "quantization": {"dtype": "uint16", "min": 0.5905385613441467, "scale": 1.4340755658809294e-05, "original_dtype": "float32"}}, {"name": "StatefulPartitionedCall/tf_bert_for_token_classification/bert/encoder/layer_._0/attention/output/LayerNorm/moments/mean/reduction_indices", "shape": [1], "dtype": "int32"}, {"name": "StatefulPartitionedCall/tf_bert_for_token_classification/bert/encoder/layer_._0/attention/output/LayerNorm/moments/variance/reduction_indices", "shape": [1], "dtype": "int32"}, {"name": "StatefulPartitionedCall/tf_bert_for_token_classification/bert/encoder/layer_._0/attention/output/LayerNorm/batchnorm/add/y", "shape": [], "dtype": "float32", "quantization": {"dtype": "uint16", "min": 9.999999960041972e-13, "scale": 1.0, "original_dtype": "float32"}}, {"name": "StatefulPartitionedCall/tf_bert_for_token_classification/bert/encoder/layer_._0/attention/output/LayerNorm/batchnorm/mul/ReadVariableOp", "shape": [128], "dtype": "float32", "quantization": {"dtype": "uint16", "min": 1.0522500276565552, "scale": 1.1748367892237888e-05, "original_dtype": "float32"}}, {"name": "StatefulPartitionedCall/tf_bert_for_token_classification/bert/encoder/layer_._0/output/LayerNorm/moments/mean/reduction_indices", "shape": [1], "dtype": "int32"}, {"name": "StatefulPartitionedCall/tf_bert_for_token_classification/bert/encoder/layer_._0/output/LayerNorm/moments/variance/reduction_indices", "shape": [1], "dtype": "int32"}, {"name": "StatefulPartitionedCall/tf_bert_for_token_classification/bert/encoder/layer_._0/output/LayerNorm/batchnorm/add/y", "shape": [], "dtype": "float32", "quantization": {"dtype": "uint16", "min": 9.999999960041972e-13, "scale": 1.0, "original_dtype": "float32"}}, {"name": "StatefulPartitionedCall/tf_bert_for_token_classification/bert/encoder/layer_._0/output/LayerNorm/batchnorm/mul/ReadVariableOp", "shape": [128], "dtype": "float32", "quantization": {"dtype": "uint16", "min": 0.4979667365550995, "scale": 1.4683832754448149e-05, "original_dtype": "float32"}}, {"name": "StatefulPartitionedCall/tf_bert_for_token_classification/bert/encoder/layer_._1/attention/output/LayerNorm/moments/mean/reduction_indices", "shape": [1], "dtype": "int32"}, {"name": "StatefulPartitionedCall/tf_bert_for_token_classification/bert/encoder/layer_._1/attention/output/LayerNorm/moments/variance/reduction_indices", "shape": [1], "dtype": "int32"}, {"name": "StatefulPartitionedCall/tf_bert_for_token_classification/bert/encoder/layer_._1/attention/output/LayerNorm/batchnorm/add/y", "shape": [], "dtype": "float32", "quantization": {"dtype": "uint16", "min": 9.999999960041972e-13, "scale": 1.0, "original_dtype": "float32"}}, {"name": "StatefulPartitionedCall/tf_bert_for_token_classification/bert/encoder/layer_._1/attention/output/LayerNorm/batchnorm/mul/ReadVariableOp", "shape": [128], "dtype": "float32", "quantization": {"dtype": "uint16", "min": 0.4304778575897217, "scale": 1.884452845727023e-05, "original_dtype": "float32"}}, {"name": "StatefulPartitionedCall/tf_bert_for_token_classification/bert/encoder/layer_._1/output/LayerNorm/moments/mean/reduction_indices", "shape": [1], "dtype": "int32"}, {"name": "StatefulPartitionedCall/tf_bert_for_token_classification/bert/encoder/layer_._1/output/LayerNorm/moments/variance/reduction_indices", "shape": [1], "dtype": "int32"}, {"name": "StatefulPartitionedCall/tf_bert_for_token_classification/bert/encoder/layer_._1/output/LayerNorm/batchnorm/add/y", "shape": [], "dtype": "float32", "quantization": {"dtype": "uint16", "min": 9.999999960041972e-13, "scale": 1.0, "original_dtype": "float32"}}, {"name": "StatefulPartitionedCall/tf_bert_for_token_classification/bert/encoder/layer_._1/output/LayerNorm/batchnorm/mul/ReadVariableOp", "shape": [128], "dtype": "float32", "quantization": {"dtype": "uint16", "min": 0.8909952044487, "scale": 8.0565970777292e-06, "original_dtype": "float32"}}, {"name": "StatefulPartitionedCall/tf_bert_for_token_classification/classifier/Tensordot/free", "shape": [2], "dtype": "int32"}, {"name": "StatefulPartitionedCall/tf_bert_for_token_classification/classifier/Tensordot/GatherV2/axis", "shape": [], "dtype": "int32"}, {"name": "StatefulPartitionedCall/tf_bert_for_token_classification/classifier/Tensordot/Const_2", "shape": [1], "dtype": "int32"}, {"name": "StatefulPartitionedCall/tf_bert_for_token_classification/classifier/Tensordot/concat_1/axis", "shape": [], "dtype": "int32"}, {"name": "StatefulPartitionedCall/tf_bert_for_token_classification/classifier/BiasAdd/ReadVariableOp", "shape": [7], "dtype": "float32", "quantization": {"dtype": "uint16", "min": -0.02155125360289891, "scale": 6.12669251844977e-07, "original_dtype": "float32"}}]}]}